EEGDenoisenetTraining/checkpoints/deepseparator/best_model.pth (torch, 166140 bytes, 103 tensors)

conv1_1_1.weight f4 [5, 1, 3]
00000000: 38a6 173f 98ef 53bd 4ac0 043f 5de7 d3be
00000010: 2565 0f3f e683 13be 961c 3ebe d86d 123f
00000020: 4885 2abf b069 4e3e 0f65 b23e ca52 09bf
00000030: 34a2 0cbf 9613 853e 9e52 d9bb
0.59238005 -0.051742166 0.5185591 -0.41387454 0.5601371 -0.14405784 -0.18565592 0.5719886
-0.6660962 0.20157504 0.34842727 -0.5364195 -0.54935 0.25991505 -0.006632163

conv1_1_1.bias f4 [5]
00000000: 8568 62be f781 1b3e 2990 cfbe 5ad5 5e3e
00000010: 9a37 ae3e
-0.22110184 0.15186296 -0.40539673 0.21761075 0.34026796

conv1_1_2.weight f4 [5, 1, 5]
00000000: 5d41 883e 2ccb ffbd 860e 7abc 53c6 ccbe
00000010: 20c3 3dbe 01aa db3e 68b8 12bf e2a6 5abe
00000020: c757 db3e 9d5c 313e 47fb b1be ac20 40be
00000030: 97a5 d5be 3bde 0cbe 00c4 083d 9cb6 35be
00000040: 1a49 b3be ac47 903d e6fa bebe 54e9 67be
00000050: 3513 d6bd f616 73be 2451 033e 2b5e 83be
00000060: 57c3 003f
0.26612368 -0.12489924 -0.015262252 -0.3999506 -0.18531466 0.4290314 -0.5731263 -0.21352723
0.42840406 0.17320485 -0.34762022 -0.18762463 -0.41727898 -0.13756649 0.033390045 -0.17745441
-0.3501671 0.0704492 -0.37300795 -0.22647601 -0.10452882 -0.23739228 0.12823921 -0.25657782
0.50298065

conv1_1_2.bias f4 [5]
00000000: b24f e03d e2f1 763d 094b 6ebe a139 293e
00000010: 33ee a83e
0.10952701 0.06028927 -0.23270811 0.1652589 0.32994232

conv1_1_3.weight f4 [5, 1, 11]
00000000: de6b 43bb 559a ca3b f888 debd 403e 463e
00000010: 43d7 893e cd5f 01bc 872b 83be 46f4 8b3e
00000020: 4615 69be 72be 803e 59a9 a53e 0df2 20be
00000030: 240d 913c a1ce 8d3e fbc6 643e 010a 0a3d
00000040: 97bf 5b3e 84c4 89bd 5b0d 05be 90dd 593e
00000050: 6a4f c83d 2471 2ebd 6e38 f0bd c5c4 a63e
00000060: 9263 1d3b 689a d03d 7a12 973e ee18 243e
00000070: 5233 b33d 1f10 95bd b510 9f3e 95d3 8ebe
00000080: 111c ce3c 0c3f 1e3e d5f2 923e e3ee af3e
00000090: 99f1 47be 1d4b e93d 3635 883e 9356 c53d
000000a0: 43ef af3d b668 c0be cce8 bb3e 476d 4c3e
000000b0: b42f a8bb c895 523e 21b4 80be 3044 883e
000000c0: e0ba a53e 7d21 8a3d 65b7 813e 2525 893e
000000d0: 5219 8a3e fc10 9b3e 5c85 bfbd
-0.0029818933 0.0061829486 -0.108659685 0.19359684 0.26922044 -0.007896376 -0.25619146 0.27334803
-0.22762021 0.25145298 0.32355765 -0.15717335 0.017706461 0.27696708 0.2234153 0.033700947
0.21459804 -0.067269355 -0.12993376 0.21275926 0.09780772 -0.042588368 -0.11729513 0.32571998
0.0024015647 0.10185701 0.29506284 0.16025135 0.08750023 -0.072784655 0.31067434 -0.278958
0.025159867 0.15453738 0.2870089 0.34361944 -0.19525756 0.1139128 0.26603097 0.09635653
0.085905574 -0.37579888 0.36701047 0.19963561 -0.00513264 0.2056495 -0.25137427 0.26614523
0.32369137 0.06744669 0.2533523 0.26786152 0.26972443 0.30286396 -0.09351608

conv1_1_3.bias f4 [5]
00000000: e12a 523e b91a 823d a13f 6f3e 375b d2bd
00000010: c98d b6bd
0.2052417 0.06352753 0.23364116 -0.10271304 -0.08913762

conv1_1_4.weight f4 [5, 1, 15]
00000000: a7d1 6ebe 217d e0bc 2201 c0bd d5ee 8dbe
00000010: a123 153e 238e 81be 3cde 2e3d 0810 67be
00000020: f1d2 233e 6cbf 60bd 30d4 61bd eab7 b73c
00000030: e8f1 fd3d a080 26be 4c27 71be 211b 5f3d
00000040: 2adc 593e b86a 9b3d c6b2 02be 21f2 8bbd
00000050: c59c 38bd c8b7 293e 107c 0b3e 666f 7abd
00000060: dd46 febd 4250 7b3e 4f67 8a3e 24a3 5abd
00000070: 4f80 813e 81be 0a3e d459 6abd 1788 06bd
00000080: fb39 493e 7b9d 5abe 097c 8bbd 447e 373d
00000090: e0a7 293e 7db1 2b3e 3e94 ce3d b57a 093d
000000a0: e0cf 993d b172 303c 823d 84be 46e2 cbbd
000000b0: 74b8 39be 8711 383e bc15 8abe ec1d f13d
000000c0: 5fb3 18be bebd 3a3d 16d1 1fbd d791 493e
000000d0: 3a18 103e 5568 e2be 0e72 2fbe 35bb 7c3e
000000e0: c7ee 033e 4d55 42bb c36c 5abe f21c 223e
000000f0: 02de 533e fa76 83be 15e4 9d3e c22d c6bd
00000100: df39 dabd b7e5 553e 7531 6bbe 3e27 6ebe
00000110: 96f9 6fbe f6f6 3f3e 8a5f ac3d 8411 423e
00000120: 3472 8abd fc7f 8dbb b6d3 523d
-0.23322164 -0.027403416 -0.09375216 -0.27721277 0.14564373 -0.25303754 0.042692408 -0.22564709
0.15998437 -0.054870054 -0.055134 0.022426564 0.123996556 -0.16260004 -0.23550147 0.05446923
0.21275392 0.07588714 -0.12763509 -0.06833292 -0.045071382 0.16574013 0.13621545 -0.061141394
-0.1241586 0.24542335 0.27031943 -0.05337824 0.25293204 0.13549234 -0.057214573 -0.03284463
0.19651024 -0.21349137 -0.06810767 0.04479815 0.16567945 0.16766925 0.10086869 0.03356429
0.07510352 0.010769532 -0.25828177 -0.099552676 -0.1813677 0.17975436 -0.26969707 0.11773285
-0.14912175 0.04559111 -0.03901776 0.1968454 0.14071742 -0.44220224 -0.17133352 0.24680789
0.12884055 -0.0029652894 -0.21330552 0.15831354 0.20690158 -0.2567671 0.30838075 -0.09676696
-0.10655569 0.2088841 -0.22968085 -0.23257157 -0.23435053 0.18746552 0.0841666 0.18951994
-0.06760064 -0.0043182354 0.051471435

conv1_1_4.bias f4 [5]
00000000: da32 a1be dc92 67be f987 5b3e e7d3 703e
00000010: aa73 0b3e
-0.3148411 -0.22614616 0.21438588 0.23518334 0.13618341

conv1_2_1.weight f4 [5, 20, 3]
00000000: 16a7 8ebe 11bd 19be 81e4 23be 5162 88be
00000010: 149b 1fbe 54be 653d df2f 50be b6c7 e43d
00000020: 0063 3e3d 1345 23bd b05c 7fbc 198a 10bd
00000030: f02c 9ebc 53b1 bf3d bf60 b6bd 72d8 873d
00000040: 23f6 cfbc 2fe2 22be facc ef3c b03c 6f3d
00000050: 2dbc d03c 42ce b3bd a08c 2b3d 8ab2 df3c
00000060: 7dba 8b3d 9030 47bd e6a5 5c3d 3525 c3bd
00000070: a546 08be 6eab ae3a 9240 cdbd 61f0 ab3d
00000080: 0749 903c 1d84 783d c67c 20bd 464a 8cbe
00000090: 6ae7 88bd f29e e2bd 1510 d0bd 6f68 b0bd
000000a0: 1a8b 76bd 5b48 9e3d f591 aa3d 1b7c a6bd
000000b0: eca7 9a3d 8673 fcbc d6fc 9fbb c8ad 5ebe
000000c0: 0ae5 cdbd 5184 443e fea4 cc3c 3240 7fbd
000000d0: dc07 50be 952e 1d3d 56ad 013e 3679 ee3d
000000e0: 1179 96bc 9141 c63e 9ac3 773e f6f1 843e
000000f0: bd04 29bd 1406 f93d cc24 203d 6dce 9f3d
00000100: b162 c43d f4d0 0f3d 76a8 29bc 5dcd ccbd
00000110: 9bea fa3c 2f1f c3bb 486c 263e 554a b53d
00000120: dd52 2bbe 1362 b83c cdcf 10be 1881 c2bd
00000130: b2f8 01be a9f7 efbc 5e33 2e3e 3699 cd3d
00000140: 441c d73c 61a9 77bd cf75 2cbe 5be2 00be
00000150: fe56 31be 4895 31bd bc4f cb3d 79ff a3bc
00000160: 3985 14be 45a2 5dbe 24bc 023d 5829 553d
00000170: 76cc 88bc 2790 6f3d 6bd0 083e 0e4c c93d
00000180: 5b98 863d c297 583d f1b9 1bbd b997 9e3b
00000190: d16e 3a3e d779 a7bc 86e4 903d 376a 843d
000001a0: 9082 723d 0265 423d a245 a9bd ba5d 0fbd
000001b0: 4bb9 c43d d197 d43d ff15 613d ca0e ba3c
000001c0: fa53 45bb 5439 1bbe c36d 2e3d 9cf6 8dbc
000001d0: 10e1 f4bc 4e39 d53d 64e4 f638 0a7d 103e
000001e0: 7a34 1539 b292 d1bc 50ec d9bc 2270 41be
000001f0: accb 80be a952 bfbd 6255 48be c961 243e
00000200: 2a41 2ebf d564 ffbd f486 363d 36ae 243e
00000210: d4f6 13bd 0735 53be 3d08 4e3d df97 ddbb
00000220: e422 21be 00ac 38bd 670a a7bd 0a66 45be
00000230: 034c 90bd ed56 29be d17f d4bd 2db7 8b3b
00000240: feaa dcbd c8e4 0cbe 7753 583b 430b 963d
00000250: e735 2abe dc12 e6bd 5009 51bd d7df 3f3c
00000260: ab21 913d 20c4 5f3d f60c 9e3d 8293 873d
00000270: 933b 0c3e d89c 133e 2a2e d83b 75a4 393e
00000280: 8de4 b2bd c548 e6bd a318 b13d ea64 003e
00000290: dd19 80bd 8c7d 49bd 0711 6fbd ba5f 88bd
000002a0: 3958 983c ae6b 773d f780 313b 2b73 a3bc
000002b0: e86d b1bd 766c 6bbd 4d66 9e3d 9004 0bbe
000002c0: db4f a8bd 4bbb 9ebd af82 1abe 132b 123e
000002d0: 1302 3f3e 0ef4 d6bd a26a 94bd 0090 293d
000002e0: 1ab5 193e c10b 08bd 9d23 efbc 2cac 23be
000002f0: 7460 d9bd dfc4 3ebe b1e8 103d 5d16 81bc
00000300: 46e2 a1bd b278 08be c32a 0fbe f4b9 63be
00000310: df84 83bd 66f5 65be 27c8 2dbe a059 6c3e
00000320: ca5a 8c3d 3b0d afbd e601 1a3d 2aa5 913c
00000330: 33a2 1cbc 162d 08be 7b5a 89bd c43b 083e
00000340: cedd c03d a9f9 623d f895 963d ae65 61bd
00000350: 03af 01be d2af 02bc 6979 383c e2fe 3ebd
00000360: 578f 19bd a162 aebc d677 4b3d b410 243e
00000370: 30c9 c83d d9e5 183e 5361 4a3e 5aa1 833d
00000380: 2a10 a13d 42ae 75bd 2412 d8bd b3c8 f4bd
00000390: 7992 1b3e bf11 063e c706 8e3e 941b 4f3d
000003a0: fc68 bfbd 0397 f3bd 2082 3dbd 5bb7 b9bd
000003b0: 6f75 063e 35e6 1c3d 7ff8 b73d 5eb9 a4bd
000003c0: bfde 95bc 2566 063d 3008 223e e82e 103c
000003d0: 60a0 18be 432a 12be 365c 0fbe 705d 57bd
000003e0: d8c7 f93c 857d a23b db31 6e3d 7a21 473d
000003f0: 2c00 50be 6454 36be 5a3a 67bd d1fb 643d
-0.2786185 -0.1501353 -0.16005136 -0.2663751 -0.15586501 0.056089714 -0.20330761 0.11170904
0.046481133 -0.039860796 -0.015586063 -0.03528795 -0.019308537 0.09359994 -0.089051716 0.066330805
-0.025385922 -0.15906595 0.029272545 0.058407485 0.025480354 -0.08779575 0.041882157 0.027306814
0.06822679 -0.048630297 0.05386915 -0.09528581 -0.13308199 0.0013326237 -0.100220814 0.08395458
0.017612947 0.060672868 -0.039181493 -0.27400416 -0.06684764 -0.11065473 -0.101593174 -0.08613669
-0.06019125 0.077286445 0.0832862 -0.0812914 0.0755156 -0.030816805 -0.0048824353 -0.2174598
-0.10053451 0.191911 0.024981018 -0.06231708 -0.20315498 0.038374502 0.12663779 0.11644213
-0.018368276 0.38721898 0.2419571 0.25965852 -0.041264284 0.121593624 0.039097592 0.078030445
0.095891364 0.035111383 -0.010355106 -0.100001074 0.030629447 -0.005954645 0.16252244 0.08852068
-0.16730829 0.022507703 -0.1414177 -0.09497279 -0.12692526 -0.029292898 0.17011783 0.10038988
0.026258595 -0.060464267 -0.16841815 -0.12586348 -0.17318341 -0.043355256 0.099273175 -0.02001928
-0.14503945 -0.21643932 0.031917706 0.05204138 -0.016699057 0.058487084 0.13360755 0.098289594
0.06572028 0.052879103 -0.038019124 0.004839864 0.18206336 -0.02044384 0.070748374 0.064655714
0.059206545 0.04745961 -0.082652345 -0.035001494 0.09605654 0.10380519 0.054952618 0.02271213
-0.0030109868 -0.15158588 0.042585146 -0.017329507 -0.029892474 0.104113206 0.00011772735 0.14110199
0.00014229296 -0.025582645 -0.02660194 -0.18890432 -0.2515539 -0.09341938 -0.19563821 0.16052927
-0.6806818 -0.12470404 0.044562295 0.16082081 -0.036124066 -0.20625697 0.050300825 -0.006762489
-0.15735966 -0.045085907 -0.08156281 -0.19277206 -0.07045748 -0.16537066 -0.103759415 0.0042637796
-0.10774802 -0.13759148 0.0033008733 0.07326367 -0.16622125 -0.11234066 -0.05103427 0.011711082
0.070865 0.0546304 0.07717316 0.06619932 0.13694601 0.144153 0.0065973 0.18129142
-0.08734999 -0.112443484 0.08647277 0.12538496 -0.06254933 -0.049191996 -0.058365848 -0.066588834
0.018596755 0.060405426 0.0027084926 -0.019952377 -0.08663541 -0.057476483 0.07734356 -0.13575959
-0.08218356 -0.07750567 -0.15088914 0.14274244 0.18653135 -0.104957685 -0.07246901 0.041397095
0.15010491 -0.033214334 -0.029191786 -0.15983647 -0.106141 -0.18629788 0.03537816 -0.015757734
-0.07904486 -0.13327292 -0.13981156 -0.22238904 -0.064218275 -0.22456893 -0.16970883 0.23081064
0.06853254 -0.085474454 0.037599467 0.017778952 -0.009560156 -0.13298449 -0.06706711 0.13304049
0.09417306 0.055413876 0.07352823 -0.05502861 -0.12664418 -0.007976489 0.011259415 -0.046629794
-0.037490215 -0.021287264 0.04967483 0.16021997 0.098039985 0.1493143 0.19763689 0.0642726
0.07864411 -0.05998064 -0.10550335 -0.11952343 0.15192594 0.13092707 0.27739546 0.05056341
-0.09346196 -0.118940376 -0.046266675 -0.090681754 0.13130735 0.03830548 0.08982944 -0.080431685
-0.01829469 0.032812256 0.15823436 0.008800246 -0.14904928 -0.14273934 -0.1400002 -0.052579343
0.0304908 0.0049588108 0.058153015 0.04861591 -0.20312566 -0.1780563 -0.056452133 0.055904213

conv1_2_1.bias f4 [5]
00000000: 92df c7bd 51e7 8e3d f051 b33d f18c d13c
00000010: 374e 0c3d
-0.097594395 0.06977714 0.08755863 0.025579901 0.03425428

conv1_2_2.weight f4 [5, 20, 5]
00000000: 8721 e3bc 9555 ff3c 36df 82bb 9eea 19bd
00000010: f0cd d73d 1847 93bd a295 f5bd 3af2 03bd
00000020: c25a 933d c39a debd e421 0a3c 9d76 21bc
00000030: 8209 a33c c7ca 1a3b 99b6 343d 9458 dabb
00000040: 53ed 0fbe 1ab8 00be c05a bb3d a547 cd3c
00000050: 8307 953d 2b2d 84bd 181e 2abd d02d 1cbd
00000060: 09df d7bd 962b 7d3c b06a fabc e1a8 fdbd
00000070: ed67 a23d 4d21 803d 98af a73d cd3d 1dbd
00000080: fbc5 febb 6517 b3bd 7e26 93bd 47bc 8d3d
00000090: 67e5 97bb 3ba1 66bd c177 0c3c 5b16 d93c
000000a0: 835c 7fbc 296e 65bd 7372 2c3d 32ad bfbd
000000b0: 238c 333d 6c3a 863c d49a e53b 0431 cfbb
000000c0: bfd1 b5bd 7d01 4cbc 479e 273d 6175 8ebb
000000d0: 8ad2 c9bd af8d 5cbd 3e15 acbc 7596 79bb
000000e0: a117 d23d a1ec e33d 5aa4 19bd 2364 983d
000000f0: a230 ed3d 8b17 bd3d 11d6 323d 0a81 6abd
00000100: c6bf b73d 8132 ce3d 554f b6bc 030f 8cbd
00000110: d962 d03d 4c24 b0bc a8c0 8e3c 0837 0f3b
00000120: a6ec 023e 1dea 20bd 7dcb c53c 1e41 b0bd
00000130: 5d67 993d 21d8 b33d 0e2e 20bd c6d9 afbd
00000140: 6ecb 4b3d 197b 0e3d 03ea bd3c 572c 9fbc
00000150: 3aeb 043d 2467 a9bd ef96 29bd 3df8 473d
00000160: 330b dfbb a09c 11bd daa2 a7bd bed9 ee3c
00000170: e352 0dbe f607 bd3c 26c9 9b3d 617f eabd
00000180: 749e 0fbe 9315 b4bc 19ef d0bd 972e 90bd
00000190: 8aad 053e bd8c 2dbe e0e4 bf3d 2ead 37be
000001a0: a22d 59bd 5a03 e9bd feb9 993d 93a5 003e
000001b0: 826f 2fbe 9210 21be 48bb 153f 700e e13d
000001c0: b17a 97be 6533 06bf 2323 bd3e 77e7 e7bd
000001d0: 65e5 07bd a090 94b9 009b c13d 3188 8bbd
000001e0: e7aa 85bd 5970 713d eabc 00bd 3679 13bd
000001f0: 24ff 98bd 4461 e3ba 8248 c53d fb10 5f3c
00000200: 53fb 63bd 3916 1dbe f13f 04be a44a 2dbc
00000210: 6f20 233e 416e 5b3e 1a80 a8bd 8ebd 0dbe
00000220: 251a 2c3d 8c61 293d d4d8 fc3c 8d93 fbbd
00000230: 2f1c 96bd 3583 02be da7d 97bd e3c8 f8bd
00000240: f71f b1bb 2ba1 04be 278d 9f3d 99b1 103c
00000250: 90c9 98bc a89f 8c3d 4e6c e9bd 6d69 823d
00000260: bdd3 c6bc df57 e9bd 5e59 06bc a9c4 373e
00000270: 66b2 1c3e 489c 3cbd 7f72 703c e15b a93d
00000280: 395f 633d b6e6 d83d 2409 c93c 9aa1 1f3c
00000290: cd15 bc3d 92f8 303e 7319 10be b73d bcbb
000002a0: c7bd 2d3e 6c7b 113e 5847 c33d db8f 8f3c
000002b0: 913f dd3d fb10 b1bd 27bb efbd 787f c83d
000002c0: 8997 67bd 5366 d73d c152 b83d 92b8 203d
000002d0: adc7 723e 544d 343e e3b9 3ebe ee3e 07be
000002e0: 5147 203e b434 4f3c 8039 cdbd 0d41 723d
000002f0: ebe9 b3bd 3cea 953d c0c9 203e 0b58 f3bc
00000300: 143f 063e 57d6 093d 7bc5 f43d e906 5dbe
00000310: ce9d a13c 18a3 c93b a4e2 2b3e 1c5f 06be
00000320: d4c9 d93c 40fe e0bd 1ce2 f5bd d595 d93d
00000330: f6e2 fbbc 530a 19be fbdc 05be 0e14 ddbc
00000340: cabb 1ebe 0700 4e3e 5819 2abe 2710 dd3d
00000350: d3f3 6e3e dcf8 cd3d 7d77 123e 05db faba
00000360: d7b1 b43c bec6 7fbc f86a 77bd 7e33 7f3c
00000370: 0a58 d73c 5c04 8bbd 36d3 8d3d 3828 093d
00000380: 117f b23d 4006 8fbd d736 9c3d b22a b2bd
00000390: 000e c4bc 686a 3cbe f7bb b4bb 4238 173e
000003a0: 1d37 263d 9cfa a93d 63ed 163e 0272 a8bc
000003b0: b243 113c 7455 873d 9400 cebd 7d7c 573c
000003c0: b6e9 723d 29c5 40bc 8bf3 1abd 7463 65ba
000003d0: a3b2 afbd d54b 653b 28ee 08bd 6378 e63d
000003e0: 81d2 cb3d 5789 413e 7e25 813d 2bc2 10bd
000003f0: e36d 46bd 4a3a 423c 1733 8bbc ecb5 503d
-0.027725948 0.031168738 -0.003993894 -0.037577264 0.10537326 -0.071912944 -0.11991431 -0.032213427
0.07195045 -0.10869362 0.008430932 -0.00985494 0.019901995 0.00236194 0.04411945 -0.0066633914
-0.14055376 -0.12570229 0.091481686 0.025058577 0.07276823 -0.064539276 -0.041532606 -0.038129628
-0.105405875 0.015452286 -0.03056845 -0.12385727 0.079299785 0.062563516 0.08187789 -0.038389016
-0.007775066 -0.087446965 -0.07185076 0.06920677 -0.004635501 -0.056306105 0.008573473 0.026499918
-0.015586021 -0.05601326 0.042101335 -0.09359206 0.043834817 0.01638528 0.0070069823 -0.006322982
-0.088778965 -0.012451527 0.04092243 -0.0043474887 -0.0985461 -0.053846058 -0.021006223 -0.0038084064
0.10258413 0.11129118 -0.037510253 0.074409746 0.115815416 0.09233006 0.04366118 -0.057251967
0.08972125 0.100682266 -0.022254625 -0.06838801 0.10175104 -0.021501683 0.01742585 0.002185287
0.12785587 -0.039285768 0.024144882 -0.0860617 0.07490418 0.08781458 -0.03910642 -0.08586459
0.049754553 0.034785364 0.023182875 -0.019430323 0.032450892 -0.08271626 -0.041403707 0.048820723
-0.006806755 -0.03554976 -0.08185358 0.029156562 -0.1380115 0.023075085 0.076067254 -0.11450077
-0.14025289 -0.021982944 -0.10201854 -0.07040136 0.13054481 -0.16948219 0.09369826 -0.17937157
-0.053022034 -0.113775924 0.07506178 0.12563162 -0.1713238 -0.15728977 0.58488894 0.10989082
-0.29585794 -0.5242217 0.3694087 -0.11323445 -0.033177752 -0.00028336514 0.09453392 -0.06813086
-0.06526738 0.058945034 -0.031430162 -0.036004268 -0.07470539 -0.0017347713 0.096329704 0.013614888
-0.055659603 -0.15340509 -0.12915017 -0.010576878 0.15930341 0.21428777 -0.082275584 -0.1384184
0.04201712 0.041352794 0.03086511 -0.122840025 -0.07329594 -0.12745364 -0.07397051 -0.12147691
-0.005405422 -0.12952106 0.077905945 0.008831405 -0.0186508 0.068663895 -0.113976106 0.063677646
-0.024270887 -0.11393713 -0.008200018 0.17946114 0.15302429 -0.04604748 0.0146757355 0.08269478
0.055510733 0.105908796 0.024540491 0.009743119 0.09183846 0.17282322 -0.14072208 -0.0057446617
0.16966926 0.14207238 0.09535092 0.01752465 0.1080314 -0.08645817 -0.11705618 0.09789938
-0.056541 0.10517564 0.09000159 0.03923852 0.23708983 0.17607623 -0.18625598 -0.132076
0.15652205 0.012646843 -0.10020733 0.05914407 -0.08784851 0.07320067 0.15701962 -0.029705068
0.1311 0.033651676 0.11951729 -0.21584667 0.019728567 0.0061534755 0.16785675 -0.13122219
0.026585497 -0.10985994 -0.120060176 0.10624281 -0.030747872 -0.14945345 -0.13072579 -0.026987102
-0.15501323 0.20117198 -0.1661123 0.107940964 0.23335199 0.10057232 0.14303394 -0.0019138759
0.022057457 -0.015611349 -0.060404748 0.015576242 0.026287097 -0.06787941 0.06925051 0.03348562
0.08715642 -0.06983614 0.07627647 -0.0869955 -0.023932457 -0.18399966 -0.005515571 0.14767554
0.040579904 0.08299753 0.14738993 -0.020562176 0.0088662375 0.06608096 -0.10058704 0.013152239
0.059304915 -0.011765757 -0.037829917 -0.00087504764 -0.08578994 0.0034987826 -0.03343025 0.11253431
0.0995226 0.18900047 0.06305979 -0.035341423 -0.04844464 0.0118547175 -0.016992135 0.050954744

conv1_2_2.bias f4 [5]
00000000: c3f4 a93d 87d3 a03d 537f 9f3d 5236 50bd
00000010: 3ca1 68bc
0.08298638 0.07852846 0.07787957 -0.050833054 -0.0141985975

conv1_2_3.weight f4 [5, 20, 11]
00000000: 51de e73a 3b6d cebd 8a90 2dbe 1900 bbbd
00000010: 2ab8 f3bd c76e f8bd 19a8 4e3d 3da9 553d
00000020: df64 cd3d d87b 0a3e ef6f 313e f56f c9bd
00000030: 3287 43bd 407d 6ebd e28f 1cbe badb 41be
00000040: 42f3 dbbd f36c 2ebd d1b2 963d 0032 5abc
00000050: e6aa c3bd 5b40 2cbd 68ff 82bd 6d50 1abd
00000060: bce5 a7bd 47c1 82be ed9f a5bc d6c8 9b3e
00000070: 6af2 883e 1a35 0fbc 47d8 21bd 6d74 97bd
00000080: 4e4a c9be d523 c3bd e66e 4e3c 85d3 e93d
00000090: 6707 3f3d ab8e 83bd 62cd 0cbe 18d3 1fbe
000000a0: e677 29be dfb6 6f3c 2cfa 97bc a28e 1ebc
000000b0: 1ede 15bd c1a6 77bd d8e4 583b 09a2 203c
000000c0: d6b6 8c3c 0f89 febc 5fca 09bd 2194 73bd
000000d0: 6f64 01bb d6b6 4dbd af95 c7bd 5eff c1bd
000000e0: 7282 05be d1fb 27bd c4bd 5c3d e107 70bd
000000f0: f3ca 4fbd 900f 66be bb49 22be 8bb3 edbc
00000100: 498a a7bc 3e28 afbd 58e4 a7be 8f8a 6fbe
00000110: 9ea5 56be 0597 a1be b39c 54be b49f 04be
00000120: 8f29 dcbd d1c5 b7bd beaa aabd 1b6e bfbd
00000130: c622 cbbc 86d0 3abd e84b 0c3b af7c 85bd
00000140: 341b 5dbd 0545 203d e006 bfbc 2f86 8ebd
00000150: 3a46 efbd 6c31 05be 8859 9fbd eb1f 8cbd
00000160: 72f0 df3c 7e54 08bd c362 293b 44af 343d
00000170: 073a 8b3d 36ab 323d 17e7 a7bd 0ccc bcbd
00000180: acb1 90bd b24b be3c df28 5dbc 6c0a 633d
00000190: ae19 3b3c ec66 09bd 3e3f 83bd 5435 db3c
000001a0: f451 313e fee6 843d 645b da3c 1a3c c23d
000001b0: ae46 46bd d488 bdbd 50a4 46be 66e7 64bd
000001c0: 02cf e8bd 7dbc c7bc 3f09 5abd c5d7 d23c
000001d0: 0d05 8bbd 1c34 54bc 8df2 83bc bd33 8abc
000001e0: f68d 7bbd 92a5 bcbd 7f15 41be 84a2 30be
000001f0: 9153 2abe f700 f8bd d577 43bd f491 82bd
00000200: 3c61 b53c 618f 943d 0e11 bf3c f45a b23d
00000210: 18d8 52bd 9b12 73bc c12a 1ebe 27a0 d2bd
00000220: f0eb 87bd 8709 fbbd 6582 c8bd fed1 b9bd
00000230: 8dfb 52bc fd95 0e3d 3bb6 e03c 0dab 36bd
00000240: 05ae 93bc 367f fabc 6ee3 eebd 7f5b 37bd
00000250: 8a01 bebd 343f 163d 900b 753b 7700 d83d
00000260: d8a4 a23d a6f6 be3d 01bc 26bd 1a30 07bd
00000270: 248f 1cbd f701 68ba 2f4d 34bd 55f1 43bc
00000280: 7fab 183d 564f ed3d 7ea2 043e 2733 1b3e
00000290: 4d76 833d 472b 81be d616 1fbe adb6 aebd
000002a0: 4667 9e3c 0a61 393c 6a12 943d 5f98 783d
000002b0: 3922 7e3c 05ee e9bc cabe 99bc 5ff8 4ebd
000002c0: 9ab7 04be 7faf babc ca9c 43bd 48b9 7fbd
000002d0: 7be8 333c 8881 e73d c6d8 153e 9613 453e
000002e0: 9396 303e b792 f93d aa7f f93d a931 aebd
000002f0: 6884 8bbc b847 e8bc cf84 cfbd aaf2 8f3c
00000300: 667f cdbc 8679 613c 908f 15bd d1e9 963d
00000310: 4c37 3ebd a998 9bbd 04a5 9cbd dc96 afbd
00000320: 192a cbbd 4a4d a13c f9df 6a3b 9de9 d6bd
00000330: 6f5e 00be 28ad 99bd 7f57 a2bd 984e e4bd
00000340: eaa8 f1bd 903b 863d d120 47bd 6748 62bd
00000350: 659d b23d b7a8 493d b39b 743d 5dc0 16bd
00000360: e190 7dbd 685e 1bbe fe6c 41be af9b 34be
00000370: e41f 58bd 9827 40bd 11a8 85bd a1bd 083e
00000380: 5ba9 033e f972 873d e2c7 e43d 7cbb 2cbe
00000390: 56c8 36bd 4c07 babd c725 0a3c 78de c0bd
000003a0: 7823 15bd 0ca4 3b3e 15aa 87be f456 45bc
000003b0: 0542 57bd 07c4 18be d20a 4f3e 084f c4bd
000003c0: 5a76 bdbd d151 95be cf83 bdbc 6705 c1bb
000003d0: 7026 73be 9bdc cdbe 69bc 933e 1cac f53e
000003e0: ddf0 98bd 007b a0be 4363 90be c1f1 57bd
000003f0: d7c9 fabe 7f6c fb3c fefb 78bd c380 9e3d
0.0017690157 -0.10079428 -0.16949669 -0.09130878 -0.11900361 -0.12130504 0.05045328 0.05216335
0.10029005 0.13523805 0.17327856 -0.09835807 -0.047736354 -0.058224916 -0.15289262 -0.18931475
-0.10739757 -0.04258437 0.07358325 -0.013317585 -0.09554081 -0.04205356 -0.06396371 -0.037674356
-0.08198115 -0.25538084 -0.02021786 0.30426663 0.26747447 -0.008740688 -0.0395129 -0.07395253
-0.39314502 -0.09528319 0.012599682 0.11417297 0.04663792 -0.06423696 -0.13750222 -0.1560787
-0.16549644 0.014631002 -0.018551908 -0.009677561 -0.03658878 -0.060461763 0.0033095386 0.009804257
0.017177027 -0.031071214 -0.03364026 -0.05946744 -0.00197437 -0.050223194 -0.09745347 -0.094725356
-0.13038042 -0.041011635 0.053891912 -0.058601264 -0.050730657 -0.22466874 -0.15848438 -0.029016277
-0.020451682 -0.085525975 -0.327914 -0.233927 -0.20961615 -0.3156053 -0.20762901 -0.12951547
-0.10750114 -0.08973277 -0.08333348 -0.09347173 -0.024796855 -0.04560902 0.0021407548 -0.06517922
-0.05398102 0.039128322 -0.023318708 -0.06959187 -0.116833165 -0.13007134 -0.077807486 -0.06842025
0.027336333 -0.033283703 0.002584622 0.04411246 0.06798177 0.04362031 -0.08198374 -0.09218606
-0.07065138 0.023229454 -0.013498514 0.05542986 0.011419697 -0.03354542 -0.06408547 0.026758827
0.17316419 0.06489371 0.026654907 0.0948412 -0.04840725 -0.092546135 -0.19398618 -0.05588474
-0.113676086 -0.02438187 -0.053231474 0.025737653 -0.06788073 -0.012951877 -0.016106868 -0.016870374
-0.06141468 -0.092112675 -0.18855856 -0.17249495 -0.1663344 -0.12109559 -0.047721703 -0.063754946
0.022141092 0.0725391 0.023323562 0.08708754 -0.051475614 -0.014835979 -0.15445997 -0.10284453
-0.066367984 -0.122576766 -0.09790496 -0.09073256 -0.012877357 0.03481101 0.027430644 -0.04459672
-0.018027315 -0.030578237 -0.116644725 -0.04476499 -0.09277637 0.03668137 0.0037390925 0.10546964
0.07941598 0.09324388 -0.04070664 -0.033004858 -0.038222447 -0.00088503904 -0.04401892 -0.0119593935
0.037272926 0.11587398 0.12952611 0.15156232 0.064190485 -0.2522833 -0.15536055 -0.085309364
0.019336354 0.01131464 0.07230075 0.060692187 0.015511089 -0.02855588 -0.018767733 -0.050529834
-0.12960663 -0.022788761 -0.047756948 -0.062432557 0.010980721 0.11304003 0.14633474 0.19245753
0.1724494 0.12186187 0.12182553 -0.08505566 -0.01703091 -0.02835451 -0.10132753 0.017571766
-0.025085162 0.013761884 -0.036513865 0.07368816 -0.046439454 -0.07597477 -0.07648662 -0.08573696
-0.09920139 0.019690175 0.0035839065 -0.10493777 -0.12536024 -0.0750373 -0.07926845 -0.11147803
-0.11799796 0.065543294 -0.04861528 -0.05524483 0.08721427 0.049233165 0.0597188 -0.036804546
-0.061905745 -0.15172732 -0.18889233 -0.17637514 -0.05276479 -0.04691276 -0.06526197 0.13353588
0.12857573 0.06613726 0.11170937 -0.16868395 -0.04462465 -0.09083423 0.008431858 -0.094174325
-0.03641078 0.18324298 -0.2649695 -0.012044657 -0.052553196 -0.14918528 0.20218971 -0.095853865
-0.092510894 -0.29163983 -0.02313414 -0.0058905366 -0.23745131 -0.4020737 0.28854683 0.47982872
-0.07467816 -0.31343842 -0.2820073 -0.05272079 -0.48982117 0.030691383 -0.060787193 0.07739403

conv1_2_3.bias f4 [5]
00000000: 8778 32bb 509b 333d 375f 733d 0036 a83d
00000010: 9aa4 3c3d
-0.0027232484 0.04384929 0.059416976 0.08213425 0.046055414

conv1_2_4.weight f4 [5, 20, 15]
00000000: a3f8 03bd 78bd e23c 8159 9c3c 2665 12bd
00000010: 1082 6fbd ad40 99bc 225b 723d 7c11 b7bc
00000020: 1680 e0bb c3ea b93c 7d75 2fbc e8cb 343d
00000030: 4660 6e3d cc0e fa3c a37c fcbc 966b 5fbd
00000040: a0d3 a7bd 0f48 493d 8a4b b7bc 16bd c3bc
00000050: b1f7 2a3d ef14 9bbd 058b 8f3b b2ff 853d
00000060: 3538 b73c 11a8 fa3c a785 7ebd 974b bcbd
00000070: e9de 84bd adec 21be b526 fc3e a16c 303e
00000080: 2265 a93e 1315 963e c2e5 9b3e 2e1b c43e
00000090: e06c b13e 451e 9a3e 9584 8f3e 5155 413e
000000a0: b9cf 9f3e c27f 403e a0bd 193d e8ba a43e
000000b0: 50a8 873e dbcd 8c3c ac4a e93c f2d4 c3bc
000000c0: e932 ae3c 7c5d be3c c2fd 473d b686 ff3a
000000d0: 3aa2 bcb9 2a0f babd 6252 403b 7636 6a3d
000000e0: a84c 893d 2906 15bc fb38 b93d 26c4 923b
000000f0: 64ec 8dbb e6ca 3bbd eb09 32bb 67c5 3b3d
00000100: 9cad 133d 1d27 d4bc 0013 1ebd f217 9239
00000110: a06a 263d 300f 883d 8a2d 783d 773e 2c3d
00000120: 093d 1d3e 727b 183e e31e ae3d f4eb 20bd
00000130: 9504 b5bc a093 32bc 81fd c93c 7aac 193e
00000140: 87ac 1b3e dd3a 6a3e a81a 193e a4b2 403d
00000150: 9655 dc3b 1c42 dc3d a206 87bd 4dea 66bd
00000160: a482 f93c a92e 0a3e 8fbd 9fbb a51c bb3c
00000170: 2495 203d f4c3 80bc 34dc bd3c 2c4e e8bc
00000180: 6f99 b8bd ab37 833d 2f5a 693d 26a5 24bd
00000190: 85cc 17be ee00 b2bd d950 a8bd ade2 7bbe
000001a0: 7e40 92be 154f fb3d 8682 9c3d 49a9 4cbc
000001b0: 7560 213d cf2c 89bc 224e cfbb 0748 f43c
000001c0: 20b5 223e 9b50 aa3d ec3f 213e 1b5e 8e3d
000001d0: 42bb 503e 7307 1e3e 840f e13d eda8 f53c
000001e0: c3fe 5e3c 0b24 193d bba6 773a 0200 d2bc
000001f0: a377 56bb 0ba3 8f3d d89d 073b e48d e43d
00000200: 3be9 c63d 258d 943d 571d 123e 50f5 433e
00000210: 27c5 553e 68af 2a3e 65c4 323e 5bd9 2b3d
00000220: cc04 773c 9c6f f03c f7f8 533d 95cb f33c
00000230: 8473 103d 4965 c23b 4a11 f73c eb78 adbc
00000240: 75c6 4ebd a83d aabd 5994 d2bd 0de5 eebd
00000250: 9a92 1bbe 577b 0fbe d553 fa3c 3175 153d
00000260: b467 8b3c 0443 4e3c 843b 163d ad30 e03c
00000270: 745b 2d3c c628 9cbc f3d3 18bd 90c3 0fbd
00000280: 9812 1dbe c719 dabd ff3e 4bbe bf54 abbe
00000290: 3dde b4be 073a 473d 4f13 af3d 67ea 92bc
000002a0: 6bcc 64bd 2b33 ad3c 1c82 0abd 5cf3 91bc
000002b0: f9ba d9b8 d3bb a7bc ba88 873c b019 c33d
000002c0: fd82 983d f655 ed3c e251 b0bb e73a 17be
000002d0: 6641 d8bc ceaf 7a3d 2342 123d 576a 223c
000002e0: e0a6 92bc 5064 6cbd 1065 a639 2ab2 393d
000002f0: e696 67bd adc4 53bb f3f0 eb3d fd3a 973d
00000300: b7f0 9a3c 935e 833b e6f7 57bd 256e a5bc
00000310: 722b cbbc 838b 5cbc f801 66bd eab2 c3bc
00000320: 115e b2bd 9af0 adbd c247 36bd 6a92 223d
00000330: fb32 363d 7f91 e23c ff98 2abd 7615 b0bc
00000340: b788 e2bd a117 36be 1b70 3bbc 6227 12bd
00000350: a4c6 78bd e597 1cbc d736 a6bc b8a3 f83c
00000360: 9248 a13c 589e 833d bf46 c0bc 12e8 4fbc
00000370: 719c 6fbd 83b9 8abd e9d5 f9bd a60e 1cbe
00000380: 1e9e 2dbe a75d d93d 9e63 453e ba0a 763d
00000390: 7534 323e 12d0 613e db33 333e a155 5e3e
000003a0: ec04 fd3d 7fb4 0a3e f925 a03d 499f 9bbc
000003b0: 22b4 04bd f138 ea3c e667 0cbc 2279 233d
000003c0: f8e2 a5bc 788e e7bd 02f0 8ebd efaa f8bc
000003d0: e0e5 79bc 88eb 8bbd 719f 37bd 3f0c 93bd
000003e0: e058 303d 76b1 a23d 8cf4 123e 39a7 e03d
000003f0: ee4a 153d 249f 153e 3f52 813d 76f5 543d
-0.03221954 0.027678236 0.019085648 -0.035740994 -0.058473647 -0.018707598 0.059168942 -0.022347204
-0.0068512065 0.02269495 -0.010709164 0.044139773 0.058197282 0.030524634 -0.03082115 -0.05454596
-0.08194661 0.049140986 -0.022374887 -0.023893874 0.041740123 -0.07572352 0.004380586 0.06542911
0.022365669 0.030597718 -0.06213918 -0.09194105 -0.06487829 -0.15812941 0.4924828 0.17228939
0.3308497 0.29312953 0.3044873 0.38301986 0.34653378 0.3010122 0.2803084 0.18880202
0.31213167 0.18798736 0.037534356 0.32173848 0.264956 0.017188003 0.02847799 -0.023905251
0.02126451 0.023237936 0.048825987 0.0019495103 -0.00035979023 -0.090849236 0.002934598 0.057180844
0.06704074 -0.009095707 0.09044071 0.004478949 -0.0043311585 -0.045847796 -0.0027166556 0.045842554
0.03605424 -0.025897557 -0.03859234 0.0002786513 0.04062903 0.06643522 0.060590304 0.04205176
0.15355314 0.1489084 0.08501985 -0.039287522 -0.022096911 -0.010899454 0.024657013 0.15007201
0.15202533 0.22874017 0.14951575 0.047045365 0.00672407 0.10754797 -0.06593062 -0.05637579
0.030457802 0.13494362 -0.004874892 0.022840807 0.03920473 -0.015718438 0.02317629 -0.028357588
-0.0901364 0.06407102 0.05697077 -0.04019656 -0.14824112 -0.086915836 -0.082185455 -0.24598189
-0.2856483 0.12270943 0.07642083 -0.012491533 0.03939863 -0.016745 -0.006326453 0.029819502
0.15889406 0.083161555 0.1574704 0.06951543 0.20383933 0.15432529 0.109892875 0.029987777
0.013610545 0.03738789 0.0009447147 -0.02563477 -0.0032725118 0.0701352 0.0020693447 0.11159876
0.09712454 0.07253484 0.14269005 0.19136548 0.20875989 0.16668475 0.17457731 0.041955333
0.015076827 0.029350094 0.051751103 0.029760161 0.035266414 0.0059324843 0.030159611 -0.021175822
-0.050482232 -0.08312541 -0.10282201 -0.11664782 -0.15192643 -0.14011894 0.030557552 0.036488716
0.017017223 0.01258922 0.036677852 0.02736696 0.010580886 -0.019062411 -0.037311506 -0.035098612
-0.15339124 -0.10649448 -0.1984825 -0.33463094 -0.35325804 0.048639324 0.08548605 -0.017934037
-0.05585901 0.021142563 -0.03381549 -0.017816238 -0.00010382193 -0.020475304 0.016544688 0.09526384
0.07446859 0.028971653 -0.005380855 -0.14768563 -0.026398372 0.061202817 0.035707604 0.009913049
-0.017901838 -0.057712853 0.00031737285 0.045335926 -0.056540392 -0.0032313273 0.11520567 0.07384298
0.01891361 0.004009077 -0.05272665 -0.020194123 -0.02480099 -0.013460997 -0.05615422 -0.023889024
-0.08709348 -0.08493157 -0.044502027 0.039690413 0.044482213 0.027657269 -0.041649815 -0.021494608
-0.110612325 -0.17782451 -0.011440302 -0.03568209 -0.060736313 -0.009557699 -0.020289822 0.030351505
0.019687925 0.06426686 -0.023471234 -0.012689607 -0.058498804 -0.06773665 -0.12199003 -0.15239963
-0.16954848 0.10613566 0.19276282 0.060068823 0.17402823 0.22052029 0.1750025 0.21712352
0.123544544 0.13545416 0.07819743 -0.018996852 -0.03239835 0.028591605 -0.008569693 0.039910443
-0.020249829 -0.11306471 -0.069793716 -0.030354945 -0.01525256 -0.068320334 -0.04482979 -0.0718007
0.043053508 0.07944004 0.143511 0.10969395 0.03644841 0.14611489 0.06314515 0.051991902

conv1_2_4.bias f4 [5]
00000000: 0b7d 93bd 8578 45bd 5b12 b5bb db45 0fbd
00000010: 2c17 abbd
-0.072015844 -0.04821064 -0.00552587 -0.03497873 -0.08354029

conv1_3_1.weight f4 [5, 20, 3]
00000000: d5e9 d93c c07a 59bd 6347 153e ce69 bfbd
00000010: 61fd a4bc f119 b2bd 03c5 143e ee93 2bbd
00000020: fabc 893c b1c2 a7bd 8851 913d d41d a7bd
00000030: 46b3 a53d 1e8f c3bd 373b c13d 3e8a cd3d
00000040: 6119 443d 3c19 d33d 4fe3 2c3c cad5 ffbc
00000050: 7ef5 bb3d 3a0c 4ebd a8f2 d7bd 5876 d9bd
00000060: f99a e83d 1666 293d d141 69bd 0e7d 013e
00000070: d6c7 bc3d 5bb5 473d d9a9 37be e3d2 09be
00000080: ee5a 40bd eca5 3dbe 7119 33be 10ae 5abe
00000090: 0168 2abe 3972 d23d 023c 143e 4c26 bfbd
000000a0: 2b66 f9bd 41ae 8cbe 7a8f 9dbd 2312 33be
000000b0: f58b bcbd 744f f3bd 2ef1 133d 8fe1 ebbd
000000c0: e775 96bd c7c3 f2bc e494 95bd 707b 2e3e
000000d0: 57b8 e33b f7e1 07be 92a4 bdbc f589 06be
000000e0: 5183 13be 3215 063e ef0d 94bc 781e a73d
000000f0: d6f5 093d 50bc 793d 17ee 4b3c 083c 4fbd
00000100: 3e10 05be 532e 5b3d eb73 653e ed42 2a3e
00000110: 75cd 19be 79aa d63b 22de 3a3d 4ec4 f43c
00000120: 52dc c6bd 9bc3 4fba a6e7 3a3d d998 87bc
00000130: 1246 a6bd 3bd0 f83c 0706 1ebe f728 903e
00000140: b44d 563e 2aab 593d cca1 36be 736b b6bc
00000150: ff9e 0d3e e57e 403e 3714 d8bd 83d7 fcbd
00000160: fa1b 733e fb9b 7f3e 8fd2 e93d 31e2 9bbe
00000170: 829b 22be d171 d13e 48e5 d7bc 00be 93be
00000180: 04b0 8dbd ade6 883d 3863 54bd 9603 0a3e
00000190: 1ba7 adbd 1a82 f4be 687b cf3d 2244 9bbe
000001a0: 47e7 e1bd f83a 99bd fc1c 133e 6d65 333c
000001b0: 6da4 2a3d d466 a83d 5125 c5bd 5e2f fabd
000001c0: c372 043c f049 2e3e d134 3fbe f51d cd3a
000001d0: f04f 6abe 0ceb 6cbd e1d3 4f3e 33be 1bbe
000001e0: aec8 30bd ce7a 24bc 15f8 1c3c 197c a23d
000001f0: ce95 e6bd 3a14 1b3d 74c8 ebbc f234 bdbc
00000200: c393 12be 7c73 fdbc 3113 e9bd e8c1 ccbb
00000210: eb04 9bbd 935d 6d3b 824b 46bd 5398 2bbe
00000220: fefc b83d e94b 56bd 09f2 b5bd e004 ef3d
00000230: 7da3 0fbe f1d6 de3d c26f 34bd ce09 20be
00000240: 99b2 79bd 1d59 c8bd 42f6 99bd c7cf 2f3d
00000250: c05b be3d 480d 54be e1a9 6bbd ef90 89be
00000260: d0d1 fabd 108f 8c3e 6d57 fb3d 5efd f8bd
00000270: 19c3 9a3d 84e8 d6bd e295 29be 2dcf 463e
00000280: a8ce e43c 12d9 e6bb e352 363e 8546 01be
00000290: 2a01 d2bc 19ca 5a3c 81f5 013e 4dc4 7cbd
000002a0: 852a 813d 7944 0b3e 75c3 1f3d e9a9 aa3d
000002b0: 911d 303e f5c0 323e 642b 0e3e 1e3c 5d3e
000002c0: 6b26 4a3d b3a9 803e df58 2b3e 80d4 9d3e
000002d0: 3195 f93d 100a 7dbd fb1f a83d e220 c13d
000002e0: 7976 ac3d f5cb 05bd 0b78 8d3d e70f 13bd
000002f0: d352 b3b9 2e62 1a3e ee6c ed3d 4281 76bd
00000300: 0793 cfbc c0da 093e 13d8 bd3c 2409 fe3b
00000310: e511 c1bd 60d7 18be 13a4 7c3e 1a5c 983d
00000320: 4c67 cbbd 58c6 67bd c7ea a9bd cbf4 eebb
00000330: 4b70 fc3d af29 003d 7a72 11be baca 973e
00000340: e856 bf3d 5647 61be ec28 38be 563d a3bd
00000350: 6218 5f3d d830 8a3d 1f95 6cbd e876 393d
00000360: 3d17 ad3d 6ab0 e63d a819 a0bd aec2 6cbe
00000370: 2c54 3bbe 7746 2f3e 93a6 ca3c 3ae0 5a3b
00000380: 1a31 413e a4ad e3bd e572 0ebd b567 7dbb
00000390: 6523 ae3d 3f20 6abd 7024 71bd c3be d7bd
000003a0: 679d e13d 2836 983d 3dc8 13bc 11e7 00be
000003b0: 7745 a53d c227 2fb9 1018 2ebd 0617 f03c
000003c0: d093 0d3e e593 dfbd 7c82 2e3b 4ff4 74bd
000003d0: c126 9b3d a5c0 b9bd 5620 eb3d c651 03bd
000003e0: 50ef f33d b65f 95bd 0db9 c93c e0a2 a73d
000003f0: d1d9 80bd 530a 87bc e169 e83d dec9 40bc
0.026600758 -0.05309558 0.14578013 -0.093463525 -0.020140352 -0.08696354 0.14528279 -0.041889124
0.016813744 -0.08191431 0.07095629 -0.08159986 0.08090834 -0.09548782 0.094351225 0.10036133
0.047875766 0.103075475 0.0105522415 -0.031229872 0.09177683 -0.05030463 -0.1054433 -0.106182754
0.11357684 0.041357122 -0.056947533 0.12645361 0.09217803 0.04875694 -0.17935885 -0.13459353
-0.046961717 -0.18520325 -0.17490174 -0.21355462 -0.16641237 0.102756925 0.14476016 -0.093334764
-0.1217769 -0.27476695 -0.076933816 -0.17487387 -0.09206382 -0.11880389 0.03611868 -0.11517631
-0.07346707 -0.02963437 -0.07303789 0.17039275 0.0069494653 -0.13269792 -0.023149762 -0.13138564
-0.14405562 0.13094023 -0.01807305 0.08160108 0.033681713 0.060970604 0.012446902 -0.05059436
-0.12994477 0.053510975 0.224075 0.16627093 -0.15019782 0.0065510836 0.045622 0.029878762
-0.097099915 -0.0007925571 0.045631073 -0.016552376 -0.081188336 0.03037273 -0.15431987 0.28156254
0.20928079 0.05314175 -0.17835158 -0.022268033 0.13830183 0.18798406 -0.10550731 -0.12345793
0.23741141 0.24961846 0.11417114 -0.30446008 -0.15879634 0.40907148 -0.026354447 -0.28855896
-0.06918338 0.06684623 -0.051852435 0.1347793 -0.084791385 -0.4775551 0.1013096 -0.3032542
-0.11030441 -0.074819505 0.14366525 0.010949475 0.041660715 0.08222738 -0.09626258 -0.12216066
0.008084002 0.17020392 -0.18672492 0.0015649187 -0.22882056 -0.057841346 0.20295669 -0.15209274
-0.043160133 -0.010039045 0.009580632 0.07933826 -0.11259042 0.037861086 -0.028782107 -0.023096535
-0.14314179 -0.030938856 -0.113806136 -0.0062487014 -0.075692974 0.0036219105 -0.048411854 -0.16757326
0.090326294 -0.052318487 -0.08884055 0.11670852 -0.1402721 0.108808406 -0.044051893 -0.1562874
-0.06096134 -0.09782622 -0.07517673 0.04292276 0.09294844 -0.20708191 -0.057535056 -0.26868388
-0.1224705 0.27452898 0.122725345 -0.12157701 0.07556743 -0.104935676 -0.16561082 0.19414969
0.027930573 -0.0070449198 0.17805056 -0.12624557 -0.02563532 0.013353848 0.12691309 -0.061710645
0.06306938 0.13600339 0.03900476 0.08333189 0.17198779 0.1745642 0.1388374 0.21604964
0.049353044 0.2512947 0.1673312 0.30826187 0.12186659 -0.061777174 0.08209225 0.094301
0.08421034 -0.03266521 0.06907662 -0.035903838 -0.0003420325 0.15076515 0.11593042 -0.060181864
-0.025338663 0.13462353 0.023174321 0.0077525545 -0.09427241 -0.14925909 0.24671964 0.07439442
-0.09931812 -0.05658564 -0.08296733 -0.007292365 0.12326106 0.031289753 -0.14203826 0.29646856
0.09342748 -0.21999869 -0.1798436 -0.07970683 0.054466613 0.067475975 -0.0577594 0.045279413
0.08451698 0.11264117 -0.078173935 -0.2312114 -0.18293828 0.17116724 0.024737632 0.003339781
0.18866387 -0.11117104 -0.03477754 -0.003866655 0.08502845 -0.05715966 -0.05887264 -0.10534432
0.1101635 0.074322045 -0.0090199085 -0.12588145 0.0806989 -0.00016704111 -0.042503417 0.029307853
0.13825917 -0.109168805 0.0026628068 -0.059803303 0.07575751 -0.09069947 0.11480777 -0.032060407
0.119108796 -0.07293646 0.024624372 0.08185363 -0.06291545 -0.016484415 0.1134832 -0.011766879

conv1_3_1.bias f4 [5]
00000000: af96 dd3d 92da e5bd a48e 1ebd 191f 4cbd
00000010: 6899 b03d
0.10819756 -0.112233296 -0.03871025 -0.049834345 0.0862301

conv1_3_2.weight f4 [5, 20, 5]
00000000: 54de b03d a3c0 753e 2c2f 403e da79 04be
00000010: 7228 cebc 4b73 c7bd d50b d43b 24a0 273e
00000020: 1fdb c93d 4f15 933d 4109 133e ce94 1bbe
00000030: 2533 5a3d db54 15be ec20 33bd c716 543d
00000040: e8b6 423e 778c bfbd a86a e53d 1311 f7bd
00000050: 3885 cdbd 3ab9 453d 9499 bf3d 75a9 413d
00000060: 1f9b b1bc 99a5 a6bb 28ac d13d d590 b73d
00000070: bd29 c23d 2c3c 1cbd aa71 463e 45d7 bd3d
00000080: 1654 103e 196b 50be 17f7 033e dc20 b7bd
00000090: 43c1 d33d d828 20bc bdd6 e83a f2a1 953d
000000a0: ef0c 253e 374b 653e f9a7 60bd 8098 b5bd
000000b0: 3424 d83b dd67 b23e 5023 433e 2517 89bc
000000c0: 4b50 8dbe bfe4 82be ca32 89bd cb86 bf3c
000000d0: fbe8 d03d 1c65 db3e aa2b c53e 7b95 9dbe
000000e0: 728b 03be 427b 1dbe d5af e0bd dfec bd3e
000000f0: 524e abbd eadc 443c 787b 16be da4f 35bc
00000100: 0c36 bb3c 3669 90be adba cbbe 0931 99be
00000110: 0ed0 d8bd b136 733e e680 c3bd f298 af3e
00000120: 5ce7 af3d 8b98 933e d7c4 8e3e 22b6 16bd
00000130: 87d5 e13d 9a12 cd3d 2b07 bcbd 0013 95bc
00000140: da2b 8cbd bbf2 c13d 27b5 c4bd 5f22 31bd
00000150: b720 79bc 8e3a 903d be14 2fbe c51b 57be
00000160: 86b0 a8be fc84 6abe 0e54 16be 36c7 41be
00000170: 78bc 99bd 5302 98bd 5e92 08ba 0649 e0bd
00000180: ee19 e3bb 85d3 50be 7218 a3be 45d4 9dbe
00000190: 9129 e03c 2415 10bd 7376 83bd 12c1 dcbd
000001a0: ff59 ae3d 7ff4 a7bd 431e b6bd 3390 223d
000001b0: ad4c 403d ddab bdbd db04 61bd eab3 e8bd
000001c0: ef9e a63d a280 a6ba 1ce7 1dbd 8014 98bd
000001d0: 4f14 773d c0c2 963d 4fa6 593d 1b23 c2bd
000001e0: af59 cabd f8c4 a13d b61c 013d a082 6c3d
000001f0: 8193 6c3a 3527 dfbd 122e 083d a0ba 7d3d
00000200: 5223 183d e221 1abd 47a5 683b a0e3 eebd
00000210: 3f1c 8bbd 87d3 c23d 0c5a 983c 89f3 babd
00000220: 9a45 a83d e156 a53d 78cf 99bd 9b3f af3c
00000230: f1d8 1cbd 82eb 80bd def1 bc3d 1804 e43d
00000240: cd1d 043d 934e 4b3d bed3 d1bc 87dc cdbd
00000250: f00f 633d 8a4a 153e b253 e5bd 162e 983c
00000260: 6d7e e1bd ee1a a9bd 8f47 02bd 2493 67bd
00000270: 4c16 e93c 50d0 63bd 6645 bfbd 8518 f7bd
00000280: edb3 acbd 0fc5 4d3c 20ce 11be 8ab9 2ebd
00000290: 8d3f 10bd cc70 d5bd b22a 48be 4987 b9bd
000002a0: 6e67 70be 777c 9dbe 9820 febd c444 54bd
000002b0: 327a 413d 6b35 c3bd 4a1b 6e3d e538 d6bd
000002c0: d28b 4dbd 8995 6f3a 1451 603c f70c 34be
000002d0: 50d2 2bbb 2b85 ec3d 7da8 a43d b69f 063e
000002e0: 07c9 a8bd 74c2 fa3c e26b e43c c37c 533d
000002f0: 062b b23d e117 c73d 3eef bc3c 8058 283d
00000300: e691 20bd 300d c83c 83ed b43c cd49 f1bd
00000310: d620 acbc 9b64 89bc 7e54 b93c 4058 dfbd
00000320: 9f40 89bd d471 353d b908 a43d 6640 50bd
00000330: 70d7 46bd a99c 643d 566b 8e3b f38b 37bd
00000340: 9acb 18bd 54b2 5ebd 0fcc c2bc b60b c13d
00000350: 5e1f c53d 4a0f 973d 2c19 8ebd 29ea 3e3c
00000360: ebc7 413d 9246 1fbb 780a b5bd f7a3 c93d
00000370: 23ee 4c3d 6e85 033d b146 303d 2074 d13c
00000380: 30e0 163d b868 543d 414b 813d 7b6d 843d
00000390: 3cb6 be3d 297d d43d f214 c33d d834 813d
000003a0: cc67 c0ba 6ca3 763c bb2e b03d f676 353d
000003b0: 941e 54bd 16a3 a73d 3d4c 0dbd 89fe 353d
000003c0: a892 53bd 476b b03d b7a9 6e3d 434d 46bd
000003d0: 8cce 723d d165 b63c 1f76 bdbc 02a1 c4bd
000003e0: 96c0 91bd 4fe9 39bc fdbc c73d 282a fd3b
000003f0: 19b1 b63d 11f1 393e 694b 96bc b8c0 90bc
0.08636156 0.23999266 0.18767995 -0.12937108 -0.02516577 -0.09738787 0.006471137 0.16369683
0.09856247 0.07181799 0.14358999 -0.15193483 0.05327143 -0.14583151 -0.04373257 0.051779535
0.19015086 -0.093529634 0.11201984 -0.120638035 -0.10035175 0.04827235 0.093554646 0.047280747
-0.021680413 -0.0050856587 0.10237914 0.089631714 0.09480617 -0.038143322 0.19379297 0.09269575
0.14094576 -0.20353355 0.12887226 -0.08941814 0.10339596 -0.009775363 0.0017764192 0.07306279
0.16118215 0.22391973 -0.05484769 -0.08866978 0.0065961126 0.34844866 0.1905644 -0.016734669
-0.2760032 -0.25565144 -0.0669914 0.023379704 0.102006875 0.42850578 0.38509876 -0.30778107
-0.12846163 -0.1537905 -0.10971037 0.3709478 -0.08364548 0.012015561 -0.14695537 -0.011066401
0.02285292 -0.2820527 -0.3979086 -0.29920223 -0.10586558 0.23751332 -0.0954607 0.34296376
0.0858905 0.2882732 0.27884552 -0.03679479 0.11027055 0.100133136 -0.09181055 -0.018197536
-0.068443015 0.09470125 -0.096048646 -0.04324567 -0.015205554 0.070424184 -0.17097756 -0.21006687
-0.32947177 -0.22902292 -0.14680502 -0.18923649 -0.07506651 -0.07422318 -0.00052097987 -0.10951428
-0.0069305813 -0.20393188 -0.31854588 -0.3082601 0.02736357 -0.03517641 -0.06419077 -0.10779013
0.08513259 -0.08200931 -0.08892491 0.0396883 0.046948124 -0.09261296 -0.05493627 -0.11362441
0.08135783 -0.001270313 -0.03855048 -0.07425785 0.060322102 0.07361364 0.05313712 -0.09479352
-0.09880387 0.07898897 0.03152152 0.05774176 0.00090246653 -0.1089615 0.03324706 0.061945558
0.03714306 -0.03762997 0.0035498904 -0.1166451 -0.06792497 0.09513002 0.018597625 -0.09128482
0.082164004 0.080732115 -0.07510275 0.021392634 -0.03829283 -0.062949196 0.0922582 0.11133593
0.032254983 0.04963548 -0.025613662 -0.10051828 0.05543512 0.14579216 -0.11197604 0.018576663
-0.11010442 -0.082570896 -0.031806525 -0.05653681 0.028453015 -0.055618584 -0.093394086 -0.120652236
-0.084327556 0.012559189 -0.14238787 -0.042657413 -0.035216857 -0.10421905 -0.19547537 -0.09059007
-0.23476955 -0.30759022 -0.124085605 -0.051823393 0.047235675 -0.09531673 0.058131494 -0.104600705
-0.05018217 0.0009139409 0.0136912055 -0.1758307 -0.0026217885 0.11548837 0.08039949 0.13146862
-0.08241468 0.0306103 0.027883474 0.051632654 0.08699612 0.097213514 0.023063298 0.041100025
-0.03920164 0.02442035 0.02208591 -0.117816545 -0.021011751 -0.016771605 0.022623297 -0.10905504
-0.067017786 0.044298008 0.08009476 -0.050842665 -0.0485453 0.055813465 0.0043462915 -0.0448112
-0.037303545 -0.054369286 -0.023778943 0.09426062 0.096251234 0.07375963 -0.06938395 0.011652508
0.047309797 -0.0024303538 -0.088398874 0.09845727 0.050031792 0.03210967 0.043036167 0.025568068
0.036834896 0.05185768 0.06313182 0.06466194 0.09312102 0.10375435 0.095254794 0.06308907
-0.0014679371 0.015053611 0.08602663 0.044302903 -0.051786974 0.08185403 -0.034496535 0.044432197
-0.051653534 0.086142115 0.05826732 -0.048413526 0.05927901 0.022265347 -0.023127614 -0.09601022
-0.07116811 -0.011347129 0.097528435 0.0077259727 0.089204974 0.18158366 -0.018346505 -0.01767002

conv1_3_2.bias f4 [5]
00000000: 2eb4 183d 566d aa3d a64e c33d 26b1 aebc
00000010: 6233 953d
0.037281208 0.083216354 0.095364854 -0.021324705 0.07285191

conv1_3_3.weight f4 [5, 20, 11]
00000000: 9e4f 413c c66f 56bd 6954 f2bc a7bf 783d
00000010: acee 3dbd 3c59 4ebd 6e42 403d 5aef 1d3d
00000020: 95a2 083d 232e b03c 3c56 77bd 9c37 87bd
00000030: 39d3 9fbc 56dd 81bd 9de1 14bd c078 ac3c
00000040: 6a02 5f3b 5c2b ecbb a877 e5bc 1eb6 8abd
00000050: 1e05 543d 8fd2 9bbc 25c2 ba3a 9687 7cbd
00000060: a6b2 88bd f326 64bd 3249 55bd 6c80 9a3c
00000070: caa6 84bd 8e6b 50bd 69c7 05bd ca46 b8bc
00000080: 899a abb9 6df1 7d39 3a78 b93c ec6a f63c
00000090: eb24 39bd 4b16 f7bc 6fe1 093d 65bc 183d
000000a0: 4e3e 8bbd 9d3f 4f3c be81 65bc 926f 053d
000000b0: 8798 3c3c 72c9 b7bd cb8f 46bd 645c 0abd
000000c0: c238 573c cdee 153d 065d 053d df29 b8bd
000000d0: 98f5 7cbd b335 173c 167d 3ebd 8927 c5bd
000000e0: 8163 093c 1bb9 93bd a6e5 0cbd f709 31bb
000000f0: 167b 98bd 757e 9c3c df64 a3bd daed 97bc
00000100: 6948 603d 07ef de3c b094 74bd e83c 25bd
00000110: 71e3 96bd 38cf db3c dfcd 653c 8309 133d
00000120: 8110 3a3b af00 8e3c c8fe 363d c3da 753a
00000130: 8ceb 63bb 8dc0 6ebc 83ac 25bd a938 5cbd
00000140: b53a 7a3c aeb0 233b 9e54 1cba 9d1c 9abc
00000150: 5ce3 12bc 08a2 7ebd c78f 98bc 2174 7ebd
00000160: b103 423c ab06 84bd 3590 b9bd f318 cbbc
00000170: ce3b 103d 984b 43bc e7be 02ba 495d b13c
00000180: 25e6 283d 16a8 593d 12d5 933d 0722 47bc
00000190: 4c95 abbd 5052 b5bd 683a ae3c 51b8 383d
000001a0: d7b2 883d ed39 b5bc 5a18 e83b 1c06 8cbd
000001b0: c818 933c ec22 3b3c 0aa2 bcbd b271 f9bd
000001c0: 962e b3bd b261 84bd 0b48 10be adbe 37bd
000001d0: d909 80bd d4d8 90bd d716 d0bd ac22 c0bd
000001e0: 3c8c 11be cd97 513d 1d9c 893d 4754 6f3d
000001f0: ada1 87bc 255e a8bd 6a6d b4bd 5f20 9b3c
00000200: b2e4 63bd bfd4 5e3d 4e16 88bc b705 9bbc
00000210: d19a 5c3b 9924 933c 8818 98bc 93d4 c4bd
00000220: 1603 80bd 9438 423c c8c7 e9bd 7b95 91bd
00000230: 4ccc ebbd fae7 9cbd 95ec b7bc 3fc0 6cbd
00000240: b5e5 073d 3aa7 09bd efbd cfbd 3740 ecbc
00000250: b554 00be 21e6 d6bd 4e8e 19bd 41d0 d3bd
00000260: 50fa 3abd 5467 2ebe 11ee 25bd dc1d 0cbd
00000270: 2b41 0bbd b1cc adbd 1ed8 dcbc ba25 d33b
00000280: a6d6 9a3c 7930 c43c 7c8a 323c a2bd d2bc
00000290: 66c8 b03c 7e98 2cba 5f59 f43c e9dc 1f3b
000002a0: 197b 8cbd 13b1 aabd 7b6f 71bc ab9f d9bc
000002b0: 82d5 07be 55b9 cdbc ade5 acbd 5bfc 21be
000002c0: 2b2f 603b b4a8 b13d f25d ef3d aa46 b53d
000002d0: 0674 69bb 63f1 5e3c 85e3 febc d9af 883d
000002e0: 47dc 4e3d 8879 9b3c c8a9 1b3c 913d c43b
000002f0: ef99 073c a0a4 c93a b5cc e13c de71 aa3d
00000300: 0609 303d 0207 7d3d e09c c03d bbb3 86bc
00000310: 8b5a ad3d 8515 f0bb 4df6 c63c c467 033d
00000320: cfba 8d3d 2862 c6bc b021 3ebc 6547 493d
00000330: d480 24bd 2530 993d 19da d3bc 28a3 933d
00000340: a566 223d 19aa d23d a5d5 ad3d 16cf b83a
00000350: baf5 613d 07b1 093d 1900 a1bc 5dad 58bd
00000360: c12c 95bd 8f55 27bc f3ed dbbc df12 83bd
00000370: 8dd5 f4ba 42e0 98bd 1910 20bd 83e1 213d
00000380: 4273 eebc e248 05bd 30d5 cd3c 3665 553d
00000390: 2c38 f4bc d1df 803d 2d8f 16bc 5fcd 25bd
000003a0: 126a 7ebd fcae 73bd 2105 80bc 15a8 303d
000003b0: f519 11bd aee7 f63c f9b4 c73b b8fe abbc
000003c0: 4ed2 153d c126 613d 4fa1 acbd 5862 97bd
000003d0: 33e6 a33b d484 dd3c 7add 4fbd a22f 763d
000003e0: 1986 0f3d 9188 253d 1cad 38bd 6f12 393d
000003f0: c08e b63c fcd9 2cbc 4984 1c3c 2ad0 a9bb
0.011798767 -0.05235269 -0.029581266 0.06072965 -0.046370193 -0.05037807 0.046938352 0.03855834
0.033358175 0.021506375 -0.060384974 -0.066024035 -0.019509898 -0.063410446 -0.036347974 0.021053672
0.0034028539 -0.0072073173 -0.028011158 -0.06773017 0.051762693 -0.0190213 0.0014248533 -0.061652742
-0.066746995 -0.055701207 -0.052071758 0.018860064 -0.06477125 -0.050883822 -0.032660875 -0.022494692
-0.000327308 0.00024217898 0.022640336 0.030080281 -0.045201223 -0.030161997 0.033662256 0.037289042
-0.06798993 0.012649444 -0.014007984 0.032577105 0.011510975 -0.089739695 -0.048476975 -0.033779517
0.013136091 0.03660469 0.032559417 -0.08992361 -0.061757654 0.0092291115 -0.04650601 -0.09626681
0.00838554 -0.072130404 -0.034398697 -0.0027013996 -0.07445352 0.019103268 -0.07978224 -0.018546034
0.054756556 0.027213586 -0.059712112 -0.040341288 -0.073676 0.026832208 0.014026134 0.035897743
0.0028391185 0.01733431 0.044676572 0.00093786063 -0.0034777848 -0.014572275 -0.040447723 -0.053764973
0.015272786 0.0024977135 -0.00059635367 -0.018812472 -0.0089653395 -0.062166244 -0.018623246 -0.062122468
0.0118417 -0.06446584 -0.090607084 -0.02479217 0.035213284 -0.011919878 -0.0004987553 0.021650927
0.041235108 0.053138815 0.07218374 -0.012154109 -0.083780855 -0.088535905 0.021268085 0.045097653
0.06674736 -0.022122348 0.007082981 -0.06837103 0.017956153 0.0114219 -0.09210594 -0.12179889
-0.0874912 -0.064639464 -0.14089982 -0.044859577 -0.06251878 -0.07072607 -0.10160606 -0.09381613
-0.14213651 0.05117016 0.06719229 0.058429983 -0.016556585 -0.08221082 -0.088099316 0.018936334
-0.055638023 0.05440211 -0.016612198 -0.018923623 0.0033661614 0.017961787 -0.018566385 -0.09610858
-0.062505886 0.01185431 -0.114150584 -0.07108589 -0.11513576 -0.076614335 -0.022451678 -0.057800528
0.03317805 -0.033606745 -0.10143649 -0.028839214 -0.12532313 -0.10493112 -0.037489228 -0.10342456
-0.045648873 -0.17031604 -0.04051024 -0.034208164 -0.033997696 -0.084863074 -0.026958521 0.0064437063
0.01890118 0.023948895 0.010897275 -0.02572519 0.021579932 -0.00065840024 0.029827772 0.0024393147
-0.068594165 -0.083345555 -0.014736052 -0.026565393 -0.1326504 -0.025112787 -0.08442245 -0.15818922
0.0034207802 0.08674756 0.116878405 0.08851369 -0.0035622134 0.013607356 -0.03111435 0.06674165
0.05050304 0.018978849 0.009500928 0.0059887846 0.008276447 0.0015384145 0.027563432 0.083225
0.042977355 0.06177426 0.094049215 -0.016443124 0.08464535 -0.007326784 0.024287367 0.03208138
0.069203965 -0.024216726 -0.011604711 0.049140353 -0.040161923 0.07479886 -0.025860833 0.07208854
0.03964867 0.1028635 0.08488015 0.0014099802 0.055165984 0.033616092 -0.019653367 -0.052899707
-0.07283927 -0.01021327 -0.026846861 -0.06400084 -0.0018679366 -0.07464649 -0.039077852 0.039521705
-0.029107694 -0.03254021 0.02512607 0.052098475 -0.029811941 0.062926896 -0.009189409 -0.04047906
-0.062112875 -0.05949305 -0.015627446 0.043129046 -0.035425145 0.03013977 0.0060945717 -0.020995483
0.036577515 0.0549686 -0.08429205 -0.073918045 0.005001807 0.027040876 -0.050748326 0.06010402
0.035039995 0.040413443 -0.045086965 0.045183595 0.022284865 -0.010550018 0.009553024 -0.005182286

conv1_3_3.bias f4 [5]
00000000: de4e 683d 569e e33c ffe3 903c 9f27 dbbb
00000010: a692 b23c
0.05671584 0.027785461 0.017686842 -0.006688073 0.021798443
