EEGDenoisenetTraining/checkpoints/deepseparator/checkpoint_epoch_40.pth (torch, 503337 bytes, 301 tensors)

conv1_1_1.weight f4 [5, 1, 3]
0	0x3f0eb236	0.5574068
1	0x3d7120ee	0.058869295
2	0x3f00475b	0.5010888
3	0xbed2b45e	-0.41153234
4	0x3f023447	0.5086102
5	0xbdc3c0b0	-0.095582366
6	0xbd79cd43	-0.06098677
7	0x3ee42f9b	0.4456757
8	0xbeee9e60	-0.46605206
9	0x3e8cf304	0.27529156
10	0x3e6a81c9	0.22901072
11	0xbf04abf7	-0.518249
12	0xbf161a05	-0.5863345
13	0x3e3b8170	0.18311095
14	0xbd9d7a4a	-0.076893404

conv1_1_1.bias f4 [5]
0	0xbe562d69	-0.2091576
1	0x3e0a57b2	0.13510016
2	0xbf29bca1	-0.6630345
3	0x3e72d198	0.23712766
4	0x3eacb334	0.3373047

conv1_1_2.weight f4 [5, 1, 5]
0	0x3eb10228	0.34571958
1	0xbd878590	-0.06617272
2	0xbca99519	-0.020700978
3	0xbf092027	-0.53564686
4	0xbe6bb274	-0.23017293
5	0x3ee66a4e	0.4500298
6	0xbef67499	-0.48135832
7	0xbe2ab30b	-0.16669862
8	0x3ee1eef7	0.44127628
9	0x3e8e4ca8	0.2779286
10	0xbeabf12c	-0.33582437
11	0xbe392b47	-0.18082915
12	0xbed99bea	-0.42501765
13	0xbe18d891	-0.14926364
14	0x3d0fefd3	0.035140824
15	0xbe38c5ad	-0.18044157
16	0xbeb2b15b	-0.34900936
17	0x3dc959d2	0.09831585
18	0xbec1b23c	-0.37831295
19	0xbe7a5cc9	-0.24449457
20	0xbe061dd2	-0.13097313
21	0xbe9b5302	-0.30336767
22	0x3dec2416	0.1153032
23	0xbe61f24a	-0.22065082
24	0x3f08d4fe	0.5345

conv1_1_2.bias f4 [5]
0	0xba9bc508	-0.0011884281
1	0x3d1c759f	0.03819811
2	0xbe72e229	-0.23719086
3	0x3e2c7ff9	0.16845693
4	0x3eb52dc2	0.35386473

conv1_1_3.weight f4 [5, 1, 11]
0	0x3d53d4b5	0.051716525
1	0xbc034012	-0.008010881
2	0xbdb3f766	-0.08787422
3	0x3e80effc	0.25183094
4	0x3e9da43d	0.30789366
5	0x3d4a38be	0.04937052
6	0xbe41ceb6	-0.1892651
7	0x3e90b8bc	0.2826594
8	0xbdf43ce0	-0.119256735
9	0x3e80651d	0.25077143
10	0x3e9dfc20	0.3085642
11	0xbe3578b7	-0.1772183
12	0x3d278e4e	0.040907197
13	0x3e8bde6f	0.2731814
14	0x3e80d610	0.25163317
15	0x3d5bb87d	0.05364274
16	0x3e445151	0.19171645
17	0xbd3c5f50	-0.045989335
18	0xbddab4c6	-0.10679011
19	0x3e5e60e3	0.21716647
20	0x3d9c4736	0.0763077
21	0xbe078f3d	-0.13238235
22	0xbdbb5309	-0.09146697
23	0x3e8271a1	0.25477317
24	0x3d8de61c	0.069286555
25	0x3dd6e342	0.10492565
26	0x3e811096	0.25207967
27	0x3e2a5b2b	0.1663634
28	0x3db13b5a	0.086538985
29	0xbcde865f	-0.027163683
30	0x3ea3b1d7	0.3197162
31	0xbea2664a	-0.31718665
32	0xbde7dc91	-0.113213666
33	0x3de471e7	0.11154538
34	0x3e9377f9	0.2880247
35	0x3ea8786c	0.32904375
36	0xbe36a9f3	-0.17838268
37	0x3dea7c9c	0.114495486
38	0x3e885765	0.26629177
39	0x3e0ea8a7	0.13931523
40	0x3e108643	0.14113717
41	0xbe9235b6	-0.28556603
42	0x3ec37adf	0.3817968
43	0x3e64c2fc	0.22340006
44	0xbc627452	-0.013821678
45	0x3dfb1d65	0.12261466
46	0xbe2c2e9b	-0.16814654
47	0x3e75eb24	0.2401548
48	0x3ea52f4b	0.32262644
49	0x3dedd543	0.11612942
50	0x3e78aabb	0.24283879
51	0x3e842ae1	0.25813964
52	0x3e9d6626	0.30741996
53	0x3ea9923f	0.3311939
54	0xbc987386	-0.018609773

conv1_1_3.bias f4 [5]
0	0x3e28343d	0.16426177
1	0x3d595016	0.05305489
2	0x3e423f96	0.18969569
3	0xbdc3ff78	-0.09570211
4	0xbd8bf2e1	-0.06833435

conv1_1_4.weight f4 [5, 1, 15]
0	0xbe81bab9	-0.2533777
1	0xbd7fbe1b	-0.062437158
2	0xbe0f1685	-0.13973434
3	0xbea43142	-0.3206883
4	0x3de03f05	0.1094952
5	0xbe7bd6f4	-0.24593717
6	0x3cd3d523	0.025858467
7	0xbe598e36	-0.21245655
8	0x3e4c871b	0.19973414
9	0xbc8ffa1c	-0.017575316
10	0xbc33bc08	-0.010970123
11	0x3d911071	0.07083214
12	0x3e330690	0.17482972
13	0xbdf5923a	-0.11990781
14	0xbe6b127e	-0.22956273
15	0xbdba5eca	-0.09100111
16	0x3e3c2598	0.18373716
17	0x3c8b5a47	0.017010821
18	0xbe222d2e	-0.15837547
19	0xbd510ddb	-0.051038604
20	0xbd3be9a9	-0.045877133
21	0x3e2e81b2	0.17041662
22	0x3e18622f	0.14881204
23	0xbd249a95	-0.040186483
24	0xbdc7103a	-0.09719892
25	0x3e81e5b0	0.2537055
26	0x3e7c8c20	0.24662828
27	0xbd10fbb6	-0.0353963
28	0x3e820ae4	0.25398934
29	0x3e21eeb8	0.1581372
30	0xbd888568	-0.0666607
31	0xbd58150c	-0.052754447
32	0x3e2d982d	0.16952582
33	0xbe6d3339	-0.23164071
34	0xbdc4692e	-0.09590374
35	0x3cc889e2	0.02447981
36	0x3e2a03fd	0.16603084
37	0x3e1c73da	0.15278569
38	0x3dbc18a5	0.09184388
39	0x3d14a9c2	0.036294706
40	0x3d8c88e6	0.06862049
41	0x3bf1cb64	0.0073789824
42	0xbe83c2f8	-0.25734687
43	0xbdc956e7	-0.098310284
44	0xbe327051	-0.17425658
45	0x3e4e7672	0.20162371
46	0xbe759c58	-0.23985422
47	0x3dd6700c	0.1047059
48	0xbe08951b	-0.13338129
49	0x3d6553f6	0.055988275
50	0xbd283201	-0.041063312
51	0x3e4a453a	0.1975297
52	0x3df9a5fb	0.121898614
53	0xbee41352	-0.4454599
54	0xbe44f24b	-0.19233052
55	0x3e706cfc	0.23479074
56	0x3e050646	0.12990674
57	0x3c129147	0.00894577
58	0xbe6b82a1	-0.2299905
59	0x3e215c30	0.15757823
60	0x3e3e6d89	0.18596472
61	0xbe8307b4	-0.25591815
62	0x3e82ca11	0.2554479
63	0xbdd0a3bf	-0.10187482
64	0xbdd4333a	-0.10361333
65	0x3e4b441c	0.198502
66	0xbe6427cc	-0.22280806
67	0xbe768061	-0.2407241
68	0xbe7506d4	-0.23928386
69	0x3e4a6900	0.19766617
70	0x3dd73de1	0.10509849
71	0x3e6c1065	0.23053129
72	0xbd0edfa2	-0.03488124
73	0x3d447ffd	0.04797362
74	0x3da5d393	0.08096995

conv1_1_4.bias f4 [5]
0	0xbe69948b	-0.22810571
1	0xbe8d3caf	-0.2758536
2	0x3e6e5161	0.23273231
3	0x3e7b6ed1	0.24553992
4	0x3e29ac2d	0.16569586

conv1_2_1.weight f4 [5, 20, 3]
0	0xbe53389f	-0.20627068
1	0xbe066712	-0.13125256
2	0xbe3ef011	-0.18646266
3	0xbe136a1e	-0.14395949
4	0xbd9b52fe	-0.07584189
5	0x3c443631	0.011975811
6	0xbe8947b2	-0.26812512
7	0xbe36d16d	-0.17853327
8	0xbdfe65c7	-0.12421756
9	0xbd6a4463	-0.057194125
10	0xbd2419ce	-0.04006367
11	0xbcd43035	-0.025901893
12	0xbb645d9f	-0.0034845842
13	0x3dad9547	0.08475738
14	0xbdd17e38	-0.102291524
15	0x3c61fe5a	0.013793552
16	0xbd3a1b4b	-0.045436185
17	0xbe15dfb3	-0.14636116
18	0xbd33c60c	-0.043890044
19	0xbcda5c7a	-0.026655424
20	0xbdb30a63	-0.087422155
21	0xbddcd20d	-0.107822515
22	0xbbdb2f10	-0.00668896
23	0xbb995e5a	-0.004680437
24	0x3d2ec816	0.042671286
25	0xbda97b81	-0.082755096
26	0x3d0618e3	0.032738578
27	0xbe01d870	-0.1268022
28	0xbe4b0d55	-0.19829305
29	0xbdba20f3	-0.09088316
30	0xbe0cc3f1	-0.1374662
31	0x3d96cb01	0.07362939
32	0xbbb47e3f	-0.005508214
33	0x3dc0d3d8	0.09415406
34	0x3c2f6781	0.01070583
35	0xbe50dc68	-0.20396578
36	0xbc5d438c	-0.013504874
37	0xbd85b9dc	-0.065295905
38	0xbdba6833	-0.09101906
39	0xbd911c74	-0.07085505
40	0xbd173291	-0.03691346
41	0x3dc22e87	0.09481531
42	0x3d5ef943	0.054436933
43	0xbe0c44a0	-0.13698053
44	0x3c5b563e	0.013387261
45	0x3d22ea8a	0.039774455
46	0x3d96b112	0.07357992
47	0xbe20c16d	-0.15698786
48	0xbe05e8c5	-0.13077076
49	0x3d9f1b82	0.077689186
50	0xbdab9f93	-0.08380046
51	0xbd09b880	-0.03362322
52	0xbe419be1	-0.1890712
53	0x3d46e6b8	0.048559874
54	0x3cd60275	0.026124218
55	0x3d800816	0.06251542
56	0x3c01ed8d	0.007930172
57	0x3e27f2fe	0.16401288
58	0x3cc84869	0.02444859
59	0x3e2140ff	0.1574745
60	0xbd774029	-0.060363922
61	0x3e006025	0.12536676
62	0x3c22a437	0.009926847
63	0x3dbf9da6	0.09356241
64	0x3db6b841	0.089218624
65	0x3d726b64	0.059184447
66	0xbd763385	-0.060107727
67	0xbd6a3720	-0.057181478
68	0x3c0e73d3	0.008694607
69	0x3c1549b6	0.009111812
70	0x3e1a1c50	0.15049863
71	0x3dd0ae09	0.101894446
72	0xbe265ad1	-0.16245581
73	0x3ce167da	0.02751534
74	0xbe0b562a	-0.13607088
75	0xbdd5a394	-0.10431591
76	0xbe01f0d5	-0.12689526
77	0xbc179f64	-0.00925431
78	0x3dcef5e3	0.10105493
79	0x3da5bc98	0.08092612
80	0xbc4dd851	-0.012563781
81	0xbd74c04d	-0.059753705
82	0xbe3134f8	-0.17305362
83	0xbe034f96	-0.12823328
84	0xbe2fd073	-0.17169361
85	0xbd2ce757	-0.04221281
86	0x3dd4ca08	0.10390097
87	0xbc43e01f	-0.01195529
88	0xbe28ee0e	-0.1649706
89	0xbe67e892	-0.22647312
90	0x3c3e854c	0.01162846
91	0x3cfdc1a3	0.030976122
92	0xbcb2bf31	-0.021819683
93	0x3c7f5101	0.015583278
94	0x3db321ec	0.087467045
95	0x3db07ba4	0.086173326
96	0x3d2c0d2e	0.042004757
97	0x3cf08a17	0.029362721
98	0xbd8ce5f6	-0.06879799
99	0xbcbdf035	-0.023185829
100	0x3e11212b	0.14172809
101	0xbd2d24a9	-0.04227129
102	0x3d3dfd84	0.04638435
103	0x3d316fdb	0.043319564
104	0x3cf45802	0.029827122
105	0x3d2d6b6f	0.042338785
106	0xbdab9f8f	-0.08380043
107	0xbd0ea2cd	-0.034823228
108	0x3d92f85e	0.071762785
109	0x3d6351be	0.055497877
110	0x3c49720e	0.012295259
111	0x3cd02834	0.025409795
112	0x3b0cbc9e	0.002147473
113	0xbe12506c	-0.14288491
114	0x3c0feb62	0.008784147
115	0xbd413ef1	-0.047179166
116	0xbd33a490	-0.04385811
117	0x3db624ad	0.08893714
118	0xbb7ab6ed	-0.0038256005
119	0x3e03270d	0.12807865
120	0xbc51b6b4	-0.0127999075
121	0xbd16d0fa	-0.03682039
122	0xbca8a344	-0.020585664
123	0xbe14ef39	-0.14544381
124	0xbe45fcdf	-0.19334744
125	0xbdfe1236	-0.12405817
126	0xbe1ee55b	-0.1551718
127	0x3c944500	0.018099308
128	0xbec53480	-0.38516617
129	0xbdf014c8	-0.11722714
130	0x3d83e4d4	0.0644013
131	0x3e307b31	0.17234494
132	0xbcdf5d71	-0.027266236
133	0xbe3c6477	-0.183977
134	0x3d7266c6	0.059180044
135	0xbc3995b3	-0.011327195
136	0xbe28c8c0	-0.1648283
137	0xbd355189	-0.04426721
138	0xbd989100	-0.074495316
139	0xbe392e4e	-0.1808407
140	0xbdcd594c	-0.10026798
141	0xbe1f27e0	-0.15542555
142	0xbdc5982c	-0.09648165
143	0x3bf1da0d	0.00738073
144	0xbddc6b88	-0.107626975
145	0xbe092989	-0.1339475
146	0x3c27b6a8	0.01023642
147	0x3d832f4e	0.06405507
148	0xbe2224b9	-0.15834321
149	0xbe09e61f	-0.1346669
150	0xbdaf6773	-0.08564653
151	0xbb5a118b	-0.0033274617
152	0x3d528e44	0.051405206
153	0x3c3e3613	0.011609572
154	0x3d3b2ce4	0.045697108
155	0x3d7c562a	0.06160561
156	0x3de61e8a	0.112362936
157	0x3dddc4db	0.10828563
158	0x39e25ea4	0.00043176592
159	0x3e08c709	0.13357176
160	0xbdc2a2e8	-0.09503728
161	0xbe04d2c5	-0.12971027
162	0x3d88b869	0.066757984
163	0x3dd7ae54	0.10531297
164	0xbd9fec25	-0.07808713
165	0xbd693d27	-0.056943085
166	0xbd71a053	-0.058990788
167	0xbd8ad5ac	-0.06779036
168	0xbd185f99	-0.037200544
169	0x3c935fe3	0.017990058
170	0xbbb66dd9	-0.005567294
171	0xbbe6f7e1	-0.0070485924
172	0xbd91f19f	-0.07126164
173	0xbd1b86cc	-0.03797035
174	0x3d6e133d	0.058123816
175	0xbe1ed306	-0.15510187
176	0xbd9b9426	-0.075966164
177	0xbd7eb4fd	-0.062184323
178	0xbe1b67bd	-0.15176292
179	0x3ddf0bb6	0.108909056
180	0x3e244d76	0.16045174
181	0xbdb00919	-0.08595485
182	0xbd9ddccc	-0.07708129
183	0x3d9f685a	0.07783575
184	0x3e1268c0	0.14297771
185	0xbcf49f5d	-0.029861147
186	0x3d12423e	0.035707705
187	0xbdca2add	-0.09871457
188	0xbd83c513	-0.06434073
189	0xbe34371b	-0.17599146
190	0x3d3addec	0.045621797
191	0xbc84a499	-0.016191768
192	0xbd8d27df	-0.068923704
193	0xbe084d4a	-0.13310733
194	0xbe0ed256	-0.13947424
195	0xbe687dd5	-0.22704251
196	0xbd8f650b	-0.07001694
197	0xbe569b3d	-0.20957656
198	0xbe1eedf1	-0.15520455
199	0x3e359796	0.17733607
200	0x3d9be5c2	0.07612182
201	0xbdb3686d	-0.08760152
202	0x3d0f2772	0.034949727
203	0x3c2e954f	0.010655715
204	0xbbffe88d	-0.0078097046
205	0xbe06c20b	-0.13159959
206	0xbd85918a	-0.065219
207	0x3e0cdd5a	0.13756314
208	0x3db46585	0.08808426
209	0x3d3edcb7	0.04659721
210	0x3d80448f	0.062630765
211	0xbd6e1255	-0.05812295
212	0xbdea825c	-0.11450645
213	0xbca0f6d3	-0.019648945
214	0xbc81fd58	-0.015867874
215	0xbd84059f	-0.06446385
216	0xbd6288fa	-0.055306412
217	0xbd003b4a	-0.031306542
218	0x3d1d93cc	0.03847103
219	0x3e0dbbdb	0.13841192
220	0x3dbdcda4	0.092677385
221	0x3e075930	0.13217616
222	0x3e457e91	0.19286563
223	0x3d7699c6	0.060205244
224	0x3dbb83bd	0.091559865
225	0xbd83ea71	-0.064412005
226	0xbdcf6cd6	-0.10128181
227	0xbdf4d099	-0.11953849
228	0x3e1f6c68	0.15568697
229	0x3e0708de	0.13186976
230	0x3e863fc4	0.26220524
231	0x3d6ff36e	0.058581762
232	0xbdb16a89	-0.08662898
233	0xbde4dd8c	-0.11175069
234	0xbd936fcd	-0.07199059
235	0xbdddeacd	-0.108358
236	0x3dd7238c	0.10504827
237	0x3d4e85dd	0.05042063
238	0x3d83bebe	0.064328656
239	0xbda450c7	-0.080232196
240	0xbd0289ad	-0.03186958
241	0x3d046ffb	0.032333355
242	0x3e2e53b2	0.17024115
243	0x3c8063d3	0.0156726
244	0xbde037d8	-0.10948151
245	0xbde0d5e7	-0.10978299
246	0xbd8b72f0	-0.06809032
247	0x3c9b6450	0.018968731
248	0xbb51aa2b	-0.0031992297
249	0x3bc14de4	0.005899178
250	0x3d97316c	0.07382473
251	0x3d8b99e7	0.06816464
252	0xbe3e948f	-0.18611358
253	0xbe277d68	-0.16356432
254	0xbd496002	-0.049163826
255	0x3d774b4b	0.06037454

conv1_2_1.bias f4 [5]
0	0xbdd2c115	-0.10290734
1	0x3d92865d	0.07154534
2	0x3dad627d	0.08466051
3	0x3cd98307	0.026551737
4	0x3d274c4d	0.04084425

conv1_2_2.weight f4 [5, 20, 5]
0	0xbd7d02d8	-0.06177029
1	0x3c8f86a1	0.01752025
2	0xbccc897f	-0.024967907
3	0xbd0e1061	-0.03468359
4	0x3dbd8101	0.09253121
5	0xbd5afa58	-0.053461403
6	0xbdc786f4	-0.09742537
7	0xbbd85b82	-0.0066027055
8	0x3d9e9223	0.07742717
9	0xbd5b153f	-0.05348706
10	0x3c7252d0	0.014790252
11	0xbd89dbdc	-0.06731388
12	0x3d83c497	0.06433981
13	0x3dcdc8d5	0.10048071
14	0x3dfc989d	0.12333796
15	0x3ba33eea	0.004981865
16	0xbe0aa436	-0.13539204
17	0xbdbae9d7	-0.09126633
18	0x3dd42aab	0.10359701
19	0x3d347999	0.044061277
20	0x3dacf858	0.08445805
21	0xbd411726	-0.047141217
22	0xbcc9bea6	-0.024627041
23	0xbcc668c7	-0.024219884
24	0xbdb417a6	-0.08793573
25	0x3caf2b8a	0.021383066
26	0xbce84784	-0.028354414
27	0xbdf59e12	-0.1199304
28	0x3db20dbd	0.086940266
29	0x3db4d9fb	0.08830639
30	0x3d34bfbc	0.044128165
31	0xbd12acf6	-0.03580948
32	0xbd2ea164	-0.042634383
33	0xbdea204f	-0.114319436
34	0xbd5f21c4	-0.05447556
35	0x3da6edeb	0.08150848
36	0x3bef5019	0.0073032496
37	0xbd34af71	-0.044112626
38	0x3c9abab0	0.018887848
39	0x3d15c993	0.03656919
40	0xbc16fe42	-0.009215893
41	0xbd499d83	-0.04922248
42	0x3d4bf6a3	0.049795758
43	0xbdafc682	-0.08582784
44	0x3d5fe053	0.05465729
45	0x3ce753f3	0.028238272
46	0x3c1ed44d	0.009694171
47	0x3c1e4c1c	0.009661701
48	0xbda8097f	-0.08204936
49	0xbc10f734	-0.008848
50	0x3cda6c77	0.026663048
51	0xbcfe026e	-0.031007018
52	0xbdefa186	-0.1170073
53	0xbd7e7ec7	-0.062132623
54	0xbcda985e	-0.026683982
55	0xbd471c9b	-0.048611265
56	0x3d8c6f49	0.068571635
57	0x3dc5232f	0.09625851
58	0xbd81f703	-0.06345942
59	0x3d61f841	0.055168394
60	0x3d9846d7	0.07435387
61	0x3d761d3b	0.06008647
62	0x3c9ef76e	0.019405093
63	0xbd8aa651	-0.067700036
64	0x3d987bbf	0.07445478
65	0x3d6ad238	0.057329386
66	0xbd888ed2	-0.06667866
67	0xbdc40d7f	-0.09572887
68	0x3d9b7528	0.07590705
69	0xbd647a5a	-0.055780746
70	0xbbcc913d	-0.0062428997
71	0xbc91e288	-0.017808214
72	0x3dd51d36	0.10405962
73	0xbd4440af	-0.04791325
74	0x3c7bd3ff	0.015370368
75	0xbdb868f9	-0.09004397
76	0x3d931084	0.071808845
77	0x3db129a2	0.08650519
78	0xbd26c66e	-0.04071658
79	0xbdaf8d06	-0.0857182
80	0x3c0fbcef	0.008773073
81	0xbc484c33	-0.012225199
82	0x38194777	3.65446e-05
83	0xbd33b71d	-0.043875802
84	0x3c318eb0	0.010837242
85	0xbda62416	-0.081123516
86	0xbcdf573f	-0.027263282
87	0x3d7b2fa7	0.06132474
88	0x3be3fb94	0.0069574807
89	0xbc5d5317	-0.01350858
90	0xbdc1ce88	-0.09463221
91	0x3cb30860	0.02185458
92	0xbe03c2e3	-0.12867312
93	0x3cc155c9	0.023600476
94	0x3da3b0f2	0.07992734
95	0xbd797a6e	-0.060907774
96	0xbdb81cb0	-0.08989847
97	0xbb12152c	-0.0022290451
98	0xbdbdd9d7	-0.09270065
99	0xbd4674af	-0.048451122
100	0x3db9391c	0.09044096
101	0xbd8f2d39	-0.069910474
102	0x3ddb2340	0.10700083
103	0xbdb2d460	-0.087319136
104	0xbc895e91	-0.016768726
105	0xbd1b5e32	-0.03793163
106	0x3cfcba9e	0.030850705
107	0x3e10d8c8	0.14145195
108	0xbdffd5bf	-0.12491941
109	0x3b23771f	0.0024942828
110	0x3dc438d0	0.095811486
111	0xbdb7913e	-0.089632496
112	0xbd441b3e	-0.047877543
113	0xbe49560c	-0.1966173
114	0xbd786234	-0.06064053
115	0xbd9dfe26	-0.077144906
116	0xbcd49a71	-0.02595255
117	0x3cca9071	0.024727078
118	0x3df19888	0.11796671
119	0xbd56a644	-0.052404657
120	0xbd813aed	-0.06310067
121	0x3d992bc2	0.07479049
122	0xbcacaafe	-0.02107763
123	0xbd4f06eb	-0.050543707
124	0xbd8bdc53	-0.06829133
125	0xbcecee32	-0.028922174
126	0x3d59dbd9	0.05318818
127	0x3cabbcf2	0.02096412
128	0xbc828165	-0.01593084
129	0xbdda5e15	-0.10662476
130	0xbd252582	-0.040318973
131	0x3d33e176	0.04391619
132	0x3d99edfe	0.075160965
133	0x3dfc5fcf	0.123229615
134	0x3b0bd8f2	0.0021339026
135	0xbded70ed	-0.115938045
136	0x3d3eb552	0.04655964
137	0x3cab6087	0.020920051
138	0x3c2596e9	0.010106781
139	0xbdf85217	-0.121250324
140	0xbdb83635	-0.08994714
141	0xbe02a727	-0.12759076
142	0xbd7cb1f9	-0.061693165
143	0xbdf5f911	-0.12010396
144	0xbbc579c5	-0.006026479
145	0xbda1600e	-0.07879649
146	0x3d835e1f	0.064144365
147	0x3c2f3621	0.010694058
148	0xbd8744fb	-0.06604954
149	0x3d8f291c	0.06990263
150	0xbd9c23b8	-0.07624
151	0x3d74178d	0.059592772
152	0xbab10e28	-0.0013508247
153	0xbd92d4cf	-0.07169496
154	0x3ceaff81	0.028686287
155	0x3db8b6c4	0.09019235
156	0x3dc4295b	0.095782004
157	0xbc1c9f3d	-0.00955945
158	0x3b8c9de0	0.004291281
159	0x3dc6fd0e	0.09716235
160	0x3c6a0f26	0.014285838
161	0x3d57660e	0.05258756
162	0x3c3bc99a	0.01146164
163	0x3cb3b74e	0.021937992
164	0x3d99e46f	0.075142734
165	0x3dc81d77	0.09771245
166	0xbdb8389a	-0.08995171
167	0x3d447afa	0.047968842
168	0x3e238481	0.15968515
169	0x3e0ab0e5	0.13544042
170	0x3ddbf1e0	0.10739493
171	0x3d08f521	0.0334369
172	0x3e13b0b6	0.14422879
173	0xbcd25e97	-0.02567987
174	0xbd6b2b2b	-0.057414215
175	0x3d8bc1c1	0.06824065
176	0xbd816869	-0.06318743
177	0x3d919a96	0.07109563
178	0x3d62f2a5	0.055407185
179	0x3d01ca07	0.03168681
180	0x3e44e6a0	0.19228601
181	0x3e265b4b	0.16245763
182	0xbd4ee4e1	-0.050511245
183	0xbd641695	-0.0556856
184	0x3e0362c3	0.12830643
185	0x3c53d6a5	0.012929593
186	0xbdd2e96b	-0.10298427
187	0x3d9bb6d5	0.07603232
188	0xbd86ebf9	-0.06587977
189	0x3d8e0430	0.069343925
190	0x3daaacf7	0.08333772
191	0xbd6d5bc2	-0.057948835
192	0x3de2382e	0.11045872
193	0x3cf95dc4	0.030440219
194	0x3da98c6c	0.082787365
195	0xbdb3d601	-0.087810524
196	0x3dc2203e	0.09478806
197	0xbc3d851a	-0.011567378
198	0x3e1ba66c	0.15200204
199	0xbd1552ff	-0.036456104
200	0x3c3d24e3	0.011544439
201	0xbdf90496	-0.12159078
202	0xbdd981c8	-0.10620457
203	0x3d89cc3d	0.067284085
204	0xbcf7c7b8	-0.0302466
205	0xbe05afbd	-0.1305532
206	0xbdeaea92	-0.11470522
207	0xbd0cd4ad	-0.03438251
208	0xbdf353b0	-0.118811965
209	0x3e22ace2	0.15886262
210	0xbd98126a	-0.07425387
211	0x3dbe4a59	0.092915244
212	0x3dc3748f	0.09543716
213	0x3dd72efe	0.1050701
214	0x3ddcf519	0.10788936
215	0xbc2cd901	-0.010549785
216	0x3d03c312	0.032168455
217	0xbcb59a3a	-0.022168268
218	0xbd183aa0	-0.037165284
219	0x3c9142b8	0.01773201
220	0x3d34582f	0.04402941
221	0xbd7b0266	-0.061281584
222	0x3d9fec27	0.07808714
223	0x3d52dbf1	0.051479284
224	0x3dca2e2e	0.09872089
225	0xbd7e89b8	-0.062143058
226	0x3da77585	0.08176712
227	0xbdab510e	-0.08365069
228	0xbc7c6083	-0.01540387
229	0xbe3ebdd9	-0.18627109
230	0xbd255bcd	-0.04037075
231	0x3d4a02cb	0.04931907
232	0x3c9bb96c	0.019009314
233	0x3d30ded2	0.043181248
234	0x3d9899f0	0.07451236
235	0xbc497068	-0.012294866
236	0x3caa32f7	0.020776255
237	0x3d9eee40	0.07760286
238	0xbdad2742	-0.084547535
239	0x3cf2424d	0.02957263
240	0x3d8e1f64	0.06939581
241	0xbbcdf388	-0.0062851347
242	0xbd121463	-0.035663974
243	0x3be73bdc	0.0070566963
244	0xbd9e2cb0	-0.07723367
245	0xbc236cc6	-0.009974664
246	0xbcd5eb29	-0.02611311
247	0x3dbc5a9b	0.09196969
248	0x3de7af16	0.11312692
249	0x3e42165b	0.1895384
250	0x3ccd7501	0.025080206
251	0xbd1e7e8d	-0.038694907
252	0xbd92a551	-0.07160438
253	0xbb3db356	-0.0028946004
254	0xbd09e796	-0.033668123
255	0x3d45e5af	0.048314746

conv1_2_2.bias f4 [5]
0	0x3dafb705	0.0857983
1	0x3dafd3f3	0.08585348
2	0x3da0b2ed	0.078466274
3	0xbd6d61fe	-0.05795478
4	0x3d65c98f	0.056100424

conv1_2_3.weight f4 [5, 20, 11]
0	0xbd988d17	-0.07448786
1	0xbe22435e	-0.15846011
2	0xbe4ed107	-0.20196925
3	0xbdeae754	-0.114699036
4	0xbe07795e	-0.13229892
5	0xbe0d9a9b	-0.13828509
6	0x3c873c78	0.016508326
7	0x3ca54f55	0.02017943
8	0x3d6a9cd2	0.05727846
9	0x3db77fe6	0.089599416
10	0x3e041860	0.12899923
11	0xbdabad3f	-0.083826534
12	0xbcaf5666	-0.021403503
13	0xbd4eafbd	-0.050460566
14	0xbdffe057	-0.12493961
15	0xbe0575be	-0.13033196
16	0xbd96e2ba	-0.073674634
17	0xbcdb1b1f	-0.02674633
18	0x3da7c49c	0.08191797
19	0x3cb9f9a7	0.022702051
20	0xbd7bf79d	-0.06151544
21	0xbb83cc14	-0.0040221307
22	0xbd14d1eb	-0.036333006
23	0xbdc663cd	-0.09687004
24	0xbdd94097	-0.10608023
25	0xbdfe7fca	-0.124267176
26	0xbc04b95e	-0.008100836
27	0x3dbfb110	0.09359944
28	0x3d08f5cf	0.033437546
29	0xbb65017d	-0.0034943514
30	0xbd26e30e	-0.04074388
31	0xbc698a22	-0.014254125
32	0xbda86d8d	-0.0822402
33	0xbd6d0d10	-0.057873785
34	0x3d670e8b	0.056410354
35	0x3e10c4f2	0.14137629
36	0x3d5c1248	0.05372837
37	0xbd26b7a1	-0.040702466
38	0xbdae2ca2	-0.08504607
39	0xbdce037b	-0.100592576
40	0xbe115f9b	-0.14196627
41	0x3cb85022	0.022499148
42	0xbc5a0cc2	-0.013308706
43	0xbc7c7f42	-0.0154112
44	0xbd3089ce	-0.04310017
45	0xbd745880	-0.059654713
46	0x3bf72fba	0.0075435312
47	0x3cb486eb	0.02203699
48	0x3cf2e780	0.029651403
49	0xbcc7fae7	-0.024411632
50	0xbca93246	-0.020653855
51	0xbd293663	-0.041311633
52	0x3cb0b58d	0.021570945
53	0xbcf93f5e	-0.030425724
54	0xbda9f73c	-0.08299109
55	0xbd85fad2	-0.06541981
56	0xbdd06354	-0.10175195
57	0xbca6d23a	-0.020363916
58	0x3d946caf	0.07247292
59	0xbd1e1673	-0.038595628
60	0xbceb8e7c	-0.028754465
61	0xbe502a81	-0.20328714
62	0xbe1aed56	-0.15129599
63	0xbceccdf0	-0.028906792
64	0xbcc72c60	-0.024313152
65	0xbdbd7845	-0.09251455
66	0xbe4d666a	-0.20058599
67	0xbe057061	-0.1303115
68	0xbdaa0dcd	-0.083034135
69	0xbe2f591d	-0.17123838
70	0xbe02ed79	-0.12785901
71	0xbdee18e2	-0.1162584
72	0xbdac625d	-0.08417199
73	0xbd4652c3	-0.04841877
74	0xbcbadbda	-0.022809912
75	0xbd0fa4b8	-0.035069197
76	0x3d18abbc	0.037273154
77	0xbdaf9aae	-0.08574425
78	0xbca6c114	-0.020355739
79	0xbd96eb19	-0.0736906
80	0xbd63d208	-0.055620223
81	0x3d3e3a15	0.04644211
82	0xbbfd661e	-0.0077331206
83	0xbd446a7f	-0.047953125
84	0xbdb95414	-0.0904924
85	0xbdd9b588	-0.106303275
86	0xbd6e4f93	-0.058181357
87	0xbd63ebc5	-0.05564477
88	0x3c5d8578	0.013520591
89	0xbd1e2209	-0.038606677
90	0xb9886721	-0.00026016778
91	0x3d3b1482	0.045673855
92	0x3d953406	0.07285313
93	0x3d45a300	0.048251152
94	0xbd989367	-0.0744999
95	0xbdaa34e7	-0.083108716
96	0xbd773643	-0.060354482
97	0x3cf8fe79	0.03039478
98	0xbc442641	-0.011972011
99	0x3cbeded0	0.023299605
100	0xbbb91157	-0.005647819
101	0xbd15b8f4	-0.03655334
102	0xbd8153cd	-0.06314812
103	0x3ce60283	0.02807737
104	0x3e2954e8	0.16536295
105	0x3d883f47	0.06652694
106	0x3d0fcd13	0.035107683
107	0x3df03cd8	0.11730355
108	0xbc4ae603	-0.012383941
109	0xbd4ff4d8	-0.05077061
110	0xbe29d4c7	-0.16585074
111	0xbd32850e	-0.043583922
112	0xbdef13c5	-0.116736926
113	0xbd21cece	-0.039503865
114	0xbd8e1432	-0.06937446
115	0x3ccfcc23	0.025365895
116	0xbd513c28	-0.05108276
117	0x3b552d55	0.003252824
118	0xbb6ca15d	-0.0036106922
119	0xbb66348f	-0.0035126542
120	0xbd1c5b6c	-0.038173124
121	0xbdc6f89a	-0.09715386
122	0xbe2041f7	-0.15650164
123	0xbe1b1b4a	-0.15147129
124	0xbe227a7f	-0.15867041
125	0xbdda7ef3	-0.10668745
126	0xbd021df3	-0.031766843
127	0xbd47b9e5	-0.048761267
128	0x3d08fc2d	0.03344362
129	0x3d84dbe0	0.0648725
130	0xbb67ff58	-0.00354
131	0x3d71ea9e	0.05906164
132	0xbdd1aa93	-0.102376126
133	0xbd283fc2	-0.04107643
134	0xbe1956a5	-0.14974459
135	0xbdca5e2b	-0.09881242
136	0xbd47f657	-0.048818912
137	0xbdba00cb	-0.090821825
138	0xbda328f5	-0.07966796
139	0xbd9de5a3	-0.07709815
140	0x38ed2d82	0.00011309517
141	0x3d22774f	0.039664563
142	0x3ce1dfe9	0.027572589
143	0xbdbd3429	-0.092384644
144	0xbd6b4f10	-0.057448447
145	0xbd838bc8	-0.064231455
146	0xbe04d6b9	-0.12972535
147	0xbd4efed9	-0.05053601
148	0xbddb0f2a	-0.10696252
149	0x3c88bca7	0.016691519
150	0xbcc8974a	-0.024486203
151	0x3d8eeff4	0.06979361
152	0x3d264712	0.04059512
153	0x3d74b7a4	0.059745446
154	0xbdcdc277	-0.10046857
155	0xbd867885	-0.06565956
156	0xbd77d598	-0.060506433
157	0xbcd9e5de	-0.026598867
158	0xbd8ada6f	-0.06779944
159	0xbd1236ae	-0.035696678
160	0x3c3e4a9a	0.011614466
161	0x3dbd2dd8	0.092372596
162	0x3de13db4	0.10998097
163	0x3e048432	0.12941054
164	0x3d518036	0.051147662
165	0xbe8c8433	-0.2744461
166	0xbe488e56	-0.19585547
167	0xbe0c93b8	-0.13728225
168	0xbd0b0a3d	-0.03394531
169	0xbd0a9903	-0.03383733
170	0x3d1f0ff4	0.038833573
171	0x3d2b0db7	0.041761126
172	0x3c43ac3c	0.011942919
173	0xbccebb36	-0.025235754
174	0xb9f71963	-0.00047130426
175	0xbcd61fa1	-0.026138129
176	0xbe3a4225	-0.18189295
177	0xbd96a1d1	-0.07355083
178	0xbddd547c	-0.1080713
179	0xbdff6c76	-0.12471859
180	0xbd5fa474	-0.054600194
181	0x3d29df5e	0.041472785
182	0x3dbabd01	0.09118081
183	0x3e17f07c	0.14837831
184	0x3e0a7f38	0.13525093
185	0x3dd75cf1	0.10515774
186	0x3dee4d58	0.11635846
187	0xbd8c721b	-0.068577014
188	0xbc3e1018	-0.011600517
189	0xbd0aa007	-0.03384402
190	0xbde75ed8	-0.11297387
191	0x3a4f82a6	0.00079158915
192	0xbd1c9c93	-0.03823526
193	0x3b6fcf27	0.0036591978
194	0xbd36809c	-0.044556245
195	0x3d9f2e12	0.07772459
196	0xbcd2296e	-0.02565452
197	0xbd2462dd	-0.040133346
198	0xbd9f3240	-0.07773256
199	0xbd87247b	-0.06598755
200	0xbdbc1bb9	-0.09184975
201	0x3c5c97fa	0.013463968
202	0x3c1487e4	0.009065602
203	0xbd951bb3	-0.07280674
204	0xbdb5b6a8	-0.088727295
205	0xbd31f244	-0.043443933
206	0xbd69acae	-0.057049446
207	0xbdcdb6e6	-0.10044651
208	0xbdec2e39	-0.11532254
209	0x3d9b21f1	0.07574833
210	0xbcef8175	-0.029236535
211	0xbc9ff6ee	-0.019526925
212	0x3de00e3a	0.109402135
213	0x3d4c1e87	0.0498338
214	0x3d8e5727	0.06950217
215	0xbc5c28e1	-0.013437481
216	0xbd359cda	-0.04433904
217	0xbe05ba71	-0.13059403
218	0xbe33e7b5	-0.17568858
219	0xbe2cec3d	-0.16886993
220	0xbc144fe1	-0.009052248
221	0xbcdde411	-0.02708629
222	0xbd8c6cac	-0.06856665
223	0x3b25f686	0.0025323941
224	0x3d0947ea	0.03351585
225	0xbc20332b	-0.009777824
226	0x3c5c40b5	0.013443162
227	0xbdf51480	-0.11966801
228	0xbd6cbfc0	-0.057800055
229	0xbb8a041b	-0.004211915
230	0x3d54a6cc	0.051916882
231	0xbb435a0b	-0.0029808308
232	0x3cc1ddc7	0.023665322
233	0x3dd97a75	0.1061906
234	0xbe1a9948	-0.15097535
235	0xbd0ec926	-0.0348598
236	0xbdb6ce05	-0.08926014
237	0xbd9f1fd3	-0.07769742
238	0x3e1e455c	0.15456146
239	0x3c72d5fb	0.014821525
240	0xbd5b066f	-0.053472932
241	0xbe1526c4	-0.14565569
242	0xbe17e43e	-0.14833161
243	0xbdeea6bc	-0.11652896
244	0xbe644d08	-0.2229501
245	0xbe4ad75a	-0.19808713
246	0xbd376e40	-0.044782877
247	0xbd9691cb	-0.073520266
248	0xbd82f7e9	-0.06394941
249	0xbdd18748	-0.10230881
250	0xbe09baef	-0.13450216
251	0xbe0b73cb	-0.1361839
252	0xbe3d4633	-0.1848381
253	0x3d730fb9	0.059341166
254	0x3ca83133	0.020531273
255	0x3d9521e8	0.07281858

conv1_2_3.bias f4 [5]
0	0x3b8dfd64	0.004333185
1	0x3c8d649e	0.017259892
2	0x3d6902d9	0.05688748
3	0x3d827bac	0.06371245
4	0x3d27443b	0.040836554

conv1_2_4.weight f4 [5, 20, 15]
0	0xbc8eb583	-0.017420536
1	0x3d2c0176	0.04199358
2	0x3d4212bd	0.04738115
3	0xbc8344a6	-0.016023945
4	0xbd41f2cf	-0.0473507
5	0xbc3da786	-0.011575585
6	0x3d4eeb80	0.05051756
7	0xbd18f7b4	-0.037345603
8	0xbcd6bb0a	-0.026212234
9	0xbb41aeff	-0.0029553769
10	0xbcfa05a8	-0.030520275
11	0x3cbbf609	0.022944467
12	0x3cdedc47	0.027204646
13	0xbb89b40f	-0.004202373
14	0xbdb197d4	-0.08671537
15	0xbd6e3462	-0.058155425
16	0xbd650f2f	-0.055922683
17	0x3d3d4374	0.046206906
18	0xbcaec77f	-0.021335362
19	0xbcbb89cb	-0.022892853
20	0x3cb9cdd1	0.022681149
21	0xbda01327	-0.07816153
22	0xbc1eb979	-0.009687775
23	0x3d22d841	0.039757017
24	0x3c5e638b	0.013573538
25	0x3c4e3c05	0.012587552
26	0xbd8c59ed	-0.068530895
27	0xbdd0319d	-0.10165713
28	0xbd9ffb2b	-0.07811578
29	0xbe1abf23	-0.15111975
30	0x3e7aa5e9	0.24477352
31	0x3dd74c36	0.10512583
32	0x3e299df3	0.16564159
33	0x3de7a411	0.1131059
34	0x3e0c1a0f	0.13681816
35	0x3e390fc4	0.1807242
36	0x3e6a8420	0.22901964
37	0x3e2e6ec3	0.1703444
38	0x3e1d82d7	0.15381943
39	0x3df8eebd	0.12154911
40	0x3e7abef8	0.24486911
41	0x3e0aace1	0.1354251
42	0x3d871796	0.065962955
43	0x3e81f2f3	0.25380668
44	0x3e658c5f	0.22416829
45	0x3cc13e65	0.023589322
46	0x3d39e85f	0.045387622
47	0xbc3c2da3	-0.01148549
48	0x3cd8749a	0.026422787
49	0x3d1b40fd	0.037903775
50	0x3d736ecf	0.059431847
51	0x3c6380d7	0.013885698
52	0x3ca42015	0.02003483
53	0xbd92e735	-0.071730055
54	0x3ca8927f	0.020577667
55	0x3d845291	0.06461061
56	0x3d96799f	0.07347416
57	0x3c8e7d8c	0.01739385
58	0x3dd0307d	0.101654984
59	0x3ca56d50	0.020193726
60	0x3c7e4bf1	0.0155210355
61	0xbcac39de	-0.021023687
62	0x3c10befb	0.008834596
63	0x3d717acd	0.058955003
64	0x3d3b12f8	0.045672387
65	0xbcbd60d5	-0.023117462
66	0xbcf93ca3	-0.030424422
67	0x3b8d4b2f	0.004311941
68	0x3d3775f8	0.04479024
69	0x3d9f109a	0.07766838
70	0x3d98bfcd	0.07458458
71	0x3d805d6b	0.06267818
72	0x3e2add51	0.16685988
73	0x3e273690	0.16329408
74	0x3de31be2	0.110893026
75	0xbd4b21ee	-0.049592905
76	0xbd0c6d05	-0.034283657
77	0xbd135ee7	-0.035979178
78	0x3b0f6c63	0.0021884672
79	0x3df888d1	0.12135471
80	0x3df298d3	0.11845555
81	0x3e51adbd	0.20476432
82	0x3e1187a4	0.14211899
83	0x3d891335	0.066931166
84	0x3d2672d5	0.040636856
85	0x3e084819	0.13308753
86	0xbc80d84d	-0.01572814
87	0x3c4bff5d	0.01245102
88	0x3dba7118	0.09103602
89	0x3e303135	0.17206271
90	0x3c25d53a	0.010121638
91	0x3cdcdf40	0.026961923
92	0x3cbd6407	0.023118986
93	0xbc007950	-0.007841423
94	0x3bf54e2a	0.0074861245
95	0xbd1cda73	-0.038294267
96	0xbdc2bf30	-0.09509122
97	0x3d2f78bc	0.04283975
98	0x3d423e09	0.047422443
99	0xbd3c344d	-0.045948315
100	0xbe116015	-0.14196809
101	0xbda17d6c	-0.078852504
102	0xbd87b79d	-0.06626818
103	0xbe508914	-0.20364791
104	0xbe597427	-0.21235715
105	0x3dfa77cf	0.12229883
106	0x3d883168	0.066500485
107	0xbcc113ff	-0.023569105
108	0x3cadd44d	0.021219397
109	0xbd0f624d	-0.035005856
110	0xbcd16adc	-0.02556365
111	0x3bbe9bec	0.005816927
112	0x3e0b63af	0.13612245
113	0x3d891c35	0.06694833
114	0x3e1a06db	0.15041678
115	0x3d9516a2	0.072797075
116	0x3e51b214	0.20478088
117	0x3e2cfbf9	0.16892995
118	0x3e178ae4	0.14799076
119	0x3db1d3bd	0.08682964
120	0x3cf1544f	0.029459147
121	0x3d543576	0.051808797
122	0x3b804567	0.0039145234
123	0xbced755b	-0.028986624
124	0xbc2514f3	-0.010075795
125	0x3d64570a	0.05574707
126	0xbc2593de	-0.010106055
127	0x3dd37705	0.103254355
128	0x3dc1cc37	0.09462779
129	0x3da33d14	0.07970634
130	0x3e23ce20	0.15996599
131	0x3e6a3d9f	0.22875069
132	0x3e821e55	0.25413767
133	0x3e5395d5	0.20662625
134	0x3e5eccc6	0.21757802
135	0x3d36dc0f	0.044643458
136	0x3cd10050	0.025512844
137	0x3d08c836	0.03339406
138	0x3d4a397b	0.049371224
139	0x3d185733	0.037192535
140	0x3d160ee1	0.036635283
141	0x3b3613ef	0.0027782877
142	0x3cf399a2	0.029736344
143	0xbcc9d2d7	-0.02463667
144	0xbd2b0bb0	-0.041759193
145	0xbd987576	-0.07444279
146	0xbdc51b81	-0.096243866
147	0xbdd2e334	-0.10297242
148	0xbe0edf19	-0.13952293
149	0xbde9b72e	-0.11411892
150	0x3c9bae2f	0.019003956
151	0x3cf4e967	0.029896451
152	0x3cc16e0e	0.023612048
153	0x3c7542f9	0.014969581
154	0x3d2f6ab5	0.042826373
155	0x3cf9d2e3	0.030496066
156	0x3bbf0908	0.005829934
157	0xbca9a6b2	-0.02070937
158	0xbd2cbd7d	-0.042172898
159	0xbd2122e3	-0.03933991
160	0xbe1a5eab	-0.15075175
161	0xbdcbeb20	-0.09956956
162	0xbe31e78b	-0.17373483
163	0xbe92efce	-0.2869858
164	0xbe8a064a	-0.26957923
165	0x3cf5851a	0.029970694
166	0x3d9dbc41	0.07701922
167	0xbca558c9	-0.020183938
168	0xbd23f2f5	-0.040026624
169	0x3d30bd45	0.04314925
170	0xbc84264a	-0.016131539
171	0xbb63bdcc	-0.003475058
172	0x3bf3c80c	0.007439619
173	0xbc9e62d7	-0.01933424
174	0x3c2b19a7	0.010443128
175	0x3dae93f7	0.08524316
176	0x3d8968ab	0.06709417
177	0x3cc2dd72	0.023787234
178	0xbc50cc90	-0.012744084
179	0xbe145fe4	-0.14489704
180	0xbd45adf0	-0.048261583
181	0x3d521466	0.051288985
182	0x3d0ccc33	0.034374427
183	0x3cd22361	0.025651636
184	0x3c01331b	0.00788572
185	0xbcb93c0b	-0.022611639
186	0x3d0cc2bb	0.034365397
187	0x3da1affd	0.07894895
188	0xbca86a13	-0.020558393
189	0x3cd5684d	0.026050711
190	0x3e0a0b8b	0.13480966
191	0x3dbe0b10	0.09279454
192	0x3d1693f9	0.03676221
193	0x3cdcaff4	0.02693937
194	0xbd16281e	-0.036659352
195	0x3c86d851	0.01646057
196	0x3c31368c	0.010816228
197	0x3cc8ea60	0.024525821
198	0xbcdd6009	-0.027023332
199	0x3c4bfc30	0.012450263
200	0xbd65f35f	-0.0561403
201	0xbd8fda5d	-0.07024071
202	0xbd231a4f	-0.03982001
203	0x3cf4574c	0.029826783
204	0x3cd0c38b	0.025483867
205	0xbbacec2c	-0.0052771773
206	0xbdbeb38c	-0.093115896
207	0xbd9fce6f	-0.07803046
208	0xbe2ec5b4	-0.17067605
209	0xbe75f03c	-0.24017423
210	0x3c4a170e	0.012334598
211	0xbc2c293c	-0.010507878
212	0xbd07954f	-0.033101376
213	0x3c7db6fb	0.0154855205
214	0xbbbd84a7	-0.0057836357
215	0x3d33e35a	0.04391799
216	0x3cd4379c	0.025905423
217	0x3d885da4	0.066584855
218	0xbcad7942	-0.021175984
219	0xbc9a7085	-0.018852482
220	0xbd808c5c	-0.062767714
221	0xbd98a229	-0.074528046
222	0xbe0a94a3	-0.13533263
223	0xbe37a17e	-0.17932698
224	0xbe50418c	-0.20337504
225	0x3d9ba3aa	0.07599576
226	0x3e27bbf8	0.16380298
227	0x3d3a8cc8	0.045544416
228	0x3e154776	0.14578041
229	0x3e3fe047	0.18737899
230	0x3e0b4d4f	0.1360371
231	0x3e3b840b	0.18312089
232	0x3db95b42	0.09050609
233	0x3dc28c20	0.09499383
234	0x3d468fde	0.048477046
235	0xbce76ba2	-0.028249566
236	0xbd2a97f9	-0.04164884
237	0x3cdacc08	0.026708618
238	0x3bdda5f5	0.0067641684
239	0x3d9094d7	0.07059639
240	0xbbe4120a	-0.0069601582
241	0xbdc729b0	-0.09724748
242	0xbd5aff1a	-0.05346594
243	0xbcc1ff5a	-0.023681331
244	0xbcdcd0a7	-0.026954962
245	0xbdabaf68	-0.083830655
246	0xbd6023b4	-0.05472155
247	0xbda8eb23	-0.08247974
248	0x3b1a9626	0.002358803
249	0x3c4aea90	0.012385026
250	0x3d90407b	0.07043549
251	0xbc1bbc96	-0.009505412
252	0xbdcde152	-0.10052742
253	0x3c57ffe2	0.013183566
254	0xbd0dd7da	-0.03462968
255	0x3d3e8237	0.0465109

conv1_2_4.bias f4 [5]
0	0xbd3b4504	-0.045720115
1	0xbd647621	-0.05577672
2	0xb9f9fb7b	-0.00047680349
3	0xbd5c336b	-0.053759973
4	0xbd2f633e	-0.042819254

conv1_3_1.weight f4 [5, 20, 3]
0	0x3c8c542a	0.017129976
1	0xbd8703b2	-0.06592502
2	0x3e00acce	0.1256592
3	0xbda4cee5	-0.080472745
4	0xbbe1d92d	-0.0068923444
5	0xbd95175f	-0.07279848
6	0x3e06769b	0.13131182
7	0xbcea4ef8	-0.028602108
8	0x3c3882a3	0.011261615
9	0xbd82a0a2	-0.063782945
10	0x3d85fc8a	0.06542309
11	0xbd92b3e6	-0.07163219
12	0x3da09302	0.078405395
13	0xbdb247cd	-0.08705101
14	0x3de94ee2	0.11391999
15	0x3dc14d70	0.09438598
16	0x3d5922fa	0.053011872
17	0x3de4beb0	0.11169183
18	0xbc1f8725	-0.009736811
19	0xbc8849a7	-0.016636683
20	0x3dae81b0	0.0852083
21	0xbd31a35a	-0.043368675
22	0xbdebad6c	-0.11507687
23	0xbde21477	-0.110390596
24	0x3e09cbf7	0.13456713
25	0x3d5b5f68	0.053557783
26	0xbd4b149e	-0.04958021
27	0x3dceb874	0.100937754
28	0x3db3b40a	0.08774574
29	0x3d20c4f8	0.039250344
30	0xbde67869	-0.11253435
31	0xbe14b488	-0.14521992
32	0xbddbd81d	-0.1073458
33	0xbde98c81	-0.11403752
34	0xbdbeebd1	-0.09322322
35	0xbdee6626	-0.11640577
36	0xbe2e0cf8	-0.16997135
37	0x3dae604c	0.08514461
38	0x3e0b4eaf	0.13604234
39	0xbc9e34ec	-0.019312344
40	0x3c4f707d	0.012661097
41	0xbe0565c1	-0.13027097
42	0x3ced14d3	0.028940594
43	0xbe1111a2	-0.14166883
44	0xbd325fc7	-0.04354837
45	0xbde349d4	-0.11098066
46	0x3d335142	0.043778665
47	0xbdf74db6	-0.12075369
48	0xbda6ebf5	-0.08150474
49	0xbd000ec6	-0.03126409
50	0xbd8f3634	-0.0699276
51	0x3e0c830e	0.13721868
52	0xbc1883b9	-0.009308749
53	0xbe0658ca	-0.13119808
54	0xbcce32e2	-0.025170747
55	0xbda6a356	-0.081366226
56	0xbda9191a	-0.08256741
57	0x3dd64b3f	0.10463571
58	0xbd131452	-0.03590805
59	0x3d8ebedf	0.069699995
60	0x3dd3af6c	0.103361934
61	0x3d9a8b36	0.07546084
62	0xbd0931b3	-0.033494662
63	0xbceaf364	-0.02868051
64	0xbd8c0156	-0.06836192
65	0x3dd78326	0.105230615
66	0x3df33e67	0.11877137
67	0x3d918076	0.0710458
68	0xbd65a9ac	-0.056070015
69	0x3d2cee21	0.042219285
70	0x3d9ae251	0.07562698
71	0xbd1de59b	-0.038549047
72	0xbd88fa4e	-0.06688367
73	0x3b591478	0.0033123773
74	0x3d24d446	0.040241502
75	0xbb7d982d	-0.003869544
76	0xbd5abe60	-0.053404212
77	0x3da6f383	0.08151915
78	0x3c89c86c	0.016819201
79	0x3cb494a3	0.022043532
80	0x3d379155	0.044816334
81	0x3d11647e	0.035496227
82	0xbde49619	-0.11161441
83	0x3cbdd206	0.023171436
84	0x3df2eed8	0.11861962
85	0x3e25b3f3	0.16181926
86	0xbc3dc0de	-0.011581628
87	0xbce811ca	-0.028328795
88	0x3d9e3173	0.077242754
89	0x3e0e9d8f	0.13927291
90	0x3dccd4f3	0.10001554
91	0x3cf5b96a	0.029995639
92	0x3d071f98	0.032989115
93	0x3e1f01cd	0.1552803
94	0xbda87e57	-0.082272224
95	0xbe041ea6	-0.12902316
96	0xbdd4090d	-0.10353289
97	0x3d87cd81	0.06630994
98	0xbcb5d921	-0.022198262
99	0xbd4ad670	-0.04952091
100	0x3d497a27	0.04918876
101	0xbcb4ec5a	-0.022085357
102	0xbd107d41	-0.0352757
103	0xbdf5c3f0	-0.12000263
104	0xbc1eb459	-0.009686553
105	0x3c3be603	0.011468413
106	0x3e131ecc	0.14367217
107	0x3b404773	0.0029339462
108	0x3d26e501	0.04074574
109	0x3d6e27d3	0.058143448
110	0xbd8ff3e2	-0.07028939
111	0xbd1b5942	-0.03792692
112	0xbcaf290e	-0.021381881
113	0x3db21570	0.08695495
114	0xbdc001c3	-0.09375336
115	0xbd1def35	-0.038558204
116	0xbe514869	-0.20437779
117	0xbd9e43c3	-0.07727768
118	0x3e0d2fee	0.13787815
119	0xbd82f396	-0.063941166
120	0xbcbaf874	-0.02282355
121	0x3c5ea5cd	0.013589335
122	0x3c7e4bff	0.015521049
123	0x3d93e028	0.07220489
124	0xbdc1a0c4	-0.09454492
125	0x3d58e609	0.052953754
126	0xbd02dba5	-0.03194775
127	0xbd9bd86b	-0.07609638
128	0xbdb5ad4c	-0.088709444
129	0xbcd271b8	-0.025688991
130	0xbd9068e0	-0.07051253
131	0xbc43533e	-0.011921702
132	0xbda2bf0d	-0.07946596
133	0xbbddbac4	-0.006766649
134	0xbd1e03f9	-0.038578007
135	0xbdf9c4f5	-0.1219577
136	0x3db3cf17	0.08779734
137	0xbcfbf543	-0.030756598
138	0xbd914482	-0.07093145
139	0x3d0373a2	0.032092698
140	0xbd868f78	-0.06570333
141	0x3dde4b40	0.108541965
142	0x3c6a5bd5	0.014304121
143	0xbe1476e3	-0.14498477
144	0xbd8e1421	-0.06937433
145	0xbd6b6b81	-0.05747557
146	0xbc0ef56a	-0.008725503
147	0x3d9cb0ff	0.07650947
148	0x3cadd3fb	0.021219244
149	0xbe252d7f	-0.16130637
150	0x3d2f2b74	0.04276605
151	0xbdbea4de	-0.0930879
152	0xbc898a97	-0.016789718
153	0x3d8b034a	0.06787737
154	0x3dd7793c	0.105211705
155	0xbe0e1eee	-0.13878986
156	0x3cc4495d	0.023960764
157	0xbd87f4a1	-0.06638456
158	0xbe24e31e	-0.16102263
159	0xbcd5c039	-0.026092635
160	0xbdb1c24d	-0.08679638
161	0xbd8b4d86	-0.06801896
162	0x3e1c597f	0.15268515
163	0x3db33ad0	0.08751452
164	0xbc36c254	-0.01115473
165	0x3d971b08	0.07378203
166	0x3e21f1a1	0.1581483
167	0xbca77c76	-0.02044509
168	0x3d000845	0.031257886
169	0x3e12fc57	0.14354073
170	0x3dbd4ef2	0.09243573
171	0x3d87c2da	0.06628962
172	0x3dbb1548	0.091349185
173	0x3de0507c	0.10952851
174	0x3c6c7bdc	0.014433827
175	0x3d8fc5b4	0.07020131
176	0x3c9f2d4f	0.019430785
177	0x3e3c3e3b	0.18383114
178	0x3de8a61d	0.113598086
179	0x3e6268ce	0.22110292
180	0x3ddfbc7b	0.10924622
181	0xbd94e584	-0.07270339
182	0x3d91e1b9	0.07123131
183	0x3dd440da	0.10363932
184	0x3da8d92a	0.08244546
185	0xbd491107	-0.049088504
186	0x3d6faa08	0.058511764
187	0xbc8d9b28	-0.017285898
188	0x3bc8d6f6	0.006129141
189	0x3e14103a	0.14459315
190	0x3dbcf184	0.09225753
191	0xbd84566e	-0.06461798
192	0xbcf32615	-0.029681245
193	0x3e04ac32	0.12956312
194	0x3cdcf9fc	0.02697467
195	0x3c8ac2b1	0.01693854
196	0xbdbfe101	-0.09369088
197	0xbe1a08f6	-0.15042481
198	0x3e43d028	0.19122374
199	0x3d37cc73	0.044872712
200	0xbd90acd2	-0.07064213
201	0xbd866584	-0.06562331
202	0xbdb28232	-0.08716239
203	0xbc4f8b72	-0.012667524
204	0x3ddd9fd6	0.10821502
205	0x3d18eace	0.037333302
206	0xbe07138c	-0.1319105
207	0x3e85e073	0.26147804
208	0x3da83bf8	0.08214563
209	0xbe3a4dee	-0.1819379
210	0xbe1f61b2	-0.15564612
211	0xbdcc5910	-0.09977925
212	0xbd0430a5	-0.032272954
213	0x3da56647	0.080761485
214	0xbc5085ec	-0.012727242
215	0x3d58902d	0.05287187
216	0x3d87170b	0.06596192
217	0x3def45c5	0.11683229
218	0xbd99dbc4	-0.0751262
219	0xbe2b60eb	-0.1673619
220	0xbd94ec8e	-0.07271682
221	0x3e0f3187	0.13983737
222	0x3d755593	0.059896063
223	0xbb8c0794	-0.0042733643
224	0x3df069b0	0.11738908
225	0xbdf649bb	-0.12025782
226	0xbd3d186c	-0.04616587
227	0xbb7f55ac	-0.0038960977
228	0x3db6e81b	0.08930989
229	0xbd360dca	-0.044446744
230	0xbd2366eb	-0.039893072
231	0xbdd1b376	-0.102393076
232	0x3de17508	0.1100865
233	0x3dbf019f	0.09326481
234	0xbc24d476	-0.01006042
235	0xbdeac1be	-0.11462735
236	0x3db5a566	0.08869438
237	0xbca7c338	-0.02047883
238	0xbd4455a3	-0.047933232
239	0x3d167e95	0.03674181
240	0x3e12371b	0.14278834
241	0xbddb03fe	-0.10694121
242	0x3be1c0f9	0.006889459
243	0xbd956281	-0.07294179
244	0x3d81cb90	0.063376546
245	0xbdd06aed	-0.101766445
246	0x3dda6ddd	0.10665486
247	0xbd543461	-0.051807765
248	0x3de30279	0.11084456
249	0xbdabd08d	-0.08389387
250	0x3c9a6e6c	0.018851481
251	0x3d8c073d	0.06837318
252	0xbd915952	-0.070971146
253	0xbce25b03	-0.027631288
254	0x3dc76737	0.097364835
255	0xbc840612	-0.016116176

conv1_3_1.bias f4 [5]
0	0x3dddfe74	0.10839549
1	0xbdae3c5e	-0.08507608
2	0xbc86ffaa	-0.016479332
3	0xbd510aef	-0.051035818
4	0x3dacc20d	0.0843545

conv1_3_2.weight f4 [5, 20, 5]
0	0x3c225852	0.0099087525
1	0x3e37c392	0.17945698
2	0x3dbb8cf9	0.09157748
3	0xbd62beae	-0.055357628
4	0x3cc2c7b1	0.02377686
5	0xbd558e4b	-0.052137654
6	0x3bd50233	0.0065005063
7	0x3def378d	0.11680517
8	0x3d89a01c	0.067199916
9	0x3d12833e	0.035769694
10	0x3d4f0f72	0.05055184
11	0xbd9bcad0	-0.07607043
12	0x3c606fd1	0.013698534
13	0xbd9c52e8	-0.076330006
14	0xbd7eb4da	-0.062184192
15	0x3dabbc5d	0.08385537
16	0x3d4e5cde	0.050381534
17	0xbda263e9	-0.079292126
18	0x3d84aa5b	0.06477805
19	0xbdf1a24d	-0.117985345
20	0xbde310be	-0.11087178
21	0x3cebbb9a	0.028775979
22	0x3dc5cb1d	0.096578814
23	0x3d47076c	0.048591062
24	0xbca221f4	-0.01979158
25	0xbd3e2904	-0.046425834
26	0x3dd1df9a	0.10247727
27	0x3d992459	0.07477636
28	0x3d19119b	0.037370306
29	0xbd29f64c	-0.041494653
30	0x3c7c1f40	0.01538831
31	0x3d18fe7e	0.037352078
32	0x3d6644b3	0.05621786
33	0xbc89aa06	-0.016804706
34	0x3dca8b48	0.09889847
35	0xbde87c50	-0.11351836
36	0x3c44adc2	0.012004318
37	0xbbb09dcc	-0.0053899046
38	0xbcefc293	-0.029267585
39	0x3d9d0a41	0.076679714
40	0x3de7b3e4	0.11313608
41	0x3e17423b	0.14771359
42	0xbd5f7af3	-0.054560613
43	0xbdf5e3d8	-0.12006348
44	0xbd8787a5	-0.06617669
45	0x3e4dcb3e	0.20097062
46	0x3e4529ec	0.19254273
47	0x3d350c7c	0.04420136
48	0xbdb34fae	-0.08755432
49	0xbe1905ab	-0.14943568
50	0xbdf9fd01	-0.1220646
51	0xbde897eb	-0.11357101
52	0xbd8bf430	-0.068336844
53	0x3e35ff40	0.17773151
54	0x3e4b5c8d	0.19859524
55	0xbe1f69c8	-0.15567696
56	0xbd0ebf74	-0.034850553
57	0xbd640e6b	-0.055677813
58	0xbccac251	-0.02475086
59	0x3e136a7c	0.1439609
60	0xbdeddef3	-0.1161479
61	0xbd32e377	-0.04367396
62	0xbdecbef8	-0.11559862
63	0xbbef676a	-0.007306029
64	0x3cece1ae	0.028916206
65	0xbde0c002	-0.109741226
66	0xbe4b9d30	-0.19884181
67	0xbe306718	-0.17226827
68	0xbdb64cdf	-0.08901381
69	0x3dde9cc8	0.108697474
70	0x3d406ec2	0.046980627
71	0x3d9da657	0.076977424
72	0xbd06118b	-0.032731574
73	0x3dcc5923	0.09977939
74	0x3db89cad	0.090142585
75	0xbdd79b77	-0.105276994
76	0x3c7527ec	0.014963131
77	0x3aa15167	0.0012307585
78	0xbe13d84d	-0.14437981
79	0xbd95386a	-0.07286151
80	0xbd46bc66	-0.048519515
81	0x3dcb8fdf	0.099395506
82	0xbd91b242	-0.07114078
83	0xbc6b4500	-0.014359713
84	0xbc28946c	-0.010289293
85	0x3dfb3db6	0.1226763
86	0xbd1689a1	-0.036752347
87	0xbd6efbfe	-0.058345787
88	0xbdf53660	-0.11973262
89	0xbd8268a7	-0.06367617
90	0xbd73c474	-0.059513524
91	0xbd5fa5d6	-0.054601513
92	0xbcfa9411	-0.030588182
93	0x3d91d4ac	0.07120642
94	0x3cf482f3	0.029847598
95	0xbd2d785b	-0.042351108
96	0x3d5e8335	0.054324348
97	0xbd001a9a	-0.03127537
98	0xbdf359b5	-0.11882345
99	0xbe0c08b0	-0.13675189
100	0x3ccf0e56	0.02527539
101	0xbd091bf4	-0.033473924
102	0xbd86d86f	-0.0658425
103	0xbde1de8c	-0.110287756
104	0x3d98de41	0.074642666
105	0xbda59abb	-0.08086153
106	0xbdb665a9	-0.08906109
107	0x3d34c589	0.044133697
108	0x3d6c342e	0.05766695
109	0xbdaaf776	-0.08347981
110	0xbd5726bf	-0.052527186
111	0xbddb5609	-0.10709769
112	0x3d9e14c0	0.077188015
113	0x3a2d4112	0.00066091225
114	0xbcc0f6f3	-0.023555255
115	0xbd8da91c	-0.06917021
116	0x3d802db8	0.0625872
117	0x3daf36d3	0.08555379
118	0x3d681ae5	0.056666274
119	0xbdc30b5e	-0.095236525
120	0xbdc6c9cc	-0.097064584
121	0x3da474c4	0.08030084
122	0x3d194e64	0.037428275
123	0x3d791097	0.060806837
124	0x3be15039	0.0068760184
125	0xbdf1b000	-0.118011475
126	0x3ccd464c	0.025057934
127	0x3d804515	0.06263176
128	0x3d2484a3	0.040165555
129	0xbd0d76b8	-0.034537047
130	0xbafb4ab4	-0.0019172044
131	0xbdc92646	-0.09821753
132	0xbd66f58d	-0.05638652
133	0x3dbad9d3	0.09123578
134	0x3be6b0cd	0.0070401193
135	0xbdb3e5e5	-0.08784083
136	0x3da96033	0.08270302
137	0x3da53261	0.0806625
138	0xbda14b24	-0.0787566
139	0x3c8b1a54	0.016980328
140	0xbd04e154	-0.032441452
141	0xbd695492	-0.05696542
142	0x3dbab1ec	0.09115967
143	0x3dd87a06	0.10570149
144	0x3d02db11	0.0319472
145	0x3d3dcc31	0.04633731
146	0xbcb13961	-0.021633806
147	0xbdd1e6b2	-0.1024908
148	0x3d275a94	0.040857866
149	0x3e09a2ea	0.13441053
150	0xbdd01f64	-0.10162237
151	0x3bbdb181	0.0057889824
152	0xbe00f030	-0.12591624
153	0xbdc0645e	-0.093941435
154	0xbd5e98fd	-0.05434512
155	0xbcef7f1f	-0.02923542
156	0x3d7eab24	0.06217493
157	0xbd0c228c	-0.034212634
158	0xbd6e1e5a	-0.058134414
159	0xbd93becb	-0.07214125
160	0xbd8475aa	-0.06467755
161	0x3cacb4f6	0.021082383
162	0xbe135b7c	-0.14390367
163	0xbd47c8e3	-0.048775565
164	0xbd02870d	-0.031867076
165	0xbda76cf7	-0.0817508
166	0xbe1aee32	-0.15129927
167	0xbd1f2051	-0.03884918
168	0xbe141f30	-0.14465022
169	0xbe3ea761	-0.18618537
170	0xbdbc29a0	-0.09187627
171	0xbd349e0f	-0.04409605
172	0x3d78643f	0.060642477
173	0xbd8933fb	-0.066993676
174	0x3d902436	0.07038157
175	0xbdd86a33	-0.10567131
176	0xbd4d58db	-0.050133567
177	0x39f00724	0.00045781687
178	0x3bdc8a49	0.006730352
179	0xbe3f8313	-0.18702345
180	0xbc68aaa1	-0.014200837
181	0x3dd8dfb9	0.10589547
182	0x3d934d8a	0.07192524
183	0x3df64d69	0.120264836
184	0xbdb61827	-0.088913254
185	0x3ca5bed0	0.020232588
186	0x3ca7795a	0.020443607
187	0x3d463840	0.048393488
188	0x3dab2e97	0.08358496
189	0x3dc04b4c	0.09389362
190	0x3cb1ff18	0.021728083
191	0x3d7586a1	0.059942845
192	0xbca220a5	-0.019790957
193	0x3d49873d	0.04920124
194	0x3d4320e9	0.047638807
195	0xbdf04d25	-0.11733464
196	0xbc4844ac	-0.012223404
197	0xbbe216e3	-0.006899701
198	0x3d085fd1	0.033294503
199	0xbdb44476	-0.088021204
200	0xbd86deae	-0.065854415
201	0x3d426e67	0.04746857
202	0x3db2d312	0.08731665
203	0xbd3d220d	-0.04617505
204	0xbd2a774e	-0.041617684
205	0x3d5a1a3e	0.053247683
206	0xb9a8db96	-0.0003220706
207	0xbd4c70ec	-0.04991238
208	0xbd37e836	-0.044899188
209	0xbd79782f	-0.06090563
210	0xbc96c47c	-0.018404238
211	0x3dbd0db8	0.09231132
212	0x3dc603b5	0.09668676
213	0x3d886c2e	0.06661259
214	0xbd9e6980	-0.07734966
215	0x3afb4075	0.001916899
216	0x3d3dc43e	0.04632973
217	0xbc131eb8	-0.008979492
218	0xbdb8d6d2	-0.09025349
219	0x3dc2ed49	0.09517915
220	0x3d4cdea9	0.050017033
221	0x3d0186fc	0.03162287
222	0x3d1fec62	0.03904379
223	0x3ca34625	0.019930908
224	0x3cd3c4b3	0.02585063
225	0x3d66c41a	0.05633936
226	0x3d86396f	0.06553923
227	0x3d8317dc	0.06401035
228	0x3dbe0521	0.09278322
229	0x3dd12faf	0.10214173
230	0x3db9ba44	0.090687305
231	0x3d73a03c	0.059478983
232	0x3ace11f0	0.0015721899
233	0x3bf42f94	0.007451961
234	0x3da10b93	0.07863536
235	0x3d2ad10b	0.041703265
236	0xbd49de80	-0.04928446
237	0x3da964fb	0.082712136
238	0xbcfd1735	-0.030894855
239	0x3d43ea2e	0.047830753
240	0xbd6d4579	-0.057927582
241	0x3da8e587	0.08246904
242	0x3d5db7f2	0.054130502
243	0xbd5517fb	-0.052024823
244	0x3d6cbd70	0.05779785
245	0x3ccb76a3	0.024836844
246	0xbcaab46c	-0.020837985
247	0xbdb6e146	-0.08929686
248	0xbd892d4c	-0.06698093
249	0xbc4fba9a	-0.012678767
250	0x3d517e91	0.051146094
251	0xbc631fa8	-0.013862528
252	0x3d9ba082	0.07598974
253	0x3e476f00	0.19475937
254	0x3cbe9086	0.023262274
255	0xbc86e22f	-0.016465275

conv1_3_2.bias f4 [5]
0	0x3b197ebd	0.002342149
1	0x3da6d161	0.081454046
2	0x3dc67314	0.09689918
3	0xbcc79c47	-0.024366511
4	0x3d9e9869	0.07743914
