EEGDenoisenetTraining/checkpoints/deepseparator/checkpoint_epoch_60.pth (torch, 503337 bytes, 301 tensors)

conv1_1_1.weight f4 [5, 1, 3]
0	0x3f1465b6	0.579677
1	0x3cd50cfb	0.026007166
2	0x3f0231a2	0.50856984
3	0xbed5d26c	-0.41762102
4	0x3f09fbfe	0.53900135
5	0xbdee1d18	-0.11626643
6	0xbe051d08	-0.12999356
7	0x3ef70af2	0.48250538
8	0xbf0a57d4	-0.54040265
9	0x3e82504b	0.25451884
10	0x3e8d9787	0.2765467
11	0xbf059c67	-0.52191776
12	0xbf142f94	-0.578851
13	0x3e4bb405	0.19892891
14	0xbd705d5f	-0.058682796

conv1_1_1.bias f4 [5]
0	0xbe5448de	-0.20730922
1	0x3e117259	0.14203776
2	0xbf20bf50	-0.6279192
3	0x3e6b7617	0.22994266
4	0x3eab63a3	0.33474454

conv1_1_2.weight f4 [5, 1, 5]
0	0x3ea56379	0.32302454
1	0xbdc3980d	-0.09550486
2	0xbc94f3fb	-0.018182745
3	0xbefbadaa	-0.49155933
4	0xbe4e58eb	-0.20151107
5	0x3ed92d23	0.4241725
6	0xbf0b275b	-0.54356927
7	0xbe51cf2d	-0.20489188
8	0x3ede2445	0.43387046
9	0x3e5f0313	0.21778516
10	0xbeae5611	-0.34050038
11	0xbe38e8df	-0.18057583
12	0xbed85cbb	-0.42258248
13	0xbe110d8a	-0.14165321
14	0x3d19d64f	0.037557896
15	0xbe38e497	-0.1805595
16	0xbeb2cb75	-0.3492085
17	0x3db3bb48	0.087759554
18	0xbec0db2a	-0.3766721
19	0xbe7404a6	-0.23829898
20	0xbdfcb5aa	-0.12339337
21	0xbe89096a	-0.26764995
22	0x3dfa2f69	0.12216074
23	0xbe722c6e	-0.23649761
24	0x3f06f2c9	0.5271421

conv1_1_2.bias f4 [5]
0	0x3ca8e10c	0.020615123
1	0x3d97bf4d	0.074095346
2	0xbe75b482	-0.2399464
3	0x3e2b5d4b	0.16734807
4	0x3eaa2e16	0.33238286

conv1_1_3.weight f4 [5, 1, 11]
0	0x3cb82178	0.022476897
1	0xbc0d3cae	-0.008620424
2	0xbdd5e6e5	-0.1044443
3	0x3e5fa238	0.21839225
4	0x3e91c1fe	0.28468317
5	0x3bc2ad1f	0.005941048
6	0xbe718ee0	-0.23589659
7	0x3e887cbc	0.26657665
8	0xbe31bdf2	-0.17357615
9	0x3e7c64f8	0.24647892
10	0x3ea110a6	0.31458014
11	0xbe2908bd	-0.1650724
12	0x3d1ee6b8	0.03879425
13	0x3e8d3a53	0.2758356
14	0x3e723b87	0.2365552
15	0x3d46385e	0.0483936
16	0x3e4df633	0.20113449
17	0xbd857298	-0.06515998
18	0xbe02238e	-0.12708876
19	0x3e64f606	0.22359475
20	0x3dcc175a	0.099653915
21	0xbdc21151	-0.09475959
22	0xbd74ddf4	-0.059781983
23	0x3e9a36a0	0.301198
24	0x3d6d4b86	0.057933353
25	0x3df48219	0.11938877
26	0x3e8b5fdc	0.27221572
27	0x3e262241	0.16224004
28	0x3db76b8d	0.089560606
29	0xbd05b3bb	-0.032642107
30	0x3eabda4b	0.33564982
31	0xbe984c27	-0.297456
32	0xbd8388bc	-0.064225644
33	0x3e082420	0.1329503
34	0x3e935479	0.28775385
35	0x3eafaba7	0.34310648
36	0xbe38c83e	-0.18045136
37	0x3deb1cfb	0.11480137
38	0x3e8a85b8	0.27055144
39	0x3df79454	0.12088838
40	0x3dca7075	0.09884731
41	0xbeb011f3	-0.34388694
42	0x3ebce082	0.36890036
43	0x3e4eb132	0.20184782
44	0xbc589568	-0.013219215
45	0x3e212d0c	0.1573984
46	0xbe3ccff6	-0.18438706
47	0x3e81eb3e	0.25374788
48	0x3eaa450b	0.332558
49	0x3de18a2b	0.110126816
50	0x3e833b61	0.2563124
51	0x3e8643a4	0.2622348
52	0x3e970082	0.29492575
53	0x3ea43f02	0.3207932
54	0xbd4f12e1	-0.050555114

conv1_1_3.bias f4 [5]
0	0x3e4d2ae4	0.20035893
1	0x3d74ea74	0.059793904
2	0x3e476371	0.19471528
3	0xbe07b22c	-0.13251561
4	0xbdb4a4e9	-0.088205166

conv1_1_4.weight f4 [5, 1, 15]
0	0xbe7e19c9	-0.24814524
1	0xbd3c7471	-0.046009485
2	0xbdf90461	-0.12159038
3	0xbe9cd179	-0.30628565
4	0x3dfb63d3	0.12274899
5	0xbe81af79	-0.25329188
6	0x3cef1ab7	0.029187543
7	0xbe6427a9	-0.22280754
8	0x3e3727bb	0.1788625
9	0xbd1acd9c	-0.03779374
10	0xbd097919	-0.033562753
11	0x3d44bbd7	0.0480307
12	0x3e196769	0.14980854
13	0xbe0cedcf	-0.13762592
14	0xbe6962dc	-0.22791618
15	0xbcfd4a85	-0.030919323
16	0x3e4e49cc	0.20145339
17	0x3d440055	0.04785188
18	0xbe1384ab	-0.14406078
19	0xbd6826e7	-0.056677725
20	0xbd18794c	-0.037225053
21	0x3e37cb4e	0.17948648
22	0x3e1bce00	0.15215302
23	0xbd3d5906	-0.046227477
24	0xbde9b5a2	-0.11411597
25	0x3e79811e	0.2436566
26	0x3e7e1ba2	0.24815229
27	0xbd595cc6	-0.05306699
28	0x3e7f3017	0.24920689
29	0x3e0de554	0.13857013
30	0xbd78cbdd	-0.060741294
31	0xbd2d91f5	-0.042375524
32	0x3e3b3b8d	0.18284436
33	0xbe63185b	-0.2217726
34	0xbda442bc	-0.08020541
35	0x3d141b05	0.03615858
36	0x3e2a0120	0.16601992
37	0x3e267127	0.16254102
38	0x3dca2558	0.09870404
39	0x3d1b4aaa	0.037913002
40	0x3d96d273	0.07364359
41	0x3c3d2942	0.011545481
42	0xbe837ad3	-0.25679645
43	0xbdc5f8cd	-0.096665956
44	0xbe328243	-0.17432503
45	0x3e43e59e	0.19130561
46	0xbe844952	-0.2583719
47	0x3de51cff	0.11187171
48	0xbe0e8c65	-0.13920744
49	0x3d59ddc2	0.05319
50	0xbd16afe3	-0.036788832
51	0x3e4d7741	0.20065023
52	0x3e0b5794	0.13607627
53	0xbee35937	-0.44404003
54	0xbe3a1c30	-0.18174815
55	0x3e7d279b	0.2472214
56	0x3e07351a	0.1320385
57	0x3a8022d6	0.0009776007
58	0xbe69c747	-0.22829925
59	0x3e257cbc	0.16160864
60	0x3e45654a	0.1927692
61	0xbe854671	-0.26030305
62	0x3e9157ff	0.28387448
63	0xbdcbab56	-0.09944789
64	0xbdd57560	-0.10422778
65	0x3e545552	0.20735672
66	0xbe678c05	-0.22612007
67	0xbe749a0e	-0.23886892
68	0xbe74b717	-0.23897968
69	0x3e473485	0.19453628
70	0x3dc82103	0.097719215
71	0x3e58b46e	0.21162578
72	0xbd420ea2	-0.047377236
73	0x3cb101d4	0.021607317
74	0x3d8ed536	0.069742605

conv1_1_4.bias f4 [5]
0	0xbe8894f9	-0.26676157
1	0xbe89ec7d	-0.2693824
2	0x3e68c021	0.22729541
3	0x3e73af80	0.23797417
4	0x3e1aaac0	0.15104198

conv1_2_1.weight f4 [5, 20, 3]
0	0xbe6e6b95	-0.23283227
1	0xbe195afc	-0.14976114
2	0xbe469dcb	-0.1939613
3	0xbe2b82b3	-0.16749077
4	0xbdc9d9e3	-0.09856012
5	0x3cfee07a	0.031112898
6	0xbe8d880c	-0.27642858
7	0xbe0764f3	-0.13222103
8	0xbd770122	-0.060303815
9	0xbd386e40	-0.045027018
10	0xbceb68ad	-0.028736437
11	0xbcd1eb1f	-0.02562481
12	0xbbdd1dd9	-0.006747943
13	0x3dab4d53	0.08364358
14	0xbdcec825	-0.10096768
15	0x3cb2099f	0.021733103
16	0xbd2b6faa	-0.041854538
17	0xbe19246d	-0.14955302
18	0xbca795ff	-0.020457266
19	0x3c3cdcc0	0.01152724
20	0xbd4558e0	-0.04818046
21	0xbdd86433	-0.105659865
22	0xbb05c11c	-0.0020409292
23	0xbb26b40d	-0.0025436908
24	0x3d32a5c0	0.043615103
25	0xbda4fcb1	-0.080560096
26	0x3d0905a4	0.033452645
27	0xbdedfb55	-0.116202034
28	0xbe3aed84	-0.18254668
29	0xbd92e29b	-0.07172128
30	0xbde9a6a2	-0.11408736
31	0x3db580c4	0.08862451
32	0x3c0a7505	0.008450751
33	0x3dd40dd6	0.103542015
34	0x3bb0f93a	0.005400804
35	0xbe64c20f	-0.22339652
36	0xbc1fa814	-0.009744663
37	0xbd8cbbfe	-0.06871794
38	0xbdbb87c2	-0.09156753
39	0xbd3b9910	-0.04580027
40	0xbcd41c6a	-0.025892455
41	0x3dc40d19	0.09572811
42	0x3d760002	0.0600586
43	0xbdff8445	-0.124764
44	0x3cd8ce76	0.026465636
45	0x3cd91203	0.026497846
46	0x3d784307	0.060610797
47	0xbe273932	-0.16330412
48	0xbdeeef33	-0.116667174
49	0x3e02a00f	0.1275637
50	0xbce27104	-0.02764178
51	0xbd32e135	-0.043671805
52	0xbe438fcd	-0.19097824
53	0x3d4a44c9	0.049382005
54	0x3d453a96	0.048151575
55	0x3d9abe61	0.07555843
56	0x3bd5e4c6	0.006527516
57	0x3e5bedd4	0.21477443
58	0x3d9bf2b8	0.07614654
59	0x3e4034a9	0.18770088
60	0xbd4787d4	-0.04871352
61	0x3df98458	0.12183446
62	0x3cac9bf9	0.021070467
63	0x3da18cb6	0.078881666
64	0x3db6ec34	0.08931771
65	0x3d2a762d	0.041616607
66	0xbc214992	-0.009844201
67	0xbda96bee	-0.08272539
68	0x3d49bcb2	0.04925222
69	0x3ae9135c	0.0017782259
70	0x3e223371	0.15839936
71	0x3dc384a6	0.09546785
72	0xbe2a2432	-0.1661537
73	0x3cceeace	0.025258448
74	0xbe0ddc48	-0.13853562
75	0xbdcab239	-0.098972745
76	0xbe029d8f	-0.12755416
77	0xbcb61a8c	-0.022229455
78	0x3dff7589	0.1247359
79	0x3dae873d	0.085218884
80	0xb97d20ee	-0.00024140227
81	0xbd79fe39	-0.06103346
82	0xbe2f10dc	-0.17096275
83	0xbe025375	-0.12727149
84	0xbe313612	-0.17305782
85	0xbd327a19	-0.043573473
86	0x3dced32c	0.100988716
87	0xbca4f608	-0.020136848
88	0xbe1f85c2	-0.15578368
89	0xbe63ad70	-0.2223413
90	0x3ce5bf7e	0.028045412
91	0x3d3a9406	0.045551322
92	0xbc901c1d	-0.01759153
93	0x3d37483a	0.044746615
94	0x3df159d1	0.11784709
95	0x3dc394f4	0.09549895
96	0x3d6d6296	0.057955347
97	0x3d36da52	0.0446418
98	0xbd4cf916	-0.050042234
99	0xbb027d79	-0.0019911213
100	0x3e2ef372	0.17085055
101	0xbcc2bc4e	-0.023771431
102	0x3d7ea2c5	0.062166948
103	0x3d6035ea	0.054738916
104	0x3d38ea34	0.04514523
105	0x3d37b09c	0.044846162
106	0xbda9a88d	-0.08284102
107	0xbd0c4cfa	-0.034253098
108	0x3daa1e5f	0.08306574
109	0x3da177e2	0.07884194
110	0x3d161b90	0.03664738
111	0x3ca44328	0.020051554
112	0xbb808017	-0.0039215195
113	0xbe1972c9	-0.14985193
114	0x3cbfc2bf	0.023408292
115	0xbd0cd7e3	-0.034385573
116	0xbd210ebe	-0.0393207
117	0x3dc57775	0.09641925
118	0xbb15272b	-0.0022758942
119	0x3e097435	0.13423236
120	0xbb890454	-0.004181424
121	0xbce90bdd	-0.02844804
122	0xbcb44419	-0.022005128
123	0xbe2a4bbe	-0.16630456
124	0xbe68f635	-0.2275017
125	0xbde09927	-0.109667115
126	0xbe2fc7af	-0.17166017
127	0x3db9c716	0.09071176
128	0xbedc61af	-0.43043277
129	0xbdef7cf9	-0.116937585
130	0x3d684bff	0.0567131
131	0x3e292330	0.16517329
132	0xbcfe2811	-0.031024965
133	0xbe47b955	-0.19504292
134	0x3d670eae	0.056410484
135	0xbc233014	-0.009960193
136	0xbe27ca28	-0.1638571
137	0xbd3c2383	-0.045932304
138	0xbd988fda	-0.074493125
139	0xbe418818	-0.18899572
140	0xbdaa4518	-0.0831396
141	0xbe235fcd	-0.15954514
142	0xbdcafc95	-0.099114574
143	0x3ba5b4ba	0.0050569447
144	0xbddda48b	-0.108224
145	0xbe0bbadb	-0.13645498
146	0x3bdbf984	0.006713094
147	0x3d90f484	0.07077888
148	0xbe265e3f	-0.1624689
149	0xbdfd8410	-0.123787045
150	0xbd82feef	-0.06396281
151	0x3c3b10e4	0.011417601
152	0x3d87fcc9	0.06640012
153	0x3d1dc1eb	0.038515013
154	0x3d883a5d	0.06651757
155	0x3d8c69ef	0.06856143
156	0x3e04d2f1	0.12971093
157	0x3e057451	0.13032652
158	0x3c2ffe8a	0.010741839
159	0x3e298f91	0.16558672
160	0xbda2ba20	-0.07945657
161	0xbdef8e08	-0.11697012
162	0x3da5e68e	0.081006154
163	0x3df696b5	0.12040464
164	0xbd8324ac	-0.06403479
165	0xbd5ff3b1	-0.05467576
166	0xbd742694	-0.059607103
167	0xbd8d1fdb	-0.068908416
168	0xbc40cf6c	-0.011768203
169	0x3d33526c	0.043779776
170	0x3c06416d	0.00819431
171	0xbc935d0c	-0.017988704
172	0xbda70d24	-0.08156803
173	0xbd473701	-0.04863644
174	0x3d82bd67	0.06383782
175	0xbe1c6493	-0.15272741
176	0xbda6117d	-0.081088044
177	0xbd8437ca	-0.064559534
178	0xbe1c63b4	-0.15272409
179	0x3e04ac15	0.12956269
180	0x3e38f723	0.18063025
181	0xbdbe3aa4	-0.092885286
182	0xbd994b52	-0.07485069
183	0x3d65d50b	0.056111377
184	0x3e12f88a	0.14352623
185	0xbd16bd47	-0.036801603
186	0x3d2e2127	0.042512085
187	0xbdace6ee	-0.08442484
188	0xbd217723	-0.03942026
189	0xbe3985e5	-0.18117483
190	0x3d246b8e	0.040141635
191	0xbc7b49a8	-0.015337385
192	0xbd970f8e	-0.07376014
193	0xbe07e537	-0.13271032
194	0xbe0f5812	-0.1399844
195	0xbe66f02f	-0.2255256
196	0xbd8c73c5	-0.06858019
197	0xbe608a8c	-0.21927851
198	0xbe301ada	-0.17197743
199	0x3e43986f	0.19101118
200	0x3d828f2f	0.06374966
201	0xbdb2441a	-0.087043956
202	0x3d1407b9	0.036140177
203	0x3c60543e	0.01369196
204	0xbc045389	-0.008076557
205	0xbe072174	-0.13196355
206	0xbd8803ef	-0.06641375
207	0x3e08da73	0.13364582
208	0x3db79fb7	0.0896601
209	0x3d4f4f34	0.050612643
210	0x3d912585	0.070872344
211	0xbd5eb8a0	-0.05437529
212	0xbdf1d5ef	-0.11808383
213	0xbbfbea98	-0.007687878
214	0x3bbc0d1a	0.0057388665
215	0xbd4e8753	-0.050422024
216	0xbd3b8adc	-0.045786723
217	0xbcb28a5e	-0.021794494
218	0x3d41538f	0.04719883
219	0x3e20f743	0.15719323
220	0x3dcd2984	0.10017684
221	0x3e151a5e	0.1456084
222	0x3e4c64b6	0.19960293
223	0x3d87d01f	0.06631493
224	0x3db1c951	0.08680976
225	0xbd82c48e	-0.06385146
226	0xbdd77d2c	-0.105219215
227	0xbdf71841	-0.12065173
228	0x3e1c8c73	0.15287952
229	0x3e070aa0	0.13187647
230	0x3e8a344e	0.2699303
231	0x3d509c89	0.050930534
232	0xbdbf1a0f	-0.09331142
233	0xbdf1094d	-0.11769352
234	0xbd831657	-0.06400745
235	0xbdd230bf	-0.10263204
236	0x3dee5993	0.11638179
237	0x3d241dea	0.04006759
238	0x3d98b7c6	0.07456927
239	0xbda6d431	-0.08145941
240	0xbcb77c61	-0.022398176
241	0x3d0d632c	0.034518406
242	0x3e28b070	0.16473556
243	0x3c1c9334	0.00955658
244	0xbe07d286	-0.13263902
245	0xbe06873f	-0.1313753
246	0xbdaf9ffa	-0.08575435
247	0x3cc0c730	0.02353248
248	0x3c246380	0.010033488
249	0x3bd4816f	0.0064851562
250	0x3d89985a	0.06718512
251	0x3d74fa25	0.05980887
252	0xbe471b01	-0.19443895
253	0xbe2e89e1	-0.17044784
254	0xbd5626f3	-0.05228324
255	0x3d6deed8	0.058089107

conv1_2_1.bias f4 [5]
0	0xbdcc745a	-0.0998313
1	0x3d909c10	0.070610166
2	0x3db117be	0.086471066
3	0x3cd2133f	0.025643943
4	0x3d17cc0e	0.037059836

conv1_2_2.weight f4 [5, 20, 5]
0	0xbd3a915b	-0.045548778
1	0x3cc10e2d	0.02356633
2	0xbc61f2d8	-0.013790809
3	0xbcf8755f	-0.030329404
4	0x3dd57a23	0.10423686
5	0xbd933f52	-0.07189812
6	0xbde33b80	-0.11095333
7	0xbca56442	-0.020189408
8	0x3d906bdc	0.070518225
9	0xbdacbea3	-0.084347986
10	0x3a886d4e	0.0010408552
11	0xbd09a21d	-0.03360187
12	0x3d7cf82c	0.061760113
13	0x3d6bee7d	0.057600487
14	0x3dd3f315	0.103490986
15	0xbab04506	-0.0013448305
16	0xbe0de5d5	-0.13857205
17	0xbdde6e01	-0.10860825
18	0x3dc22f92	0.094817296
19	0x3d02e605	0.031957645
20	0x3da038cb	0.078233324
21	0xbd5ffaff	-0.054682728
22	0xbd00a678	-0.031408757
23	0xbcee3517	-0.02907805
24	0xbdc34563	-0.09534719
25	0x3ca82b38	0.02052842
26	0xbce3b332	-0.027795408
27	0xbdfab448	-0.12241417
28	0x3da4cd24	0.0804694
29	0x3d9579f1	0.07298649
30	0x3d72ecd6	0.059307896
31	0xbd234b69	-0.03986684
32	0xbd0c7859	-0.03429446
33	0xbdd1fbc5	-0.10253099
34	0xbd888241	-0.06665469
35	0x3d99695b	0.07490798
36	0x3ae1e182	0.0017233344
37	0xbd46fa0d	-0.04857831
38	0x3c7e48ff	0.015520333
39	0x3d054784	0.032538906
40	0xbc4b14ca	-0.012395093
41	0xbd5552ab	-0.05208079
42	0x3d3ff29d	0.046862233
43	0xbdb6b3e5	-0.08921031
44	0x3d4be9df	0.049783584
45	0x3cb7c2d2	0.022431765
46	0x3c11e714	0.008905191
47	0x3b5ae0fd	0.0033398264
48	0xbdaaf15d	-0.08346818
49	0xbc1b0875	-0.0094624655
50	0x3d1f52d4	0.03889735
51	0xbc892dd9	-0.016745495
52	0xbdd80f5a	-0.10549803
53	0xbd5c98d1	-0.053856675
54	0xbc8f0ee4	-0.017463155
55	0xbce90c96	-0.028448384
56	0x3db21177	0.086947374
57	0x3dd6c62c	0.10487017
58	0xbd5846c3	-0.05280186
59	0x3d85a57b	0.065257035
60	0x3dbc9657	0.092083625
61	0x3d979511	0.07401479
62	0x3d095f2b	0.033538025
63	0xbd750f69	-0.05982915
64	0x3da7d39d	0.08194659
65	0x3da88e5a	0.082302764
66	0xbd29f356	-0.04149183
67	0xbda61bbc	-0.08110759
68	0x3db49a24	0.088184625
69	0xbd0e4e34	-0.03474255
70	0x3bec8e75	0.0072191306
71	0xbbd1095f	-0.006379291
72	0x3df6ad05	0.120447196
73	0xbd1ff061	-0.039047603
74	0x3cc4bf9d	0.02401715
75	0xbdb56c1d	-0.088585116
76	0x3d94014d	0.072268106
77	0x3dad7431	0.084694274
78	0xbd29eb7c	-0.04148434
79	0xbdb0dbe2	-0.08635689
80	0x3ccfaaab	0.025349936
81	0x3c1021ce	0.008797122
82	0x3c8393b1	0.016061636
83	0xbce52524	-0.027971812
84	0x3ccf03e7	0.025270415
85	0xbdb11c05	-0.086479224
86	0xbd158470	-0.036503255
87	0x3d5b5a9a	0.0535532
88	0xbaa7eb27	-0.001281117
89	0xbcce2411	-0.025163682
90	0xbdbd8aaf	-0.092549674
91	0x3cb40af1	0.021977874
92	0xbe0ef8ef	-0.13962148
93	0x3c8701b2	0.0164803
94	0x3d8f339f	0.06992268
95	0xbda62181	-0.08111859
96	0xbde235b0	-0.11045396
97	0xbc0ea197	-0.008705518
98	0xbdc02fa6	-0.09384088
99	0xbd79a0fc	-0.060944542
100	0x3e0cc351	0.13746382
101	0xbdfbe7e7	-0.12300091
102	0x3decb65c	0.1155822
103	0xbe0bbd9a	-0.13646546
104	0xbd0c14a8	-0.034199387
105	0xbdac913c	-0.08426139
106	0x3d7e44a6	0.062077187
107	0x3dffbaf0	0.124868274
108	0xbe17680c	-0.14785784
109	0xbda71492	-0.0815822
110	0x3e8597b9	0.26092318
111	0xbd73c69e	-0.059515588
112	0xbdbfba62	-0.093617216
113	0xbe882451	-0.26590207
114	0x3d9d3cd3	0.07677617
115	0xbdc0a716	-0.09406869
116	0xbcc97e20	-0.024596274
117	0x3bfc3aeb	0.0076974533
118	0x3ddcf779	0.10789389
119	0xbd576de5	-0.052595038
120	0xbd840792	-0.064467564
121	0x3d92f439	0.07175488
122	0xbcda6ec8	-0.026664153
123	0xbd26c835	-0.040718276
124	0xbd974499	-0.07386131
125	0xbc66b03d	-0.014080104
126	0x3d9f9cf3	0.077936076
127	0x3c4e39e0	0.012587041
128	0xbd1d32a4	-0.038378373
129	0xbe060e4f	-0.13091396
130	0xbdc007a1	-0.09376455
131	0x3c1f68f4	0.009729613
132	0x3e027600	0.12740326
133	0x3e2d56d9	0.16927661
134	0xbd7a2a09	-0.061075244
135	0xbe0242fb	-0.12720864
136	0x3d30a484	0.043125644
137	0x3ced73a9	0.028985815
138	0x3c94c200	0.018158913
139	0xbdfdc43e	-0.12390946
140	0xbda33d79	-0.07970709
141	0xbdffa969	-0.12483484
142	0xbd8759f1	-0.06608952
143	0xbdf5c71f	-0.1200087
144	0xbbd321fc	-0.0064432602
145	0xbdda95fc	-0.106731385
146	0x3d9b6088	0.07586771
147	0x3be7be5a	0.007072252
148	0xbd2bf8b3	-0.041985225
149	0x3d9d2dc5	0.076747455
150	0xbdd91af7	-0.10600846
151	0x3d942972	0.072344676
152	0xbc2107c5	-0.009828513
153	0xbdceffb5	-0.10107366
154	0x3c41ba8d	0.011824262
155	0x3e110807	0.14163218
156	0x3e0b09a3	0.13577895
157	0xbcc6e1ad	-0.024277532
158	0x3cabd43b	0.020975223
159	0x3dba93af	0.091102
160	0x3cf6eef9	0.030143248
161	0x3d9f600e	0.07781993
162	0x3c371086	0.011173373
163	0x3ca35c3a	0.019941438
164	0x3da7c024	0.08190945
165	0x3e0c7502	0.1371651
166	0xbde2111d	-0.1103842
167	0x3ce29667	0.027659608
168	0x3e326258	0.17420328
169	0x3e1eb309	0.15497984
170	0x3ddccaf0	0.10780895
171	0x3cfcf330	0.03087768
172	0x3e0493dd	0.1294703
173	0xbd77c1de	-0.06048762
174	0xbdbc950e	-0.092081174
175	0x3da2cc6e	0.07949148
176	0xbd7d5cf0	-0.06185621
177	0x3db8fb6a	0.090323284
178	0x3d9904be	0.074716076
179	0x3d154085	0.036438484
180	0x3e591bd0	0.21202016
181	0x3e18f36b	0.14936607
182	0xbe090ac6	-0.13383016
183	0xbdca1e2a	-0.098690346
184	0x3e104714	0.14089614
185	0x3c393e58	0.011306368
186	0xbdd72c70	-0.10506523
187	0x3d8b0d8d	0.06789694
188	0xbd9b3455	-0.07578341
189	0x3d99cccb	0.07509764
190	0x3de2287c	0.11042878
191	0xbd40cd3c	-0.047070727
192	0x3df23b10	0.118276715
193	0x3d1ae8f6	0.037819825
194	0x3dd45d89	0.10369403
195	0xbe1fb65e	-0.15596911
196	0x3d7eb595	0.06218489
197	0xba5d946d	-0.0008452598
198	0x3e2aee17	0.16692387
199	0xbdb87a87	-0.09007745
200	0x3c49a261	0.012306781
201	0xbdf098b0	-0.11747873
202	0xbde7e564	-0.1132305
203	0x3da77e26	0.08178358
204	0xbcdcd195	-0.026955405
205	0xbe151076	-0.1455706
206	0xbe09cfbd	-0.13458152
207	0xbd163beb	-0.036678236
208	0xbe0f0874	-0.13968068
209	0x3e2f7e2b	0.17137973
210	0xbde32d23	-0.110925935
211	0x3dcc6dca	0.09981878
212	0x3e023e45	0.12719066
213	0x3dd1e343	0.10248425
214	0x3e08a72f	0.13345025
215	0xbbeece5c	-0.0072877835
216	0x3cbbf4ab	0.022943815
217	0xbcc2f120	-0.023796618
218	0xbd546df2	-0.051862665
219	0x3c072090	0.00824751
220	0x3d147704	0.036246315
221	0xbd857fa9	-0.0651849
222	0x3d993877	0.07481473
223	0x3d311ded	0.04324143
224	0x3dc04bb3	0.093894385
225	0xbd87023b	-0.06592222
226	0x3da01c80	0.07817936
227	0xbdaecae4	-0.08534792
228	0xbca60a18	-0.020268485
229	0xbe3fcf8b	-0.18731515
230	0xbd1e6177	-0.03866717
231	0x3d98cbcb	0.074607454
232	0x3cb33a05	0.021878252
233	0x3d2c56ed	0.042075086
234	0x3dbbd611	0.09171689
235	0xbc7fa594	-0.015603442
236	0x3c8164b0	0.015795082
237	0x3d95ce03	0.07314684
238	0xbdb9fd50	-0.09081519
239	0x3cbf84aa	0.023378689
240	0x3d846320	0.06464219
241	0xbc16bf96	-0.009200951
242	0xbd17da8f	-0.037073668
243	0x3b51dbf1	0.0032021964
244	0xbda62e96	-0.08114354
245	0xbb7fb9dd	-0.0039020695
246	0xbcf00b84	-0.029302366
247	0x3dd21c65	0.10259322
248	0x3ddb9959	0.10722608
249	0x3e415ae2	0.18882325
250	0x3d2f9ee6	0.042876147
251	0xbd0abb59	-0.033870075
252	0xbd7a5d09	-0.06112388
253	0x3bb5996b	0.0055419705
254	0xbcb8714b	-0.02251496
255	0x3d5861ff	0.05282783

conv1_2_2.bias f4 [5]
0	0x3daee6d8	0.08540124
1	0x3da82a3f	0.08211183
2	0x3da22fda	0.07919283
3	0xbd620c46	-0.055187486
4	0x3d4084b0	0.04700154

conv1_2_3.weight f4 [5, 20, 11]
0	0xbd7eb8a0	-0.06218779
1	0xbe250ee7	-0.16118966
2	0xbe5eff1d	-0.21777005
3	0xbe01c755	-0.12673695
4	0xbe120337	-0.14259039
5	0xbe156cc4	-0.14592272
6	0x3cac7473	0.021051621
7	0x3cbafc34	0.022825338
8	0x3d8bbae9	0.0682276
9	0x3dd4acb0	0.103845
10	0x3e14c1e0	0.14527082
11	0xbdc0ac5d	-0.09407876
12	0xbd0711ff	-0.032976147
13	0xbd55a35f	-0.052157756
14	0xbe0f0580	-0.13966942
15	0xbe1f0d5c	-0.1553244
16	0xbdaaf9be	-0.08348416
17	0xbd1671d8	-0.036729664
18	0x3d997476	0.07492916
19	0x3b5e084e	0.0033879462
20	0xbda4997b	-0.080370866
21	0xbcd160da	-0.025558878
22	0x3ad5bee6	0.0016307503
23	0xbd69600d	-0.056976367
24	0xbdb3d8bf	-0.087815754
25	0xbe024b89	-0.12724127
26	0x3d1345d0	0.03595525
27	0x3e5f469b	0.21804278
28	0x3e1011c0	0.14069271
29	0x3d55fd2e	0.052243404
30	0x3c1c840b	0.009552966
31	0x3ba9f13d	0.0051862285
32	0xbe0e778f	-0.13912795
33	0xbd95c71f	-0.0731337
34	0x3d18ecac	0.037335083
35	0x3e043730	0.12911677
36	0x3d43f69c	0.047842607
37	0xbd62e6d7	-0.055395927
38	0xbddad42e	-0.10685001
39	0xbdfd0655	-0.12354723
40	0xbe205920	-0.15658998
41	0x3c4ad543	0.012379947
42	0xbcc9d41b	-0.024637273
43	0xbcc1b181	-0.02364421
44	0xbd149cd8	-0.03628239
45	0xbd64634c	-0.05575876
46	0x3c1fb9c5	0.009748881
47	0x3ca2cbef	0.019872634
48	0x3cde1926	0.027111601
49	0xbcd11712	-0.025523696
50	0xbcda0602	-0.026614193
51	0xbd470a3e	-0.048593752
52	0x3c46ce6c	0.012134176
53	0xbd1e9fa1	-0.038726453
54	0xbdb857e8	-0.09001142
55	0xbd9c6b76	-0.07637684
56	0xbdeb5f82	-0.11492826
57	0xbd039364	-0.032122985
58	0x3d7223ca	0.059116162
59	0xbd5b5b4e	-0.05355387
60	0xbd31d284	-0.043413654
61	0xbe5da3d9	-0.21644534
62	0xbe2253f4	-0.15852338
63	0xbd1564a9	-0.03647295
64	0xbd07b15b	-0.033128124
65	0xbdcfffa1	-0.10156179
66	0xbe8a9c62	-0.27072436
67	0xbe4006a9	-0.1875254
68	0xbe1afb8c	-0.1513502
69	0xbe77dcd1	-0.24205329
70	0xbe2e35e0	-0.17012739
71	0xbe0e4616	-0.13893923
72	0xbde16e01	-0.1100731
73	0xbd92a760	-0.071608305
74	0xbd61256d	-0.054967333
75	0xbd846079	-0.06463713
76	0x3bdef5ee	0.0068042194
77	0xbd87374c	-0.06602344
78	0xbbf579a9	-0.0074913097
79	0xbd8a7043	-0.067596935
80	0xbd5cec67	-0.05393639
81	0x3d2edcfb	0.042691212
82	0xbc7f8838	-0.015596442
83	0xbd6cce90	-0.05781418
84	0xbdd090f6	-0.10183899
85	0xbdee43c7	-0.11634021
86	0xbd8b091a	-0.06788845
87	0xbd8514c1	-0.06498099
88	0x3cc162fb	0.023606768
89	0xbd06ca5a	-0.03290782
90	0x3b6b5df0	0.0035914145
91	0x3d3cda5b	0.046106678
92	0x3d913098	0.07089347
93	0x3d3cd498	0.046101183
94	0xbda16f76	-0.078825876
95	0xbdb5389a	-0.088486865
96	0xbd88f22a	-0.06686814
97	0x3cc3bfe9	0.02389522
98	0xbc9125bb	-0.017718187
99	0x3d25ab35	0.04044648
100	0x3bb6361a	0.0055606486
101	0xbcf52595	-0.029925147
102	0xbd6d20dc	-0.057892665
103	0x3cf51ceb	0.029921016
104	0x3e2f07dd	0.17092843
105	0x3d877208	0.066135466
106	0x3d052f4b	0.032515805
107	0x3de18f74	0.1101369
108	0xbcc61312	-0.024179015
109	0xbd859586	-0.0652266
110	0xbe3e4bf1	-0.18583657
111	0xbd686767	-0.056739237
112	0xbdfc0106	-0.12304883
113	0xbd17876f	-0.036994394
114	0xbd88a43a	-0.06671949
115	0x3cca5c69	0.024702268
116	0xbd60241c	-0.054721937
117	0x3a3515c2	0.0006907844
118	0xbbade53a	-0.005306867
119	0xbb353ae6	-0.0027653514
120	0xbd2722f5	-0.040804822
121	0xbde1dc0f	-0.11028301
122	0xbe3bc8ef	-0.18338369
123	0xbe31d771	-0.1736734
124	0xbe36c8e0	-0.17850065
125	0xbe01e7a4	-0.1268602
126	0xbd42cbaa	-0.04755751
127	0xbd7ebae3	-0.062189948
128	0x3cc76156	0.024338406
129	0x3d8735c2	0.0660205
130	0x3bb2795f	0.0054465975
131	0x3d8ee352	0.06976952
132	0xbdd107ca	-0.10206564
133	0xbd55c071	-0.05218548
134	0xbe2ded4d	-0.16985054
135	0xbdf202c6	-0.11816935
136	0xbd92b2b3	-0.071629904
137	0xbdecbb52	-0.11559166
138	0xbdbf5920	-0.09343171
139	0xbdb544a3	-0.08850982
140	0xbc141d1e	-0.009040145
141	0x3d10ad54	0.03532155
142	0x3cc68523	0.024233406
143	0xbdac5978	-0.08415502
144	0xbd503a85	-0.05083706
145	0xbd78a189	-0.060700927
146	0xbe055b08	-0.13023007
147	0xbd6120ac	-0.0549628
148	0xbdd6d373	-0.104895495
149	0x3cb446a1	0.022006335
150	0xbc7a6632	-0.015283154
151	0x3daaf098	0.08346671
152	0x3d67ecde	0.05662238
153	0x3d9b9046	0.07595877
154	0xbdb6467e	-0.08900164
155	0xbd7f9b9a	-0.062404253
156	0xbd739f8a	-0.05947832
157	0xbcb23bf2	-0.0217571
158	0xbd7d1a04	-0.06179239
159	0xbcecfe5c	-0.028929882
160	0x3cb2ea5e	0.02184027
161	0x3dd41b8f	0.10356819
162	0x3df68939	0.12037892
163	0x3e12bae8	0.14329112
164	0x3d7eac8c	0.062176272
165	0xbe880ece	-0.26573795
166	0xbe3550c1	-0.17706586
167	0xbde67339	-0.11252446
168	0xbbfc1969	-0.007693459
169	0xbc45ba40	-0.012068331
170	0x3d5c7516	0.0538226
171	0x3d49a807	0.04923251
172	0x3c3283c7	0.010895676
173	0xbcf71bdc	-0.030164652
174	0xbc59d624	-0.013295684
175	0xbd2b4c26	-0.041820668
176	0xbe41aae2	-0.18912843
177	0xbd8bfba6	-0.068351075
178	0xbdc0179d	-0.09379504
179	0xbdd382e4	-0.103277
180	0xbcc3c7c1	-0.023898961
181	0x3d9ed59b	0.07755586
182	0x3df38d83	0.118922256
183	0x3e304f36	0.17217717
184	0x3e226a60	0.15860891
185	0x3dedba90	0.116078496
186	0x3e0238c5	0.12716968
187	0xbda58610	-0.08082211
188	0xbc9600b6	-0.018310886
189	0xbd0e03e4	-0.03467168
190	0xbde2b569	-0.110697575
191	0x3b96f277	0.004606541
192	0xbd15c9e3	-0.036569487
193	0x3b2b3c31	0.0026128406
194	0xbd40dc31	-0.04708499
195	0x3d8f76cb	0.0700508
196	0xbd20ec00	-0.039287567
197	0xbd65016d	-0.055909563
198	0xbd9c785f	-0.076401465
199	0xbd976f9f	-0.07394337
200	0xbdbe8e2e	-0.093044624
201	0x3c7405d1	0.014893965
202	0x3b7e24ff	0.0038779376
203	0xbdb1b30d	-0.08676729
204	0xbdd5a347	-0.10431533
205	0xbd6fd4da	-0.0585526
206	0xbd8f7d93	-0.07006373
207	0xbde34988	-0.11098009
208	0xbdfdcc0e	-0.12392436
209	0x3d9ea87c	0.077469796
210	0xbcf9dd17	-0.030500932
211	0xbcd8d44b	-0.026468417
212	0x3dd87433	0.10569038
213	0x3d4cd244	0.050005212
214	0x3d83da63	0.06438138
215	0xbcbf6f9f	-0.023368655
216	0xbd44f194	-0.04808195
217	0xbe0e247d	-0.13881107
218	0xbe39d70b	-0.18148439
219	0xbe328964	-0.17435223
220	0xbcb41673	-0.02198336
221	0xbd175c20	-0.03695309
222	0xbdd96a29	-0.106159516
223	0x3d3a897c	0.04554127
224	0x3d639cb4	0.055569366
225	0xbb79043f	-0.0037996916
226	0x3d21dffa	0.03952024
227	0xbe3710c0	-0.17877483
228	0xbd871247	-0.06595283
229	0xbd83068b	-0.06397732
230	0x3cf8fa4c	0.030392788
231	0xbd1098bd	-0.035301913
232	0xbb3a97b6	-0.0028471774
233	0x3e26f02e	0.16302559
234	0xbe66bd04	-0.22533041
235	0xbca00b4f	-0.019536642
236	0xbd7fe083	-0.06246997
237	0xbe06e9e5	-0.13175161
238	0x3e45b2f2	0.19306543
239	0xbd628c00	-0.055309296
240	0xbdb2ac3c	-0.08724257
241	0xbe763131	-0.24042203
242	0xbdb779d3	-0.08958783
243	0xbd7773ab	-0.060413044
244	0xbe6d296a	-0.2316033
245	0xbe6905d5	-0.22756131
246	0x3db1c990	0.08681023
247	0x3ddc11ec	0.10745606
248	0xbbedb554	-0.007254282
249	0xbdd7bca3	-0.105340265
250	0xbe50b1b0	-0.20380282
251	0xbda017c0	-0.0781703
252	0xbe87a32d	-0.2649168
253	0x3d6f304a	0.05839566
254	0xbc43c3d5	-0.011948545
255	0x3dbd667d	0.09248064

conv1_2_3.bias f4 [5]
0	0x3b33618a	0.002737137
1	0x3d290caa	0.041271843
2	0x3d730525	0.059331078
3	0x3d9b02c2	0.075688854
4	0x3d3eaf81	0.046554092

conv1_2_4.weight f4 [5, 20, 15]
0	0xbc08af0d	-0.008342517
1	0x3d376f02	0.0447836
2	0x3d1d3ca8	0.038387924
3	0xbcd38b62	-0.025823299
4	0xbd629a2e	-0.05532282
5	0xbc9e0999	-0.019291686
6	0x3d3b49ff	0.045724865
7	0xbd1b2e93	-0.037886214
8	0xbcc9b88c	-0.024624132
9	0x3b165f08	0.0022944827
10	0xbcf852b3	-0.030312872
11	0x3cdb591a	0.026775885
12	0x3d11e684	0.035620227
13	0x3bf7fb94	0.0075678322
14	0xbd8547aa	-0.065078095
15	0xbd81df8d	-0.06341467
16	0xbd988bbd	-0.07448528
17	0x3d258652	0.0404113
18	0xbce6e08b	-0.028183242
19	0xbceea211	-0.029130014
20	0x3cce60f0	0.025192708
21	0xbdaaae77	-0.08334058
22	0xbc462bc1	-0.012095393
23	0x3d43b414	0.047779158
24	0x3c95522c	0.01822766
25	0x3c8eb95e	0.017422374
26	0xbd9c8132	-0.076418296
27	0xbdcecdae	-0.10097824
28	0xbd93514d	-0.07193241
29	0xbe236cf4	-0.15959531
30	0x3eaea44c	0.34109724
31	0x3e10a637	0.14125906
32	0x3e72dc78	0.23716915
33	0x3e452dd9	0.1925577
34	0x3e598e78	0.21245754
35	0x3e849fba	0.25903112
36	0x3e961f0c	0.29320562
37	0x3e6a4fce	0.22882006
38	0x3e57df0f	0.21081184
39	0x3e2dc1e8	0.169685
40	0x3e9f2605	0.31083694
41	0x3e34379e	0.17599341
42	0x3db07004	0.08615115
43	0x3ea5cc6d	0.32382527
44	0x3e93831c	0.28810966
45	0x3cc2bfde	0.02377313
46	0x3d2b53c0	0.041827917
47	0xbc723de6	-0.014785266
48	0x3ccd68a3	0.025074309
49	0x3cfebc95	0.031095782
50	0x3d59448c	0.053043887
51	0x3bdf17e6	0.006808269
52	0x3ae1224f	0.0017176362
53	0xbdc36b74	-0.095419794
54	0x3b328359	0.0027238934
55	0x3d6e9e82	0.058256634
56	0x3d80edc7	0.062953524
57	0xbb9f2ae4	-0.004857408
58	0x3dc4af2b	0.09603723
59	0x3c9d5a4b	0.019208094
60	0x3b29e970	0.0025926493
61	0xbd0ccabb	-0.034373026
62	0x3b139a00	0.002252221
63	0x3d5a7788	0.05333665
64	0x3d2e6fce	0.042587094
65	0xbcba0818	-0.022708938
66	0xbd01c44e	-0.03168135
67	0x3baca5dc	0.0052687954
68	0x3d3f2f0f	0.046675738
69	0x3d99b0ee	0.0750445
70	0x3d898da2	0.067164674
71	0x3d4db803	0.050224315
72	0x3e2362ce	0.1595566
73	0x3e1e62bf	0.15467356
74	0x3dc1140a	0.0942765
75	0xbd26b947	-0.040704038
76	0xbcc20345	-0.0236832
77	0xbca24bf5	-0.01981161
78	0x3c8d7ba7	0.017270876
79	0x3e0f45f3	0.13991527
80	0x3e0f5bb2	0.13999823
81	0x3e62b4c9	0.22139277
82	0x3e1368e8	0.14395487
83	0x3d3d8d56	0.046277367
84	0x3c17c266	0.009262657
85	0x3ddb1852	0.10697998
86	0xbd6bc1ff	-0.057558056
87	0xbd265e53	-0.0406173
88	0x3d364be6	0.044505976
89	0x3e15902f	0.14605783
90	0x3c1888c3	0.00930995
91	0x3cdcd6ce	0.026957896
92	0x3cebc181	0.028778793
93	0xbc6866fd	-0.014184711
94	0x3bb9d824	0.005671518
95	0xbd3c2f2e	-0.04594343
96	0xbdd9dea7	-0.10638171
97	0x3d2bd9df	0.041955825
98	0x3d3f405b	0.046692234
99	0xbd70b032	-0.058761783
100	0xbe2bc8fb	-0.16775887
101	0xbdbb257b	-0.09138008
102	0xbd99a2bc	-0.07501742
103	0xbe73c87d	-0.23806949
104	0xbe860a72	-0.26179844
105	0x3df87eba	0.12133546
106	0x3d954cb1	0.07290018
107	0xbc605ff4	-0.013694752
108	0x3d148c4a	0.036266603
109	0xbc95d1e2	-0.018288556
110	0xbbda5f2e	-0.0066641783
111	0x3ce7579a	0.028240014
112	0x3e229be9	0.15879788
113	0x3daf44ff	0.08558082
114	0x3e24f602	0.1610947
115	0x3d98049d	0.07422755
116	0x3e4f2c0c	0.20231646
117	0x3e1d88ea	0.1538426
118	0x3df07bd9	0.11742372
119	0x3d3669e2	0.04453457
120	0x3cc07f9f	0.023498354
121	0x3d428556	0.04749044
122	0x3bad04a3	0.0052800938
123	0xbcc54da7	-0.02408488
124	0xbb1b7524	-0.0023720944
125	0x3d8a986e	0.06767355
126	0x3a5eaede	0.0008494685
127	0x3de2ce27	0.11074477
128	0x3dc8e503	0.098093055
129	0x3d9f6ef2	0.07784833
130	0x3e1a225b	0.15052168
131	0x3e51f029	0.2050177
132	0x3e685b26	0.2269102
133	0x3e3d2ed0	0.18474889
134	0x3e4667c2	0.19375518
135	0x3d09856c	0.033574507
136	0x3c49edb3	0.012324738
137	0x3cc47294	0.023980416
138	0x3d33a0df	0.04385459
139	0x3ce89cde	0.028395113
140	0x3cf88415	0.03033642
141	0x3b2bdd37	0.0026224384
142	0x3d0493e2	0.032367595
143	0xbca9983d	-0.020702476
144	0xbd3c71de	-0.04600703
145	0xbda1756d	-0.07883725
146	0xbdccdd5c	-0.100031585
147	0xbde4e044	-0.11175588
148	0xbe1a4cc8	-0.15068352
149	0xbe07b285	-0.13251694
150	0x3cdc11be	0.026863929
151	0x3d0beecc	0.03416328
152	0x3ca58d79	0.020209061
153	0x3c47ba93	0.012190479
154	0x3d25f489	0.04051641
155	0x3ceb18b6	0.028698307
156	0x3b91e96c	0.004452875
157	0xbcbcf2a0	-0.023064911
158	0xbd260784	-0.04053451
159	0xbd1eec7e	-0.038799755
160	0xbe1b5f7c	-0.15173143
161	0xbdd01d8d	-0.10161886
162	0xbe3fac91	-0.18718173
163	0xbea05eae	-0.31322235
164	0xbe9e7d96	-0.3095519
165	0x3d5bfcb4	0.053707793
166	0x3dbda4a0	0.09259915
167	0xbc30b61c	-0.010785606
168	0xbd310ac2	-0.04322315
169	0x3d08acc7	0.0333679
170	0xbcc4a950	-0.024006516
171	0xbc162b0a	-0.009165535
172	0x3a12433f	0.00055794785
173	0xbcdd08c2	-0.026981715
174	0x3c2f4798	0.010698222
175	0x3db94375	0.090460695
176	0x3d8c3b82	0.06847288
177	0x3cd7c634	0.026339628
178	0xbbb9fd2e	-0.0056759333
179	0xbe13a9b9	-0.14420213
180	0xbcb3d4eb	-0.021952113
181	0x3d8c91b3	0.068637274
182	0x3d353501	0.04424
183	0x3cc9236c	0.024553023
184	0xbb62d7e8	-0.0034613553
185	0xbd261777	-0.04054972
186	0x3c873196	0.016503137
187	0x3d7ca2aa	0.061678566
188	0xbd31a70f	-0.04337221
189	0x3bdd6c3a	0.0067572864
190	0x3e0009fc	0.12503809
191	0x3da960ac	0.08270392
192	0x3cd09e52	0.025466118
193	0x3c863a32	0.016385172
194	0xbd25dc99	-0.04049358
195	0x3cc86ffb	0.024467459
196	0x3c60934a	0.013706991
197	0x3cab77e6	0.020931195
198	0xbcf70fca	-0.030158896
199	0x3bc12b20	0.0058950335
200	0xbd824ef3	-0.063627146
201	0xbd98e9e2	-0.074664846
202	0xbd323610	-0.04350859
203	0x3d117b03	0.035517704
204	0x3d146111	0.036225382
205	0x3bf57936	0.007491256
206	0xbd989f33	-0.0745224
207	0xbd57860a	-0.052618064
208	0xbe0df31b	-0.13862269
209	0xbe58e6f3	-0.2118185
210	0x3c3cbe5e	0.011519996
211	0xbc768c34	-0.0150480755
212	0xbd2876dd	-0.04112898
213	0x3bb600d4	0.005554298
214	0xbc4a25b4	-0.012338091
215	0x3d1b39ce	0.037896924
216	0x3cb5e7c3	0.02220524
217	0x3d82208d	0.06353865
218	0xbccc0f0b	-0.024909517
219	0xbc96b93e	-0.018398877
220	0xbd7698ba	-0.060204245
221	0xbd90dbad	-0.0707315
222	0xbe0687b0	-0.13137698
223	0xbe2ef352	-0.17085007
224	0xbe462068	-0.193483
225	0x3dae2c2d	0.085045196
226	0x3e30accb	0.17253415
227	0x3d3d4331	0.046206657
228	0x3e1c8f41	0.15289022
229	0x3e4e4a7c	0.20145601
230	0x3e1d2e7d	0.15349765
231	0x3e4a10ef	0.19733022
232	0x3dd9bb3b	0.106314145
233	0x3df03377	0.11728566
234	0x3d860a05	0.0654488
235	0xbcbab798	-0.022792622
236	0xbd110234	-0.03540249
237	0x3d006587	0.031346824
238	0x3b928588	0.0044714846
239	0x3d7ddafb	0.061976414
240	0xbb864375	-0.004097397
241	0xbdc7cbea	-0.097556904
242	0xbd562a0a	-0.052286185
243	0xbc9794d4	-0.018503584
244	0xbc92826b	-0.017884454
245	0xbd97f261	-0.07419277
246	0xbd2d24c1	-0.04227138
247	0xbd9254c3	-0.07145073
248	0x3cb83be7	0.022489501
249	0x3d530544	0.051518694
250	0x3dee20ad	0.11627326
251	0x3d54c1ea	0.051942743
252	0xbd300f00	-0.042983055
253	0x3d8bdd8d	0.06829367
254	0xba5db062	-0.0008456764
255	0x3d3c3740	0.045951128

conv1_2_4.bias f4 [5]
0	0xbd787210	-0.060655653
1	0xbd65270b	-0.055945437
2	0xbbdf99c5	-0.0068237507
3	0xbd3f251e	-0.046666257
4	0xbd976d73	-0.07393923

conv1_3_1.weight f4 [5, 20, 3]
0	0x3c9c24c9	0.01906051
1	0xbd733410	-0.059375823
2	0x3e0c4c68	0.13701022
3	0xbdbcca68	-0.092182934
4	0xbc84d1b7	-0.016213281
5	0xbda43861	-0.08018566
6	0x3e0d9d20	0.1382947
7	0xbd264f27	-0.04060283
8	0x3c639f08	0.0138928965
9	0xbda13f18	-0.07873362
10	0x3d8b092a	0.06788857
11	0xbda04417	-0.07825487
12	0x3d9f70ac	0.07785162
13	0xbdbe0f9e	-0.092803225
14	0x3dd4c4e0	0.103891134
15	0x3dc21621	0.09476877
16	0x3d46f438	0.04857275
17	0x3dd7b9bb	0.10533472
18	0xba281f8b	-0.00064133917
19	0xbcc2ff5a	-0.023803402
20	0x3dbc8c6f	0.09206473
21	0xbd526e7c	-0.051374897
22	0xbde40566	-0.11133842
23	0xbde15d4a	-0.110041216
24	0x3df97462	0.121804014
25	0x3d46ec41	0.048565153
26	0xbd5918b8	-0.05300209
27	0x3de89e86	0.11358361
28	0x3daee7a8	0.08540279
29	0x3d2e1e32	0.042509265
30	0xbe1569b4	-0.14591104
31	0xbe0f00d3	-0.13965158
32	0xbda56454	-0.08075777
33	0xbe239df9	-0.1597823
34	0xbe12ed92	-0.14348438
35	0xbe32cde7	-0.17461358
36	0xbe2f4744	-0.1711703
37	0x3dbb903c	0.0915837
38	0x3e0a6e83	0.1351872
39	0xbd9351e2	-0.07193352
40	0xbd91aee3	-0.07113435
41	0xbe60a245	-0.21936901
42	0xbd071b32	-0.03298492
43	0xbe25289c	-0.16128772
44	0xbd9a4ae4	-0.075338155
45	0xbdef715a	-0.11691542
46	0x3d2401bc	0.040040717
47	0xbdea4c20	-0.11440301
48	0xbdb8a53b	-0.0901589
49	0xbd3c4ef0	-0.04597372
50	0xbdb50d9e	-0.08840488
51	0x3e1f77d0	0.15573049
52	0xbb159fea	-0.0022830912
53	0xbe0a610b	-0.13513581
54	0xbce5025d	-0.027955228
55	0xbdff7720	-0.12473893
56	0xbe0ba989	-0.13638891
57	0x3dfda485	0.12384895
58	0xbcbf28c9	-0.023334878
59	0x3d9865c6	0.07441287
60	0x3dbc51df	0.09195303
61	0x3d93152c	0.071817726
62	0xbcae07eb	-0.02124401
63	0xbc84684a	-0.01616301
64	0xbd987eb5	-0.074460424
65	0x3dc510f3	0.096223734
66	0x3e0a9bb3	0.13535957
67	0x3dc2f895	0.095200695
68	0xbd921c95	-0.07134358
69	0x3d4d7622	0.05016149
70	0x3d8c8172	0.06860627
71	0xbcba3a19	-0.022732781
72	0xbd7487e1	-0.059699897
73	0x3c67af28	0.014140882
74	0x3d4b76b8	0.049673766
75	0xba5a39c4	-0.0008324648
76	0xbd7354d1	-0.05940706
77	0x3da5180a	0.08061226
78	0x3b3b7969	0.0028606302
79	0x3d8a94dd	0.06766675
80	0x3d899e43	0.06719639
81	0x3d2844c9	0.041081224
82	0xbdf4f303	-0.11960413
83	0x3cda9cce	0.026686098
84	0x3e0c8f45	0.13726528
85	0x3e30ca33	0.17264633
86	0xbcb51c87	-0.02210833
87	0xbcdd0c2f	-0.026983349
88	0x3de5f4a6	0.112283036
89	0x3e19decc	0.15026397
90	0x3dc595b5	0.09647695
91	0xbd2075d4	-0.03917487
92	0x3a2bbb45	0.00065510377
93	0x3e58fe93	0.21190862
94	0xbda0eb7e	-0.078574166
95	0xbe34e09f	-0.17663811
96	0xbda32f67	-0.07968026
97	0x3da1ae1b	0.07894536
98	0xbcab7a32	-0.02093229
99	0xbb76b72b	-0.0037645798
100	0x3d7233fe	0.059131615
101	0xbdd2a7e0	-0.10285926
102	0x3bc9493b	0.006142763
103	0xbe2d5d1e	-0.16930053
104	0xbd06a476	-0.032871686
105	0xbbdc1eb9	-0.0067175296
106	0x3e12af45	0.14324673
107	0x3c3640b6	0.011123827
108	0x3d5f09af	0.054452594
109	0x3d8f735b	0.07004424
110	0xbda3f5dd	-0.08005879
111	0xbd01a6c5	-0.031653184
112	0xbc10edc6	-0.008845752
113	0x3dd304fe	0.103036866
114	0xbdaa5a61	-0.0831802
115	0xbc4de210	-0.0125661045
116	0xbe65a588	-0.22426426
117	0xbd45a924	-0.04825701
118	0x3e25f58b	0.16206948
119	0xbd6b3b9e	-0.057429902
120	0xbd0ab527	-0.033864167
121	0xbbacb953	-0.005271116
122	0x3c363bb9	0.011122637
123	0x3d94c6b9	0.07264466
124	0xbdea7f32	-0.11450042
125	0x3d174491	0.036930624
126	0xbd298847	-0.04138973
127	0xbd4668de	-0.048439853
128	0xbdfb348f	-0.12265884
129	0xbd0a2131	-0.03372306
130	0xbdcd56f3	-0.1002635
131	0xbc642508	-0.013924845
132	0xbdb0a66c	-0.086254925
133	0xbc1aabc0	-0.009440362
134	0xbd551ac8	-0.052027494
135	0xbe18d111	-0.14923503
136	0x3dac3de5	0.08410243
137	0xbd28026b	-0.04101793
138	0xbdb1121a	-0.08646031
139	0x3d539b42	0.051661737
140	0xbddae934	-0.10689011
141	0x3ddc40bd	0.10754535
142	0xbc976e68	-0.018485263
143	0xbe1dc259	-0.15406169
144	0xbd8cddd3	-0.06878247
145	0xbdb01061	-0.08596874
146	0xbd2e97d4	-0.042625263
147	0x3d63d927	0.055627014
148	0x3d47bf01	0.04876614
149	0xbe4a6610	-0.19765496
150	0x3a80af09	0.000981779
151	0xbe26b728	-0.16280806
152	0xbd67f9cb	-0.056634706
153	0x3e2ad845	0.16684063
154	0x3def5d44	0.11687711
155	0xbe069fac	-0.13146847
156	0x3d66e72b	0.056372803
157	0xbdb1ae81	-0.08675862
158	0xbe2c022e	-0.16797706
159	0x3dae0526	0.08497076
160	0xbc81f2da	-0.015862871
161	0xbd23c4b1	-0.0399825
162	0x3e3804c9	0.17970575
163	0xbb57f5b3	-0.0032952845
164	0xbbfed3da	-0.0077767195
165	0x3d12f030	0.035873592
166	0x3e0a9de5	0.13536794
167	0xbd3ccff4	-0.046096757
168	0x3d78563a	0.060629107
169	0x3e159859	0.14608897
170	0x3d81696d	0.063189365
171	0x3d935fd1	0.0719601
172	0x3e00d655	0.12581761
173	0x3e07bb49	0.13255037
174	0x3db769cb	0.08955725
175	0x3e165566	0.14681014
176	0x3d0372fd	0.032092083
177	0x3e625b79	0.22105207
178	0x3e1a8ec3	0.15093522
179	0x3e8bd898	0.27313685
180	0x3dec8273	0.11548319
181	0xbd86694b	-0.06563052
182	0x3da1bb74	0.07897082
183	0x3dd1e778	0.10249227
184	0x3dac887c	0.0842447
185	0xbd23e9fc	-0.040018067
186	0x3d837acc	0.06419906
187	0xbcaee4c5	-0.02134932
188	0x3beb1b6a	0.007174899
189	0x3e181ab9	0.14853944
190	0x3dd661f8	0.10467905
191	0xbd7061b4	-0.058686927
192	0xbccc5d27	-0.024946762
193	0x3e09ba26	0.13449916
194	0x3cdd5427	0.027017666
195	0x3c64ce10	0.013965145
196	0xbdb9d1e6	-0.09073238
197	0xbe175ee4	-0.14782292
198	0x3e5adecf	0.21374057
199	0x3d64c20b	0.055849116
200	0xbd9f7447	-0.0778585
201	0xbd71adc6	-0.059003614
202	0xbda805ee	-0.08204256
203	0xbc0a5ca0	-0.008444935
204	0x3dec5dcf	0.1154133
205	0x3d128fb3	0.035781574
206	0xbe09e40a	-0.13465896
207	0x3e8c9932	0.2746063
208	0x3dad5d17	0.08465021
209	0xbe48990e	-0.19589636
210	0xbe1e7aea	-0.15476575
211	0xbda4dbe6	-0.08049755
212	0x3bed08dc	0.007233722
213	0x3d90baba	0.07066865
214	0xbcf62441	-0.030046584
215	0x3d5ec5d3	0.05438788
216	0x3d9d5f78	0.07684225
217	0x3dece194	0.11566463
218	0xbd9b9fb2	-0.07598819
219	0xbe373dd0	-0.17894673
220	0xbdd07e27	-0.10180312
221	0x3e1deeaf	0.15423082
222	0x3d43f18b	0.047837775
223	0x3b09dda9	0.002103666
224	0x3e188700	0.14895248
225	0xbde98607	-0.11402517
226	0xbd17d56a	-0.037068762
227	0x3a37a72e	0.0007005808
228	0x3db60015	0.088867344
229	0xbd4e7f9c	-0.050414667
230	0xbd41b2e1	-0.047289733
231	0xbdd8050d	-0.10547838
232	0x3dde733a	0.108618215
233	0x3dad2128	0.0845359
234	0xbc9f724e	-0.019463684
235	0xbe034d08	-0.12822354
236	0x3d9fec15	0.07808701
237	0xbc3de46e	-0.011590106
238	0xbd32e6ea	-0.043677248
239	0x3d15b250	0.036547005
240	0x3e114cee	0.14189503
241	0xbddce42b	-0.10785707
242	0x3b9d9d02	0.0048099766
243	0xbd85e2cb	-0.06537398
244	0x3d907638	0.070537984
245	0xbdc5926a	-0.09647067
246	0x3de4d2d1	0.111730225
247	0xbd2b84b2	-0.041874595
248	0x3ded576b	0.11588939
249	0xbd9bf7e7	-0.07615643
250	0x3cc13b46	0.023587834
251	0x3d9a5ef0	0.07537639
252	0xbd87a22e	-0.0662273
253	0xbcb15989	-0.021649139
254	0x3dd71f7b	0.10504051
255	0xbc51a914	-0.012796659

conv1_3_1.bias f4 [5]
0	0x3dd931f5	0.10605232
1	0xbdb0994e	-0.086229905
2	0xbd0641f3	-0.032777738
3	0xbd47276a	-0.048621573
4	0x3db175df	0.0866506

conv1_3_2.weight f4 [5, 20, 5]
0	0x3d4fd052	0.05073578
1	0x3e6e2896	0.2325767
2	0x3e193b66	0.14964065
3	0xbda22127	-0.079164796
4	0x3b9953d2	0.0046791816
5	0xbd9c165e	-0.07621454
6	0x3c9916f9	0.018687712
7	0x3e1aa984	0.15103728
8	0x3db8ed03	0.090295814
9	0x3d840c50	0.06447661
10	0x3dc875c0	0.09788084
11	0xbe005c0f	-0.12535118
12	0x3d2dcc62	0.042431243
13	0xbdcc1c37	-0.09966319
14	0xbd582489	-0.052769218
15	0x3d9b3153	0.07577767
16	0x3dfcc85e	0.123429045
17	0xbd956d9f	-0.07296299
18	0x3dbd6203	0.0924721
19	0xbde5474f	-0.11195242
20	0xbdd10c81	-0.10207463
21	0x3d46cfcf	0.048538025
22	0x3ddae247	0.1068769
23	0x3d5d7dcb	0.054075044
24	0xbc44d433	-0.012013483
25	0xbcca9055	-0.024727026
26	0x3de2b6ee	0.11070047
27	0x3db43756	0.08799617
28	0x3d92a565	0.07160453
29	0xbd12538d	-0.03572421
30	0x3dc835ff	0.09775924
31	0x3d9c9d8f	0.076472394
32	0x3dd61d41	0.104547985
33	0xbda9283d	-0.08259628
34	0x3dfcc090	0.12341416
35	0xbdc52c9f	-0.096276514
36	0x3d840cfa	0.064477876
37	0x3bcdd1f5	0.0062811323
38	0xbbeddcf9	-0.007259008
39	0x3db85d4b	0.09002169
40	0x3e10370c	0.14083499
41	0x3e4b81ae	0.19873688
42	0xbd53e4cd	-0.051731873
43	0xbdd27286	-0.1027575
44	0xbcf4a2cc	-0.029862784
45	0x3e8b6dc7	0.2723219
46	0x3e45f004	0.1932984
47	0x3d319f6b	0.043364923
48	0xbdf7d39a	-0.12100907
49	0xbe1dcfbd	-0.15411277
50	0xbdb49ff3	-0.088195704
51	0xbd465d7c	-0.048428997
52	0x3b0b7351	0.002127845
53	0x3e8ce872	0.27521092
54	0x3e8aee93	0.27135143
55	0xbe857ecb	-0.26073298
56	0xbdc62a8f	-0.09676086
57	0xbdf6e666	-0.12055664
58	0xbda65cae	-0.08123146
59	0x3e7b842c	0.24562138
60	0xbdc9df9c	-0.09857103
61	0xbc7d33e1	-0.015454263
62	0xbe1268e8	-0.14297831
63	0xbc8c447a	-0.017122496
64	0x3d03413d	0.032044638
65	0xbe5f10aa	-0.217837
66	0xbea0f474	-0.31436503
67	0xbe822208	-0.2541659
68	0xbe028059	-0.12744273
69	0x3e1dc125	0.1540571
70	0xbd621fb6	-0.055206023
71	0x3e3aad2b	0.18230121
72	0xbb41fd40	-0.0029600412
73	0x3e2c14fa	0.16804877
74	0x3e35d12d	0.17755575
75	0xbd67f8eb	-0.05663387
76	0x3db2476b	0.08705028
77	0x3d9dbfed	0.077026226
78	0xbdcc8145	-0.09985594
79	0xbd057fde	-0.032592647
80	0xbda3b37e	-0.0799322
81	0x3da3b2fd	0.07993124
82	0xbdaa562d	-0.08317218
83	0xbc8866cc	-0.01665058
84	0x3c64a80e	0.013956083
85	0x3de39231	0.11111868
86	0xbdb6fc21	-0.089348085
87	0xbdf674a0	-0.12033963
88	0xbe513c77	-0.20433222
89	0xbdfde669	-0.12397463
90	0xbe1046e2	-0.1408954
91	0xbe1b84c2	-0.15187362
92	0xbd9e50f8	-0.07730287
93	0xbc5c9e4c	-0.013465475
94	0x3cbd61a4	0.023117848
95	0xbd8410f3	-0.06448545
96	0x3cb82176	0.022476893
97	0xbde15567	-0.11002617
98	0xbe5ea509	-0.21742643
99	0xbe5d4887	-0.21609698
100	0x3cd3644a	0.025804657
101	0xbd0de29d	-0.034639943
102	0xbd86abaf	-0.06575715
103	0xbde1e497	-0.11029928
104	0x3da1afb9	0.078948446
105	0xbdaae450	-0.083443284
106	0xbdbb1de5	-0.09136561
107	0x3d262b34	0.040568545
108	0x3d52ec57	0.051494922
109	0xbdb56e38	-0.08858913
110	0xbd5e8b51	-0.05433208
111	0xbde4c731	-0.11170805
112	0x3d9c37c7	0.07627826
113	0xbb45e763	-0.0030197732
114	0xbd048341	-0.032351736
115	0xbd989fd5	-0.074523605
116	0x3d7557d7	0.059898224
117	0x3d9fa856	0.077957794
118	0x3d579d55	0.052640278
119	0xbdc6ae1e	-0.09701179
120	0xbdcba5fe	-0.0994377
121	0x3da016f1	0.07816876
122	0x3d076e8d	0.033064414
123	0x3d6eacff	0.05827045
124	0x3b5cf71f	0.0033716632
125	0xbded2c9a	-0.11580773
126	0x3ce0f0a5	0.027458498
127	0x3d76f3ec	0.060291216
128	0x3d1a42fb	0.037661534
129	0xbd172e1c	-0.036909208
130	0xbb08ca55	-0.0020872552
131	0xbdd9afc8	-0.10629231
132	0xbd7646af	-0.060126003
133	0x3dbb1769	0.091353245
134	0x3c2d3bb2	0.0105733145
135	0xbdba8a8e	-0.091084585
136	0x3da546e1	0.0807016
137	0x3da0d51c	0.078531474
138	0xbda0f61e	-0.07859443
139	0x3c9846db	0.018588474
140	0xbd155741	-0.036460165
141	0xbd75e66c	-0.0600342
142	0x3dba74ff	0.091043465
143	0x3ddc541d	0.10758231
144	0x3d011d84	0.03152229
145	0x3d41b8a9	0.047295246
146	0xbcc35fab	-0.023849329
147	0xbdd0e985	-0.1020079
148	0x3d3b1965	0.045678515
149	0x3e0ba594	0.13637382
150	0xbde7518b	-0.1129485
151	0x3b99c810	0.0046930388
152	0xbe00a9c3	-0.12564759
153	0xbdbf8d5d	-0.09353135
154	0xbd4030b1	-0.046921436
155	0xbd2902c9	-0.04126242
156	0x3d36ceb4	0.04463072
157	0xbd4ef1a1	-0.050523404
158	0xbda96997	-0.08272093
159	0xbdc88f18	-0.09792918
160	0xbd98ae9a	-0.074551776
161	0x3c7892c2	0.015171709
162	0xbe158ff4	-0.14605695
163	0xbd464f6b	-0.048415583
164	0xbd128738	-0.035773486
165	0xbdd63052	-0.10458435
166	0xbe3db580	-0.18526268
167	0xbd9da35c	-0.07697174
168	0xbe473a53	-0.19455843
169	0xbe7d8d70	-0.24760985
170	0xbde262ca	-0.11053999
171	0xbd5ab103	-0.053391468
172	0x3d45e327	0.048312332
173	0xbdafd717	-0.08585947
174	0x3d7a1035	0.061050612
175	0xbdd98bd6	-0.10622375
176	0xbd51e6d6	-0.051245533
177	0xba48b29e	-0.00076560106
178	0x3c110d8e	0.008853329
179	0xbe3a7141	-0.18207265
180	0xbc68ab21	-0.014200957
181	0x3dd55dac	0.10418257
182	0x3d8f1f12	0.06988348
183	0x3df4dbbb	0.11955973
184	0xbdbc6352	-0.09198631
185	0x3cdcae2c	0.02693852
186	0x3cd082ca	0.02545299
187	0x3d4e2f8e	0.05033832
188	0x3dad7084	0.08468726
189	0x3dc10b64	0.09426001
190	0x3ce62b8e	0.02809694
191	0x3d525f1f	0.051360246
192	0xbd03817d	-0.03210591
193	0x3cfd5b86	0.03092743
194	0x3cdb1e6a	0.026747901
195	0xbdf17092	-0.11789049
196	0xbc821cf4	-0.015882947
197	0xbc56f98c	-0.01312102
198	0x3cc78ea8	0.024360016
199	0xbdd05574	-0.10172549
200	0xbd84b94d	-0.06480656
201	0x3d41ca69	0.047312174
202	0x3daf519c	0.08560488
203	0xbd414a51	-0.047190014
204	0xbd354609	-0.044256244
205	0x3d6baf51	0.05754024
206	0x3b8c7371	0.0042862226
207	0xbd376752	-0.04477627
208	0xbd1f90ba	-0.03895638
209	0xbd6776f6	-0.056509934
210	0xbc9578f0	-0.018246144
211	0x3dc60c96	0.09670369
212	0x3dcb8adc	0.09938595
213	0x3d9377eb	0.07200607
214	0xbd9242e1	-0.071416624
215	0x3c20ee69	0.009822466
216	0x3d4b5b68	0.04964772
217	0xbb2175a1	-0.0024636763
218	0xbdb0c942	-0.08632137
219	0x3dca5448	0.098793566
220	0x3d59e33f	0.053195234
221	0x3d0db83f	0.03459954
222	0x3d30a5b2	0.04312677
223	0x3cc74272	0.024323676
224	0x3d034e2e	0.03205698
225	0x3d66b872	0.056328245
226	0x3d87e6ae	0.066357955
227	0x3d88eb00	0.06685448
228	0x3dc15fff	0.09442138
229	0x3dd57807	0.10423284
230	0x3dc38529	0.09546883
231	0x3d81bdfc	0.06335065
232	0x3b0fa0bd	0.0021915876
233	0x3c4735bb	0.012158806
234	0x3da85c07	0.08220678
235	0x3d3924a0	0.045200944
236	0xbd469fbe	-0.048492186
237	0x3dad9550	0.08475745
238	0xbcf81c53	-0.030286944
239	0x3d440af1	0.047861997
240	0xbd5a5627	-0.053304818
241	0x3dae73fb	0.08518215
242	0x3d6c1ed3	0.057646584
243	0xbd4a3fbe	-0.049377196
244	0x3d72a6b4	0.05924101
245	0x3ccc1107	0.024910463
246	0xbca3b172	-0.019982073
247	0xbdb81f6b	-0.089903675
248	0xbd882e9c	-0.06649515
249	0xbc27631d	-0.010216502
250	0x3d99afe3	0.07504251
251	0xba5d0518	-0.000843124
252	0x3db0dac9	0.0863548
253	0x3e477ba2	0.19480756
254	0x3c4955a9	0.012288489
255	0xbc80efe7	-0.015739394

conv1_3_2.bias f4 [5]
0	0x3d036b9f	0.032085057
1	0x3da543de	0.08069585
2	0x3dc98763	0.09840276
3	0xbcb2d14b	-0.021828314
4	0x3d95cd9f	0.0731461
