EEGDenoisenetTraining/checkpoints/deepseparator/checkpoint_epoch_30.pth (torch, 503337 bytes, 301 tensors)

conv1_1_1.weight f4 [5, 1, 3]
00000000: a5b6 0a3f ec0c 7f3d c380 003f 7c94 cabe
00000010: 694b f73e 1991 abbd 0a5c 5bbc 98f4 db3e
00000020: dadb e1be 2733 963e efbc 5e3e b387 02bf
00000030: da76 16bf 9b1d 393e abba a3bd
0.54184943 0.062268183 0.50196475 -0.3956641 0.4829972 -0.083772846 -0.013388643 0.42960048
-0.44113046 0.293359 0.2175176 -0.5098831 -0.58775103 0.180777 -0.079945885

conv1_1_1.bias f4 [5]
00000000: 7b98 4abe de65 093e 19b0 1cbf c241 763e
00000010: 3ebf ad3e
-0.19784729 0.13417765 -0.61206204 0.24048522 0.3393497

conv1_1_2.weight f4 [5, 1, 5]
00000000: cc91 b43e 9a5e 19bd 95ac 6aba d5ac 09bf
00000010: 9f81 71be 1a33 f43e 1232 e4be 2616 11be
00000020: 97cb de3e 7c40 9d3e 8b3e abbe 70a4 3ebe
00000030: cfe4 dabe 82d4 1ebe 4af7 033d 020c 35be
00000040: 9ee0 b1be 55fa d23d b085 c1be d220 78be
00000050: 3ff9 f5bd 8a3b a1be 4e48 003e a429 53be
00000060: e763 083f
0.35267484 -0.037443735 -0.00089521083 -0.53779346 -0.23584603 0.47695237 -0.4456945 -0.14168605
0.43514702 0.3071326 -0.33446154 -0.18617415 -0.42752692 -0.15510753 0.032218255 -0.17680362
-0.34741682 0.10301653 -0.37797308 -0.2423127 -0.120104305 -0.31490737 0.12527582 -0.20621353
0.5327744

conv1_1_2.bias f4 [5]
00000000: 7105 133c 3a12 fc3c 045c 67be bac3 2c3e
00000010: 6952 c33e
0.008973465 0.03077041 -0.22593695 0.16871539 0.3814881

conv1_1_3.weight f4 [5, 1, 11]
00000000: 133c 973d bfa7 eebb b3c3 aebd 4c1c 893e
00000010: a012 a13e be26 8c3d 3357 2ebe bfb7 943e
00000020: 844c cebd 3c51 7b3e 0801 983e 388b 3ebe
00000030: e8b2 293d dca8 893e 3518 823e 7df4 543d
00000040: 84bc 423e 153c 0cbd becc ccbd bff7 563e
00000050: 33c0 643d 557e 24be b25f ddbd 4c09 743e
00000060: e91b 8a3d d9f2 be3d 1176 743e 7b6c 2c3e
00000070: 1b90 a03d 4cc3 e7bc 84e7 9f3e 3f40 a9be
00000080: 2f34 0fbe 2212 ea3d aea0 983e 1cd2 a13e
00000090: f82d 39be 2765 e43d 6b38 883e 5221 1d3e
000000a0: bf96 2c3e acc2 82be c713 c63e 1faa 6d3e
000000b0: a02c 0fbc 70d0 e63d 3cd8 32be f16a 713e
000000c0: 697d a23e 7530 df3d 67b7 693e 42de 833e
000000d0: 1673 a03e af32 ab3e 1175 56bb
0.07384505 -0.0072831805 -0.085334204 0.267794 0.31459522 0.06843327 -0.17025451 0.29046437
-0.10073188 0.24542707 0.29688287 -0.18607795 0.041430384 0.26886642 0.25409093 0.051990975
0.19017226 -0.034236986 -0.09999989 0.20992945 0.055847358 -0.16063817 -0.10809268 0.23831671
0.06743605 0.09323663 0.23873164 0.16838257 0.07839986 -0.028291367 0.3123132 -0.33056828
-0.1398475 0.1142924 0.2981009 0.31605613 -0.18083942 0.11152106 0.26605543 0.15344742
0.1685438 -0.25539148 0.38686964 0.23209427 -0.008738667 0.11270225 -0.174653 0.23575951
0.31736305 0.10897914 0.22823869 0.25755507 0.31337804 0.33437106 -0.0032723586

conv1_1_3.bias f4 [5]
00000000: db8f 183e 05ad 803d e1e0 553e d935 69bd
00000010: 9d66 7cbd
0.14898627 0.06283001 0.20886566 -0.05693612 -0.061621297

conv1_1_4.weight f4 [5, 1, 15]
00000000: f502 80be b392 92bd d3b9 16be 9ca2 a4be
00000010: 06a1 d63d 527b 75be 1dd7 f13c 6ab6 4ebe
00000020: 32f3 5a3e f0b3 4fbb a006 963b 13f8 9e3d
00000030: f863 3e3e c00d e6bd 4f0d 73be 82a4 e6bd
00000040: c36a 393e 3c36 273c f478 1fbe 0bb0 10bd
00000050: 0c74 28bd 157c 303e e88c 1c3e 0d5e 1ebd
00000060: 91c3 b8bd af40 823e 475b 7b3e f03e c4bc
00000070: 0725 833e 3d12 2b3e c302 99bd 0b8d 7dbd
00000080: f7c6 223e 1305 76be 4c2b dfbd 850e 813c
00000090: 90aa 2e3e 84e2 163e a0ee b43d ea84 153d
000000a0: a94d 8a3d 06e1 e93b da72 83be 9ac9 c9bd
000000b0: 80c3 34be e476 493e dc5a 65be b4f3 cc3d
000000c0: 6d13 00be 8b92 733d 7efe 46bd ef97 493e
000000d0: ebfe e03d 114a e4be 830a 52be fbf7 593e
000000e0: 8390 f73d 6d19 2e3c 6cfb 6abe 11c5 1e3e
000000f0: c195 383e aa15 82be eed9 6e3e be4d d3bd
00000100: 6d3b d7bd 858b 423e 8bb0 62be 30b3 77be
00000110: 0f62 71be b772 4f3e 08a6 db3d e233 723e
00000120: da6a 13bd 6d45 8e3d e535 b83d
-0.25002256 -0.07156887 -0.14719324 -0.3215531 0.104799315 -0.23972824 0.02952152 -0.20186773
0.21381834 -0.0031692944 0.0045784265 0.0776216 0.18592823 -0.11233091 -0.23735546 -0.11261846
0.18107133 0.010205802 -0.15573484 -0.035324138 -0.041126296 0.17234834 0.15288126 -0.038663913
-0.09021676 0.25439975 0.24546538 -0.023955792 0.25614187 0.16706176 -0.0747123 -0.061902087
0.15896212 -0.24025373 -0.1089693 0.015753994 0.17057252 0.14734846 0.088345766 0.03650371
0.06753094 0.0071374206 -0.25673562 -0.098529056 -0.17652702 0.1967426 -0.22397941 0.1000742
-0.1250741 0.059465926 -0.048582546 0.19686864 0.10986122 -0.44587758 -0.20511822 0.21286003
0.1208811 0.010626179 -0.22947472 0.15504862 0.18025877 -0.25407153 0.23325321 -0.103175625
-0.105093814 0.18998535 -0.22137658 -0.24189448 -0.23572563 0.20258604 0.10725027 0.23652604
-0.035990573 0.06946836 0.089946546

conv1_1_4.bias f4 [5]
00000000: 2ad5 4dbe 931e 8bbe 2fc3 6f3e bbfb 803e
00000010: b851 303e
-0.20100847 -0.27171764 0.234143 0.25192055 0.17218673

conv1_2_1.weight f4 [5, 20, 3]
00000000: 1ac1 3abe 284f dbbd 1000 28be 5b9a fbbd
00000010: b037 52bd 40de 753c 0959 81be a505 2dbe
00000020: eea5 f7bd 82e6 6fbd 047b 1fbd dc85 9cbc
00000030: f933 12ba f076 b33d 5c6c d0bd 1765 6c3c
00000040: bc81 29bd 3043 10be cd2b 2dbd 366c 8ebc
00000050: 55ef a1bd a8b8 dbbd 3d00 d2bb a291 4fbb
00000060: c3f8 313d ccbc a7bd 05de 083d 27e8 00be
00000070: c160 4abe cd5b c0bd 5b26 15be 718a 953d
00000080: 3b9b 02bc 6d75 be3d aea1 9f3c 927d 3cbe
00000090: 2c4c 3cbc 717a 7ebd da45 bdbd 3047 b9bd
000000a0: 0b76 37bd e394 c83d e407 783d 69c6 07be
000000b0: e81f 863c d9fb 473d b513 a93d 697d 19be
000000c0: e0f9 febd 707d 823d 546d c0bd 8c25 bdbc
000000d0: 7ce0 3dbe ae23 503d 689b d43c 6d62 883d
000000e0: 09f6 5d3c 4e70 193e c7c3 523c 5919 163e
000000f0: 7f89 9abd ff7d 013e 0fbb 43ba 5a3a e43d
00000100: 24c9 b53d d253 a83d d929 c4bd 81ee f3bc
00000110: 38e0 2fbb ebf5 973c c408 133e a9ae e23d
00000120: 77be 21be 9ccd dc3c eece 08be 3477 d7bd
00000130: 64b5 f8bd fb39 253c 6f83 ac3d 0278 8c3d
00000140: 6f80 b4bc 6feb 7ebd d0f2 33be b32b 03be
00000150: 788a 30be c88f 2fbd bfbb d83d e66b 4d3a
00000160: 08ec 30be 0067 69be 895e 7fbb 0064 8f3c
00000170: 48cc dabc ecb0 27bc dcdd 813d 55e1 a73d
00000180: a305 0a3d 644b 983c 18e2 a0bd aad0 25bd
00000190: 2f8f f63d 0475 7ebd d1aa e83c fab9 053d
000001a0: 5ad0 993c 1479 2a3d dfc8 acbd 8067 13bd
000001b0: 7e0d 6d3d 8e4c 1e3d d4b9 dcba 56cb 1e3d
000001c0: 17d1 703c 04a6 07be 7bd8 e43b a441 5abd
000001d0: e6d2 30bd 0005 a83d 7a74 49bc 7b0e f53d
000001e0: 0603 98bc bdb9 1bbd 737f 50bc 1e0e 07be
000001f0: a2a0 27be 0678 febd 82dd 34be 6284 0cbd
00000200: 1722 b8be e78c f0bd 25b0 8c3d eddd 383e
00000210: efe0 c8bc 241a 34be 5635 7a3d 6dc8 2cbc
00000220: 725e 24be a525 1ebd 2d3e 9bbd b99f 28be
00000230: c323 e5bd a302 1fbe fbe3 c5bd f7f0 143c
00000240: 6379 ddbd 7ed4 07be 57e7 3e3c 6f50 7e3d
00000250: e2c2 1cbe 3dfe 0ebe b32c d0bd 79b3 72bc
00000260: 915e 2c3d a500 53bc e8b1 e63c 8c6b 773d
00000270: 11e0 d53d 4604 bf3d 34a2 15bc f38c d43d
00000280: 7305 e4bd 7715 0abe c6ab 6e3d e299 c13d
00000290: 00af b1bd e80f 66bd 1ddb 6bbd ab75 82bd
000002a0: 5497 2fbd 4c47 503b 2178 22bc b52d 853b
000002b0: 7385 7abd 5c55 f4bc 4c3c 763d af58 19be
000002c0: 7b77 8cbd 5803 87bd cb1e 18be b17f b93d
000002d0: b91b 063e 41f3 c0bd 4527 aebd 00b2 c23d
000002e0: 81bf 123e cf3d bcbc 2ed9 9c3b cd58 06be
000002f0: 7396 afbd 4a66 34be 14f6 463d 85d7 adbc
00000300: 6e59 87bd b1b1 0abe aca8 10be 3810 6bbe
00000310: 2452 90bd 7c2f 4dbe d683 15be 389e 283e
00000320: 051f 973d a17b bbbd 3c6e fa3c f52f ba3b
00000330: 9881 42bc d601 0bbe 76c2 8cbd 082e 123e
00000340: 6b85 b93d 3e2b 333d 9ccb 493d 7b72 86bd
00000350: e500 eebd c8fb 1bbd ad14 2dbd 51f0 a5bd
00000360: 5bad 78bd 9bb5 31bd 5d50 ef3c fb59 e63d
00000370: d0a4 a03d ae4b ec3d 3f3c 353e a57f 2f3d
00000380: f3e4 ae3d e2c6 80bd b076 c7bd 0ee0 f2bd
00000390: 6e7a 173e fb55 f63d 51bc 7e3e 6e6a 8c3d
000003a0: dad2 9bbd 2b8b d3bd 46ae 9abd 913d e1bd
000003b0: cae7 c13d 8d00 813d 5cfc 6b3d b869 aabd
000003c0: 53d4 41bd ef72 863c a9f3 2a3e ba3f 723c
000003d0: 506f b1bd da4b b9bd f1c8 7fbd 47e3 753b
000003e0: e2ee f0bb 213a 1839 8408 a63d 0dc5 9b3d
000003f0: 24ba 39be 0c4f 23be 34c0 4dbd 9610 743d
-0.18237725 -0.10708457 -0.16406274 -0.122853 -0.05132264 0.015006602 -0.2526324 -0.16896684
-0.120921955 -0.05856944 -0.038935676 -0.019106798 -0.00055772025 0.0876292 -0.10176918 0.014428399
-0.04138349 -0.1408813 -0.0422781 -0.017385583 -0.07906977 -0.1072858 -0.00640872 -0.0031672497
0.04345013 -0.08190307 0.03341486 -0.12588559 -0.19763471 -0.093925096 -0.14565413 0.07301796
-0.00797158 0.09299741 0.019486275 -0.18407276 -0.01149277 -0.062128488 -0.09241839 -0.09046781
-0.04479031 0.09794023 0.0605544 -0.13259281 0.016372636 0.048824165 0.08255712 -0.14989246
-0.124500036 0.063715816 -0.09395853 -0.023089193 -0.18542665 0.050815277 0.02595301 0.06659398
0.013547429 0.14984247 0.01286406 0.14658107 -0.075457565 0.1264572 -0.00074665336 0.11143942
0.08876255 0.082191125 -0.09578294 -0.029776813 -0.0026836526 0.01854988 0.14358813 0.1106847
-0.15795313 0.026953511 -0.13360187 -0.10520783 -0.121439725 0.010084624 0.084235065 0.06858827
-0.022033898 -0.062236246 -0.17573094 -0.12809639 -0.17240322 -0.04286173 0.10582685 0.00078362075
-0.17277539 -0.22793198 -0.003896626 0.017503738 -0.026708737 -0.010235053 0.063411444 0.081972755
0.03369678 0.018590637 -0.07855624 -0.0404822 0.12039029 -0.062123314 0.028401764 0.032648064
0.018776108 0.041619375 -0.084367506 -0.035987377 0.057874195 0.038647227 -0.0016840049 0.038768135
0.014698288 -0.13246924 0.0069838143 -0.053285256 -0.04316988 0.08204079 -0.012295837 0.119656526
-0.01855613 -0.03801893 -0.012725699 -0.13188979 -0.1636987 -0.124252364 -0.17662624 -0.034305938
-0.35963508 -0.11745625 0.068695344 0.18053408 -0.02452132 -0.17588097 0.06108602 -0.010545832
-0.16051653 -0.03861012 -0.075802185 -0.1646718 -0.11188462 -0.1552835 -0.096626244 0.009090654
-0.10814168 -0.13264653 0.011651835 0.062088426 -0.15308717 -0.13964172 -0.10164776 -0.014813297
0.042082373 -0.012878572 0.028161004 0.0604053 0.10443128 0.09326987 -0.0091329105 0.103784464
-0.11133852 -0.1348475 0.058269285 0.09453179 -0.08675957 -0.056167513 -0.05758201 -0.063701
-0.042868927 0.0031780777 -0.009916336 0.0040642866 -0.061162423 -0.029825859 0.060116097 -0.14975236
-0.068587266 -0.06592435 -0.14855497 0.09057558 0.13096513 -0.09421397 -0.08503584 0.09506607
0.14330865 -0.022978691 0.004786632 -0.13119812 -0.08573618 -0.17617145 0.048574522 -0.021220932
-0.06608854 -0.13544346 -0.14126843 -0.22955406 -0.07046917 -0.20037645 -0.14601073 0.16466606
0.073789634 -0.0915444 0.030570142 0.0056819865 -0.011871718 -0.13574919 -0.06873028 0.14275372
0.090586506 0.04374241 0.049266443 -0.06564804 -0.11621264 -0.038081914 -0.042256046 -0.08102477
-0.0607122 -0.043386083 0.029213125 0.11247631 0.078439355 0.11537872 0.17698763 0.04284634
0.08539762 -0.06287934 -0.09739435 -0.11859141 0.14792797 0.12028118 0.24876525 0.06856237
-0.07608576 -0.103292786 -0.07552771 -0.10998071 0.094680384 0.06298933 0.057613716 -0.083209455
-0.04732163 0.016412226 0.16694511 0.014785701 -0.08663809 -0.09047671 -0.062447492 0.00375195
-0.007352696 0.00014517504 0.08107093 0.07605944 -0.18137413 -0.15948123 -0.050232127 0.05958613

conv1_2_1.bias f4 [5]
00000000: 2d51 d5bd 3694 943d 68ba ab3d abaa dd3c
00000010: e10f 353d
-0.10415874 0.072548315 0.083851635 0.02705892 0.044204596

conv1_2_2.weight f4 [5, 20, 5]
00000000: 0c34 a3bd 1091 d53b 6cac 0abd 63ff 33bd
00000010: fb5f 9e3d 32b0 1cbd 7864 a9bd ec3f 213a
00000020: 7dfa aa3d 2374 f9bc fcd6 ea3b c4bd 9dbd
00000030: e01d 3d3d 5e14 ea3d 6327 f53d 31ec 143c
00000040: def7 07be d1e5 a2bd 692f de3d b3eb 4b3d
00000050: e307 b43d bcd8 2fbd de8b b2bc 3d85 b9bc
00000060: 0ee3 acbd 49ab ab3c b64c ecbc 45a2 eebd
00000070: d909 c23d 785d cd3d 1e70 163d baa8 0dbd
00000080: fd4f 4dbd ec31 fcbd 3f21 4fbd 5db5 ab3d
00000090: ef20 113c 8eaa 31bd 2327 9c3c c57a 183d
000000a0: 45f5 11bc 0907 48bd dc06 4d3d e720 afbd
000000b0: b71c 653d 42bf 013d 5176 2b3c 0e35 5d3c
000000c0: 27ad a6bd a5c9 15bc b3ad 433c 5db0 3fbd
000000d0: a15c 04be 3198 93bd 2878 1ebd 921b 83bd
000000e0: 1278 5c3d c344 ad3d c5f1 93bd 834c 453d
000000f0: 28f3 7e3d 63f5 4d3d 073f 0c3c 785c 9fbd
00000100: 1278 873d f92f 063d 20b6 b9bd c2f4 e4bd
00000110: 7b32 773d b4b4 9ebd 0305 aabc d556 02bd
00000120: 148b b03d 6e20 77bd b71a 9b3a a9f4 b9bd
00000130: 0e58 913d 6726 b33d 22f2 26bd be07 afbd
00000140: 8973 79bb 7721 f9bc 56f9 a0bc 23cf 7fbd
00000150: cfc6 08bc 3ea5 a2bd 9f6d babc a2ee 853d
00000160: d641 343c aa6d e9bb 92ad bfbd 18fd d23c
00000170: 8640 f0bd d44d ed3c eb4e b13d 0be2 53bd
00000180: c7fa a0bd 5292 163b 1edb bcbd f369 2fbd
00000190: d8d1 563d 8b77 7ebd 7af3 b23d b286 b2bd
000001a0: 9d24 d8bc 0744 fbba 85e2 afbb 7475 093e
000001b0: 7bf9 cdbd c4f6 5b3d e79f 443d 5f51 b7bd
000001c0: 0ea4 65bd 31b1 35be 6d52 a2bd c501 82bd
000001d0: c2e0 c8bc 3880 033d 9772 f83d 12e5 49bd
000001e0: d80d 87bd 3ba2 883d 1e33 acbc 283d 78bd
000001f0: c66f 8cbd 789d 4bbd b214 a13c 12f6 ca3c
00000200: b9b0 6c3a 5cc7 b3bd eda7 1dbc fed8 5c3d
00000210: 5f85 0a3d e0ed b53d 6370 de3c dc2e f5bd
00000220: fd68 323d c33d 343c 8a3b 9fba 4a3f 00be
00000230: c56f ccbd 49bc 0dbe 17a7 8fbd 0fe7 00be
00000240: 19a4 1cbc 4e23 88bd 36ac 6a3d 15a0 863c
00000250: 06dc 99bd 7363 7b3d 8be7 7fbd 9d94 283d
00000260: b1d0 40bb ea28 52bd a702 103d 8944 953d
00000270: 6f4b 9f3d 1df3 3dbc ed09 21bc ae93 c83d
00000280: 51f0 cb3c d83e 5d3d 408c d53c 9013 b63c
00000290: 759c 953d 3456 9a3d ddde a1bd 9100 713d
000002a0: 04f5 0e3e a99a d73d fa15 d03d 9e29 3a3c
000002b0: 2879 0b3e 5873 49bc a720 46bd d9a6 813d
000002c0: 7590 8fbd d97b 4c3d e4ba 073d 0e00 763c
000002d0: cd47 233e 1ab8 1a3e 479c a2bc cbcb 02bd
000002e0: ea56 053e 359d 663c 87a2 c6bd 6c42 a53d
000002f0: 20bf 79bd 0333 7a3d 4c19 ad3d f3f3 6ebd
00000300: f1d7 d03d ef39 c43c 0eb1 913d 5c78 58bd
00000310: 345f e43d f262 84bc d107 0c3e fcc5 86bc
00000320: a799 653c e515 fbbd c708 cfbd fbc4 843d
00000330: b4e8 f5bc 1f4a efbd fb2e bfbd 8ef5 b8bc
00000340: db3a ccbd 8f34 223e 2f6d 54bd 5c4b 9b3d
00000350: 33ea c53d 895e c83d e472 c13d f568 38bc
00000360: 9c75 343d 06b5 80bc e4e8 cdbc 7781 e83c
00000370: 562f 473d 9210 6ebd 430f a33d 4cb1 693d
00000380: 8c55 d03d 6afe 6fbd 4f25 b13d 8e7f a2bd
00000390: 641b 0cbc 0d86 37be 8310 1fbd f7bf 323d
000003a0: 9399 c73c f2be 6c3d d372 913d 9bf2 2bbc
000003b0: 185d bd3c 3a51 a13d 8759 a7bd cdf8 053d
000003c0: 7111 923d 5417 afbb 5bab 0ebd 21d8 1d3c
000003d0: febe 99bd da09 65bc 9a13 c0bc cf66 ad3d
000003e0: e967 ed3d 49df 423e 9c9d 823c 2d1b 29bd
000003f0: 0a36 9abd f0ca 1cbc 10e7 2cbd 8c24 3a3d
-0.079689115 0.006517537 -0.03385584 -0.043944728 0.077331506 -0.03825397 -0.08271116 0.00061511877
0.08348558 -0.030450886 0.0071667414 -0.077022105 0.04617107 0.11429666 0.11970403 0.009089516
-0.13278148 -0.0795399 0.108488865 0.049785327 0.08790567 -0.042931303 -0.02179521 -0.02264654
-0.08441745 0.020955699 -0.028845172 -0.11652044 0.094745345 0.100275934 0.036728017 -0.03458474
-0.05012511 -0.12314209 -0.050568815 0.08384202 0.00885795 -0.043375544 0.01906163 0.037226457
-0.0089085745 -0.048834834 0.05005537 -0.085511975 0.055935588 0.03167654 0.010465221 0.013501419
-0.08138495 -0.009142314 0.011943269 -0.046799053 -0.1292596 -0.072067626 -0.03868881 -0.06401743
0.053825445 0.08460381 -0.07223848 0.04816867 0.06224361 0.050282847 0.008559949 -0.07781309
0.066146985 0.032760594 -0.09067941 -0.11179496 0.060350876 -0.0774931 -0.020754343 -0.03182109
0.08620277 -0.06033366 0.0011833523 -0.09079868 0.07096873 0.08747559 -0.04075826 -0.085463986
-0.003806325 -0.030411465 -0.019650143 -0.0624534 -0.008348181 -0.07941674 -0.02275735 0.06539656
0.011002025 -0.0071236687 -0.09359278 0.02575545 -0.11731057 0.028967775 0.086576305 -0.051729243
-0.07860332 0.0022975397 -0.09221481 -0.04282565 0.052446216 -0.062125724 0.08737846 -0.08717097
-0.026384646 -0.0019170054 -0.0053675794 0.13423711 -0.1005735 0.05370213 0.048004057 -0.08951067
-0.056064658 -0.17743374 -0.07925878 -0.06347994 -0.024521235 0.0321047 0.12131231 -0.049290724
-0.06594437 0.06671568 -0.021020468 -0.0606052 -0.068572566 -0.04971072 0.019663189 0.024775539
0.0009029019 -0.08778259 -0.009622556 0.053917877 0.0338186 0.08883262 0.0271532 -0.11971828
0.043557156 0.011001053 -0.0012148481 -0.12524143 -0.09982256 -0.13841356 -0.07014292 -0.12588142
-0.009560608 -0.06647359 0.05729314 0.016433755 -0.07512669 0.06137414 -0.062476676 0.041157354
-0.0029421265 -0.05130855 0.03515878 0.07288463 0.0777806 -0.011593607 -0.009829027 0.09793793
0.024894865 0.05401501 0.026067853 0.022226125 0.073052324 0.07535973 -0.07903836 0.05883843
0.13960654 0.10527546 0.10160442 0.011362461 0.13620436 -0.0122955665 -0.048370983 0.06330652
-0.07009975 0.049922798 0.033137217 0.0150146615 0.15945359 0.15109292 -0.01984991 -0.031932633
0.13021436 0.014075567 -0.096989684 0.080693096 -0.060973287 0.061083805 0.084520906 -0.058338117
0.101974376 0.023953406 0.071138486 -0.05284916 0.11150971 -0.016160462 0.13674857 -0.016451828
0.014013684 -0.122600354 -0.10109096 0.064828835 -0.030018188 -0.11684059 -0.09335133 -0.022578027
-0.09972163 0.15840362 -0.051861938 0.07582733 0.096638106 0.09783656 0.09445742 -0.011255492
0.044057474 -0.015711319 -0.025135465 0.028382046 0.048629127 -0.05812127 0.07961895 0.05705385
0.10172567 -0.058592238 0.08649694 -0.079344854 -0.008551452 -0.1792223 -0.038834106 0.043640103
0.024365222 0.057799287 0.07101979 -0.010494853 0.02311568 0.07876821 -0.08171373 0.032707978
0.07132233 -0.005343357 -0.034831386 0.009634049 -0.07507132 -0.0139794 -0.023446847 0.08466875
0.11592085 0.19030489 0.015944295 -0.041285682 -0.075298384 -0.009569868 -0.042212546 0.04544501

conv1_2_2.bias f4 [5]
00000000: 5b90 b03d 26d3 b73d 0689 9f3d 4ded 73bd
00000010: f8d3 713d
0.086212836 0.0897582 0.07789807 -0.05955248 0.05904004

conv1_2_3.weight f4 [5, 20, 11]
00000000: 3e02 90bd b500 09be abc9 28be be75 abbd
00000010: 30ac dcbd 6b40 eebd cf3f d93c 9484 ff3c
00000020: e639 753d 86fa a73d c150 eb3d a498 9ebd
00000030: 154b 5dbc 0eaa 4dbd 1eaa e5bd 97b6 e4bd
00000040: 7340 8cbd 8466 89bc a1da b63d c185 1c3d
00000050: 0a5e 37bd 036c 213c 8004 3cbd fd29 c5bd
00000060: 551b bcbd 06f0 dabd d255 f9bb aea5 4a3d
00000070: c734 da3b 7523 90bc 17e4 66bd ce9e 2ebc
00000080: 78fd 88bd 946d 48bd e726 8f3d 2d73 1a3e
00000090: 23a4 733d 8fef dabc a28a 8dbd 5d18 afbd
000000a0: b231 07be a17e e63c 8618 4fbb e02e 8fbb
000000b0: 25c6 41bd f52d 7ebd ef00 be3b da93 c33c
000000c0: 7379 023d e135 bebc 1f17 77bc 2973 12bd
000000d0: 3723 e63c 84e2 cbbc d895 a1bd 0179 69bd
000000e0: a816 b6bd 778d ecbb ba4b b43d f66a afbc
000000f0: 7ed8 48bc 8a0d 41be 968d 11be de1e 9bbc
00000100: b9f3 25bc 5a5c 98bd a3f9 26be df0c c8bd
00000110: 8ee3 35bd 476a 06be 9f5c cbbd 26c5 b7bd
00000120: 5d8c 74bd 1d2f 25bd dcc1 39bc 3035 01bd
00000130: 872f 0e3d ce02 bcbd 0ee1 c2bc 09c2 95bd
00000140: 97ed 57bd 1380 553d f644 a2b9 be4c 24bd
00000150: 8643 a8bd 1d7f cbbd 300c 52bd 3fa3 42bd
00000160: 08b5 f73b 5146 29bd dbb5 e4ba 5b07 403d
00000170: e796 9b3d bb73 513d ef17 90bd d7e3 a1bd
00000180: 7ace 64bd 8730 113d e3f0 dcbb d13f 4d3c
00000190: b3c7 4dbc b2b1 2abd 4280 8bbd 1ac6 dd3c
000001a0: 1151 253e 882a 8c3d 1100 1f3d 030e f83d
000001b0: e53f 01bc a974 3dbd 285c 1cbe aee3 03bd
000001c0: 26aa dabd 908b 14bd f5f0 85bd ed6b da3c
000001d0: aa59 62bd 3efb e5ba f04d 03bc d38f 2fbc
000001e0: 562c 2cbd 2319 a0bd 1c14 07be a7b2 01be
000001f0: 6671 01be 7143 9bbd 85a8 13bc e163 f6bc
00000200: 7dfd 333d 0bbf 893d 383e fcba c79a 723d
00000210: fe5d a4bd b279 45bc ddc4 fbbd 9c18 9abd
00000220: cf41 e4bc 8799 97bd a974 91bd 868f 8dbd
00000230: ca00 b43b 6005 2a3d bc87 f93c fd70 c0bd
00000240: eb26 6abd 67de 72bd 10d5 02be 7b6d 43bd
00000250: 5f3f e0bd 6109 473c 4358 f2bc 1d2a 733d
00000260: 43c1 e43c d4eb 423d 0b5e b8bd daa9 62bd
00000270: f975 4fbd 9922 a4bc fdd4 83bd c23b 0dbd
00000280: 32fb b03b afbf a83d 25a6 ca3d de6f e53d
00000290: 5fd5 0a3d 7d0e 89be 702e 49be c028 12be
000002a0: 7478 2abd 0887 1dbd aec0 193d 9ef2 323d
000002b0: 55d1 9e3c 9f98 86bc c3b4 4a3c 9334 45bc
000002c0: 15aa 20be f275 7dbd b9a1 d2bd 093a fdbd
000002d0: ed93 88bd b51e a63c 2d91 943d c4b0 013e
000002e0: e905 de3d a8a0 ad3d 39db b73d ad42 71bd
000002f0: abb9 e2bb ecc7 10bd d4f7 f1bd bd40 a0bb
00000300: 31f4 25bd cc0d c53b d650 23bd 486c b13d
00000310: 1575 52bc 362e e8bc 39a0 9fbd 0085 71bd
00000320: 02a5 b6bd 954a 713c f437 833c da52 7bbd
00000330: 3d8a 9cbd b259 08bd 7853 4bbd 7377 bdbd
00000340: 0428 dbbd 76d7 8a3d 1bac 0cbd c45e a2bc
00000350: 6710 df3d 7d35 4b3d 885c 973d 00d3 c3bb
00000360: 1bed 39bd 8cf2 05be 17a9 37be 1ad8 2ebe
00000370: 0b41 efbb 2a1d 67bc c0a2 f9bc 3674 39bc
00000380: 5bf1 843c b2ee 5839 919d 423c 7243 81bd
00000390: 726b 08bd 82ad c63c dc18 4a3d 91fa 43bc
000003a0: 9c51 253d 97bc 823d 1a76 eebd 19c5 b7bc
000003b0: 27e2 c6bd a1e5 02bd 5be8 063e 13c5 883d
000003c0: 9df9 d0bc bbec d9bd b43d 20be f860 09be
000003d0: 8b95 40be 519a 2cbe 7925 94bd b6ee d9bd
000003e0: 6d10 b3bd 27a1 bcbd cd30 c0bd f0a3 f2bd
000003f0: 7d53 25be 4d76 393d 9010 4a3d 1e54 883d
-0.07031678 -0.13379176 -0.1648318 -0.08372067 -0.1077503 -0.116333805 0.026519684 0.031191148
0.05986967 0.082020804 0.11490012 -0.07743958 -0.0135066705 -0.050211005 -0.11214088 -0.11167639
-0.0684823 -0.016772516 0.08928419 0.038213495 -0.044767417 0.009852412 -0.04590273 -0.09627149
-0.09184901 -0.10690312 -0.0076091075 0.04947441 0.0066591236 -0.017595032 -0.056369867 -0.010657979
-0.0668897 -0.048932627 0.06989842 0.15082999 0.059482705 -0.026725559 -0.06911208 -0.08549569
-0.13202551 0.028136553 -0.003160031 -0.0043696016 -0.047308106 -0.062055547 0.005798451 0.023874212
0.031854104 -0.02321905 -0.015081196 -0.035754357 0.028092964 -0.024888285 -0.078899086 -0.057000164
-0.0889104 -0.0072190124 0.08803506 -0.021413308 -0.012258647 -0.18852821 -0.14214167 -0.018935617
-0.010128909 -0.0743949 -0.16306166 -0.0976808 -0.044406466 -0.13126479 -0.099297754 -0.0897315
-0.059704173 -0.040328134 -0.011337724 -0.031544864 0.034713294 -0.091802225 -0.023788955 -0.073124
-0.052716818 0.052124094 -0.00030950428 -0.04011225 -0.08216004 -0.09936354 -0.051281154 -0.047518965
0.0075594224 -0.041326825 -0.0017449217 0.046882015 0.07597142 0.05113576 -0.07035815 -0.07904785
-0.055860974 0.03544667 -0.006742583 0.012527422 -0.012559819 -0.04167337 -0.068115726 0.027072001
0.16144206 0.0684405 0.038818423 0.121120475 -0.007888769 -0.046253834 -0.1526953 -0.032199554
-0.106769845 -0.03626591 -0.065400995 0.026662791 -0.05526129 -0.001754619 -0.008014187 -0.010715443
-0.04203447 -0.078172944 -0.13191265 -0.12665807 -0.12640914 -0.07581223 -0.009012346 -0.030076923
0.043942917 0.06725892 -0.0019244617 0.05922964 -0.0802574 -0.01205294 -0.12293408 -0.07524225
-0.027863411 -0.0740233 -0.07102329 -0.069121405 0.005493258 0.041509032 0.030460231 -0.09396551
-0.05716602 -0.05929413 -0.1277659 -0.04771183 -0.10949587 0.012148232 -0.029583102 0.059366334
0.027924186 0.047588184 -0.09002312 -0.055337764 -0.050649617 -0.020036029 -0.06437109 -0.034480818
0.0054010386 0.08239686 0.09894971 0.112029776 0.033894893 -0.26768866 -0.19646621 -0.14273357
-0.04161878 -0.038458854 0.03753727 0.04368841 0.019386927 -0.016430197 0.0123721985 -0.01203646
-0.15689881 -0.06188006 -0.102847524 -0.12364585 -0.066688396 0.020278314 0.072542526 0.12665087
0.10840971 0.084779084 0.0897736 -0.058901478 -0.006919106 -0.03534691 -0.118148476 -0.00489053
-0.040516082 0.0060136076 -0.039872013 0.08663231 -0.012845297 -0.028342348 -0.07794232 -0.05896473
-0.089181915 0.014727254 0.016017891 -0.06135831 -0.07643554 -0.033288665 -0.04964015 -0.09251299
-0.10700992 0.06779377 -0.03434382 -0.019820578 0.108918004 0.049611557 0.07390696 -0.005976081
-0.045392137 -0.13080806 -0.17935596 -0.17074624 -0.007301455 -0.014106074 -0.030473113 -0.011319211
0.016228369 0.00020688286 0.011878387 -0.06311692 -0.033305593 0.024252657 0.049340114 -0.011961595
0.040361032 0.06383627 -0.1164362 -0.02243285 -0.09711104 -0.031957272 0.13174574 0.06678214
-0.02550965 -0.10640856 -0.15648538 -0.13415897 -0.18807046 -0.16855742 -0.0723371 -0.106412336
-0.08743367 -0.09210425 -0.09384308 -0.11847675 -0.1614513 0.045278836 0.0493322 0.06656669

conv1_2_3.bias f4 [5]
00000000: 4bf4 883b 5724 703a 062f 5c3d f58f 673d
00000010: 101d 193d
0.0041795126 0.00091606885 0.053755783 0.056533772 0.03738123

conv1_2_4.weight f4 [5, 20, 15]
00000000: f45b 3abd b036 d93c 97f8 3b3d be5e 5abc
00000010: ad28 35bd ba0c 12bc 22d8 543d 805a 20bd
00000020: 5249 03bd 7f12 3cbc b963 11bd 7fbf 8e3c
00000030: 071f 9c3c f09c 7dbc 076f d3bd 5fb8 43bd
00000040: 8579 14bd 5c0d 713d 63b2 dfbb 6d99 22bc
00000050: 0dc8 f73c 4ea2 88bd f7ba 64ba 6792 2d3d
00000060: e95c 573c 0e29 7a3c c37d 65bd 74fa c8bd
00000070: 2601 a6bd 6bad 12be a924 323e 766d 673d
00000080: 074c e43d aee7 643d ea85 aa3d 5e43 f53d
00000090: a640 303e 95d3 f23d 5c3d d43d 3974 8c3d
000000a0: b7d4 333e 1163 b43d 9ef3 a23c f14b 353e
000000b0: a580 133e 92b6 b13c 5f8d 373d 69b0 0cbc
000000c0: ec8f f63c c242 3c3d 77ba 8a3d e10c b43c
000000d0: 8657 123d 9b16 4dbd 3468 103d a718 883d
000000e0: e973 a13d ef07 fb3c 5839 cb3d 7061 2b3c
000000f0: 785d e73c 3cbd 1abc a2bf 773c df19 813d
00000100: 9ad3 423d 6fed c1bc 472d fabc e0b6 243b
00000110: 59f8 2f3d 56ec 9f3d cd0a a33d 6b1a 923d
00000120: d68a 2f3e bdd4 2b3e aa3e f43d 6348 72bd
00000130: 4586 3ebd a887 4dbd 08e2 1ebc d197 dd3d
00000140: f0ee d53d 9e6e 473e f755 143e 7085 bb3d
00000150: 5479 9d3d 5249 2a3e 1f40 d33c f8ac 5f3d
00000160: b027 f13d eca5 333e 67b3 feba 2fde a33c
00000170: 6b2f 893c 1c49 06bc 560c 153c 7d47 fbbc
00000180: 3454 b0bd 8cc4 343d cab3 323d 6f9c 20bd
00000190: eb01 febd 3236 a2bd 4ad8 95bd f20f 3dbe
000001a0: 1e4f 3dbe 3731 053e 28ce 883d 2e26 ebbc
000001b0: f856 283c be35 4abd 42f9 2fbd 7727 7dbc
000001c0: e4fc e73d 0b9b 3a3d b34a 093e f280 813d
000001d0: 396d 4e3e 11e2 353e 348a 2a3e d7d0 e03d
000001e0: a88a 023d a48b 553d 5cd6 e039 5053 10bd
000001f0: 8a7d 9bbc b24a 333d 00c2 b5bc e83c be3d
00000200: bfa3 b23d ce0d 9a3d 1330 243e f8f4 743e
00000210: 787f 873e f61d 563e 95dc 5e3e dc95 7a3d
00000220: 2226 2d3d db2c 3e3d 5d66 6f3d 063f 3e3d
00000230: 4612 363d 63e0 c53b b950 eb3c 0173 cbbc
00000240: 543c 14bd 43a8 8abd cba2 b6bd ddd5 bbbd
00000250: 8611 ffbd 19b3 c1bd 2212 ff3b c156 b33c
00000260: 84a5 aa3c 7797 503c 60c9 203d 8a8c d83c
00000270: 6808 7e3b 06c9 b9bc b31e 42bd e23d 2dbd
00000280: 1f77 1abe ccc3 c5bd 494f 1fbe 38dc 82be
00000290: 8c80 6ebe 704a e73a 2a47 6e3d 878b f8bc
000002a0: a96a 18bd 38fe 553d 6abe 15bc 479f 6cba
000002b0: 1b90 353c f0fe 61bc b49b e93b 0c9f 9c3d
000002c0: d80a 853d 4397 c23c e8f6 71bc cbee 0abe
000002d0: adfe 92bd 9b04 103d a436 cd3c 71da cc3c
000002e0: 3efd 833c 67e6 23bc 0590 313d eca0 af3d
000002f0: 4b3f 13bc 62b2 0a3d 80f0 063e 3537 ba3d
00000300: cc2a 273d 9d25 df3c a2f9 1fbd b90b 54bc
00000310: 690f 49bc 0fd0 1b3c d5e8 23bd fdc4 c839
00000320: e055 87bd b100 9ebd 39ca 38bd 0d66 833c
00000330: 80d0 f13b e62a 9bbc 1ffa d5bd 78a6 c3bd
00000340: 7b2f 3dbe a702 72be f171 243b c13c 80bc
00000350: 1c46 0fbd 6d8d 823c 082e eebb d345 243d
00000360: 8cc0 9f3c f4c5 753d c430 e2bc 8674 ecbc
00000370: e7aa 9bbd b282 adbd cf34 0bbe 4079 34be
00000380: 3c25 46be 3d33 a83d 55a0 2d3e 3080 663d
00000390: 7c3b 1b3e 3ae7 3d3e 4179 043e 3f5f 333e
000003a0: e6ea a03d 2180 9c3d 3116 043d e6e0 1ebd
000003b0: 18c6 5abd 4852 783c e3d1 a5ba a4b0 883d
000003c0: 129b 4abc 7afe d0bd 4f98 79bd 0302 0ebd
000003d0: 7bde 17bd d1d5 c2bd 09c8 99bd 5585 cbbd
000003e0: 03a1 6fbc 2095 c1bc 4267 b63c b06c 5ebd
000003f0: 1c1f 06be 669f 67bc 32e1 19bd 0627 493d
-0.04549785 0.026515335 0.04589137 -0.013328252 -0.044228245 -0.008914167 0.051963933 -0.039148808
-0.032052346 -0.011479019 -0.035495494 0.017425297 0.019057764 -0.015479311 -0.10323911 -0.04778325
-0.036248703 0.05885063 -0.0068266853 -0.009924275 0.030246759 -0.06671582 -0.00087253697 0.04237595
0.01314471 0.015268577 -0.05602814 -0.09813395 -0.08105688 -0.14323966 0.17396797 0.056500874
0.111473136 0.05588501 0.08326323 0.1197574 0.17212161 0.11856762 0.10363266 0.06858105
0.17561613 0.08807958 0.019891556 0.1770475 0.14404543 0.021693502 0.044812556 -0.008586981
0.030097924 0.045962103 0.067738466 0.021978797 0.035728 -0.050070386 0.035255626 0.06645327
0.07883436 0.030643431 0.09923047 0.010460243 0.028242812 -0.009444531 0.015121372 0.06303763
0.04756508 -0.023672787 -0.030539168 0.0025133416 0.042961452 0.078087494 0.079610445 0.07133945
0.17142805 0.16780372 0.11926015 -0.059151065 -0.04651477 -0.0501782 -0.009697445 0.10819972
0.10445964 0.19475791 0.14485918 0.091563106 0.07689157 0.16629532 0.025787411 0.054608315
0.11775148 0.17543763 -0.0019432128 0.020003406 0.016746243 -0.008196142 0.009097179 -0.030673737
-0.086098105 0.044132754 0.04362849 -0.039211687 -0.124027096 -0.07920493 -0.073166445 -0.18463114
-0.18487212 0.13007055 0.06679946 -0.028704729 0.010274641 -0.04936766 -0.04296232 -0.015451304
0.11327532 0.045558017 0.13407402 0.063234225 0.20158853 0.17762019 0.16654283 0.10977333
0.031870514 0.052135125 0.0004288432 -0.035235703 -0.01898076 0.043772407 -0.022187233 0.09288961
0.08722638 0.07522164 0.16033964 0.23921573 0.26464438 0.20909867 0.21763833 0.061178073
0.042272694 0.046429496 0.05844723 0.046446823 0.04445102 0.006038712 0.028725015 -0.024835112
-0.036190346 -0.067703746 -0.08917769 -0.091716506 -0.12454514 -0.09457988 0.007784144 0.021891953
0.020830877 0.0127314245 0.039254546 0.026434202 0.0038762335 -0.022678863 -0.04739256 -0.042295344
-0.15084504 -0.09656486 -0.15557589 -0.2555864 -0.23291224 0.0017646085 0.058173336 -0.03033997
-0.037211094 0.052244395 -0.0091396365 -0.000902642 0.011081721 -0.013793692 0.007129157 0.07647523
0.06496209 0.023753768 -0.01476834 -0.13567655 -0.07177482 0.035160642 0.025050469 0.025006505
0.016111966 -0.010003663 0.04335024 0.08575615 -0.008987258 0.033861525 0.13177681 0.09092561
0.0408123 0.027239615 -0.039056428 -0.012942248 -0.0122717405 0.009510054 -0.040016968 0.0003829374
-0.06608176 -0.077149756 -0.04511473 0.016039873 0.0073795915 -0.018941354 -0.104480974 -0.09553236
-0.18475144 -0.23633824 0.0025092328 -0.01565397 -0.03497897 0.015936578 -0.007268671 0.040105652
0.019500993 0.060003236 -0.027611144 -0.028864156 -0.076009564 -0.08472194 -0.13594364 -0.17624378
-0.19350141 0.08212898 0.16955693 0.056274593 0.1515941 0.18545237 0.1293688 0.17516802
0.07857303 0.07641626 0.032247726 -0.0387887 -0.053411573 0.015156336 -0.0012651052 0.066743165
-0.012366073 -0.102047876 -0.06093627 -0.034669887 -0.03707741 -0.095134385 -0.07508857 -0.099375404
-0.0146257905 -0.023630679 0.022266034 -0.05430287 -0.13097805 -0.014137125 -0.03756828 0.04910948

conv1_2_4.bias f4 [5]
00000000: e48b 0abd 6bc7 5ebd 3754 723b 4b68 5bbd
00000010: 8c6c dabc
-0.033824816 -0.0543894 0.0036976465 -0.05356626 -0.026663087

conv1_3_1.weight f4 [5, 20, 3]
00000000: a38f dd3c 5a6a 90bd 8431 f23d 800a 8dbd
00000010: 3682 38bb 3ed4 98bd 296e 073e a29f 4bbc
00000020: dc88 1c3c ae88 49bd edd6 703d 4cce 87bd
00000030: 7508 ab3d f958 a8bd a3c9 f63d 121e d33d
00000040: 6c58 683d 0c64 f43d 825d 56bc b1e7 67bc
00000050: 9614 963d c7d7 f8bc 4161 f7bd 8a08 e3bd
00000060: 4a7e 163e 9012 503d 6591 42bd 5249 b23d
00000070: ed90 ae3d 37ba e13c 1725 acbd ddc2 0bbe
00000080: 4af6 d4bd 4d02 9ebd 535a 7fbd 9c4a b5bd
00000090: bd2f 2dbe 627f 9c3d 6d7e 0d3e f611 e53b
000000a0: c942 283d 5b5e e3bd cee7 773d 706d 0bbe
000000b0: 8a16 eebc 4296 e2bd 9577 253d 0150 07be
000000c0: 57e0 9abd b767 f9bc 9755 93bd 823c 033e
000000d0: 00c8 2ebc e47f 02be ee2e 07ba 58dc 18bd
000000e0: 581d 45bd 2f7c bb3d ad8e 3cbd 12b5 893d
000000f0: 9a89 dc3d ed7f a93d 3a6e 05bd a6ff 1dbd
00000100: 7c51 91bd 756b e63d 1dbe e73d 9f1f 7b3d
00000110: dfb2 2ebd 1ff3 013d 61f8 9f3d f3a3 31bd
00000120: 3b98 97bd d15d 3ebb 3fda 173d fbae aebb
00000130: 705e 3ebd 676e ac3d 19e7 823c c5d5 aa3b
00000140: 4c00 2c3d 0454 f43c 43dc dabd a15e d43c
00000150: 77ca cf3d d51b 203e 5c75 96bb 6072 13bd
00000160: 43b3 623d 5f66 0b3e 9660 be3d 19c3 573d
00000170: 71bb 533d 74b7 103e 7cc4 a5bd 9301 debd
00000180: b26d f5bd b138 583d e456 c5bc 09be 46bd
00000190: bcf0 693d 3dab fc3a 548c 3fbd f6d8 d7bd
000001a0: 80b1 85ba 1156 723c c53a 123e 8542 c9b9
000001b0: 4353 1c3d 411e 5d3d 058a 84bd 9de7 2bbd
000001c0: b35d cdbc 8b84 ae3d c6ea c5bd 03df 29bd
000001d0: 1c49 37be 687d c1bd 423e f63d 54a8 9dbd
000001e0: a290 78bc f712 2e3d e922 e03c 0059 983d
000001f0: 3670 92bd 75f6 a03d f5f9 b1bc 2286 a8bd
00000200: 4f48 57bd 770d 8ebc 7413 35bd 8110 52bb
00000210: f30f 90bd 1ee7 d93b fcfa 92bc 7136 cebd
00000220: 6c6c d83d 7255 86bc 32cf 6bbd 93c7 1c3d
00000230: 0f51 0bbd 7e6c e23d 9625 4a3d 3476 03be
00000240: 5395 8dbd 0ad4 bdbc d7af b13c a45e c33d
00000250: 5ed6 3a3c 0954 fabd 5e67 733d 40ab 5bbd
00000260: 42d9 293c 56c2 123d b0f5 e83d c96e ebbd
00000270: c75a a9ba 2ef0 5fbd bda1 1abe 46d2 88bd
00000280: 5d9f d8bd c865 86bd 6acd 183e 0a54 fc3d
00000290: 5ae8 b63a 268b ab3d 1f6a 223e 7ed3 cbbc
000002a0: fa8c 963c 22d6 143e 54dd dd3d 5ec7 913d
000002b0: fac3 a83d 7e60 e63d 0cf1 a7bc af4d 463d
000002c0: fbef 233d 81df 1e3e cd2d a53d 7acd 3a3e
000002d0: 03a7 d93d 0ff6 9ebd c15e 7f3d 9499 d33d
000002e0: 0978 ab3d 1450 5dbd a302 683d 1271 59bc
000002f0: 719b b63b ece5 123e bd78 ad3d 38a1 8dbd
00000300: 4604 03bd a8e9 003e 1afb d23c aac0 a93c
00000310: 6b18 c6bd ef0a 1dbe ec44 373e d4bd 243d
00000320: 33b0 8cbd a51f 8dbd 2386 b6bd 2c94 92bc
00000330: 0df6 d93d 738c 2d3d 47bd 03be a49c 803e
00000340: cb2d a73d 4642 2dbe ac32 19be 7f6d d4bd
00000350: a673 59bd ff32 a93d 6b46 06bc ef3d 463d
00000360: 2f43 6c3d 91d3 f63d 728b 92bd b571 29be
00000370: b3f7 8cbd 7da7 003e 6648 853d 3e26 fbbb
00000380: e551 d83d 4921 fcbd c3a2 54bd 70ae 16bc
00000390: f513 b43d 9cd9 2cbd 7c4e 16bd 2113 ccbd
000003a0: 3d75 e23d dd55 c73d bcc0 c3ba 541a d7bd
000003b0: 2cc8 bf3d 834c eebc a357 66bd 7e45 f93c
000003c0: c6cc 0f3e 42a2 dbbd 71e9 043c 1b87 a0bd
000003d0: 6c54 6e3d 59de d4bd 178d ce3d 8c8d 75bd
000003e0: b949 dc3d 9fdf bbbd dbd2 6f3c e967 813d
000003f0: 6029 9bbd 1208 06bd a614 bc3d 1127 a6bc
0.02704603 -0.07051535 0.118258506 -0.06886768 -0.0028153784 -0.07462357 0.13225617 -0.012428196
0.009554114 -0.049202614 0.05879872 -0.06631145 0.083512224 -0.08220095 0.12050178 0.1030847
0.05672495 0.11933145 -0.013083817 -0.014154361 0.07328145 -0.030376328 -0.120790966 -0.11085613
0.14696613 0.050798953 -0.04750194 0.08705391 0.08523736 0.027554614 -0.08405512 -0.13648553
-0.103985384 -0.077152826 -0.062342 -0.08852121 -0.16912742 0.07641484 0.13817759 0.0069906665
0.041079316 -0.11101981 0.0605238 -0.13615966 -0.029063482 -0.11063816 0.040397245 -0.13214113
-0.07562321 -0.030444963 -0.07194059 0.1281605 -0.010667801 -0.12744099 -0.00051568344 -0.03731951
-0.048123688 0.091545455 -0.046034504 0.067239895 0.10768433 0.08276353 -0.032575823 -0.038573883
-0.0709562 0.112509646 0.11315558 0.061309453 -0.042651054 0.031726 0.078110464 -0.043369245
-0.074020825 -0.0029047618 0.03707337 -0.005330918 -0.04647678 0.08419495 0.015979337 0.0052134716
0.04199247 0.029825218 -0.10686543 0.025924029 0.10146039 0.15635617 -0.004591627 -0.03599775
0.05534674 0.1361327 0.09295766 0.052676294 0.05169243 0.14132482 -0.08094117 -0.10840144
-0.11983813 0.05278844 -0.024089284 -0.048521075 0.057114348 0.0019277107 -0.046764687 -0.10539429
-0.0010199994 0.014791028 0.14280231 -0.00038387268 0.038165342 0.05398393 -0.06471638 -0.04196893
-0.025069093 0.08521374 -0.0966392 -0.041472446 -0.17898983 -0.094477475 0.120235935 -0.07698122
-0.015171202 0.042498555 0.027360396 0.074388504 -0.07150309 0.07859508 -0.021725634 -0.08228709
-0.052559193 -0.017340405 -0.044208005 -0.0032053294 -0.07034292 0.006649866 -0.017941944 -0.100689776
0.10567555 -0.016398165 -0.057570644 0.038276266 -0.03401285 0.110558495 0.04935225 -0.1283806
-0.06913247 -0.023172397 0.021690292 0.09539536 0.011403648 -0.1222306 0.05942475 -0.053630114
0.01036674 0.035829864 0.11374986 -0.1149574 -0.001292073 -0.054672413 -0.15100761 -0.066807315
-0.10577271 -0.06562382 0.14922109 0.12320717 0.0013954744 0.0837615 0.15860794 -0.02488112
0.01837777 0.1453481 0.108332306 0.071181044 0.082405046 0.11248873 -0.020500682 0.04841393
0.040023785 0.15514947 0.080653764 0.18242446 0.10627558 -0.07761776 0.062346224 0.10332027
0.08372504 -0.054031447 0.05664314 -0.013271587 0.0055727293 0.1434552 0.084702946 -0.06915516
-0.031986497 0.12589133 0.0257545 0.020721752 -0.09672626 -0.15336202 0.17897385 0.040220097
-0.06869545 -0.06890801 -0.08912303 -0.01789292 0.106426336 0.04237027 -0.12865172 0.25119507
0.08163031 -0.16919813 -0.14960736 -0.10372447 -0.053088807 0.0826168 -0.0081955 0.04839891
0.05768126 0.12052072 -0.07155503 -0.16547282 -0.068831824 0.12563892 0.065079495 -0.007664471
0.10562495 -0.12311036 -0.051913034 -0.009196863 0.08792869 -0.042199716 -0.036695942 -0.09964586
0.11057518 0.09733174 -0.0014934759 -0.105030686 0.09364352 -0.029089218 -0.05623592 0.030428644
0.14042959 -0.107243076 0.008112297 -0.07838269 0.05818598 -0.10393972 0.100855045 -0.059949443
0.10756249 -0.09173512 0.014637674 0.063186474 -0.07576251 -0.03272254 0.09183626 -0.0202823

conv1_3_1.bias f4 [5]
00000000: e2b5 e23d 0792 acbd e127 d23b 1214 56bd
00000010: e3c4 a73d
0.11069848 -0.0842629 0.0064134453 -0.052265234 0.0819185

conv1_3_2.weight f4 [5, 20, 5]
00000000: f390 533b 42aa 103e fd1e 833d 3b1a 64bd
00000010: 1a5f cb3c c83d 18bd 7998 9bb9 fe68 e13d
00000020: ac2f 923d 65b2 bc3c d214 0a3d edbb 3bbd
00000030: 5ad5 7c3b 2790 92bd 26ad 96bd 03a9 be3d
00000040: 4be6 3e3c 37bb 88bd cc36 6d3d a644 efbd
00000050: b0ed cdbd 2e48 a03c 27bd cb3d fc34 5c3d
00000060: b52b 9bbc 45d6 49bd 9409 b63d 6875 973d
00000070: 5bc7 333c fd87 2cbd 2949 88bb f414 703c
00000080: 3559 213d 4fbb 9d3c 49b9 ba3d 8a03 f0bd
00000090: e385 c1bc 1994 b1bb bb2f 0abd a773 8c3d
000000a0: 2213 e33d 5d8e 013e 75b0 11bd f8a8 f5bd
000000b0: 9963 a3bd f146 293e 882a 3a3e 8a58 503d
000000c0: 71f4 5dbd ed8b 0dbe fad2 f8bd 9842 0abe
000000d0: ed18 b1bd 9417 033e 6085 1a3e 556e b9bd
000000e0: 9239 60bc 8ee5 fbbc 55fa 3ebc 983b be3d
000000f0: 14a3 f4bd 5ffa 4ebd 429e adbd 3826 863c
00000100: 62be 2e3d f474 87bd 556f 20be 906e 15be
00000110: ba2d aabd fccb c33d 6ffd a03d e13e 3c3d
00000120: ceb4 f0bc 761f a73d 3360 7a3d 146e e2bd
00000130: 65cd 3cbb 99d2 48bc d3fc 0ebe 4ef5 7ebd
00000140: 740d 13bd f97d d03d 7d02 6ebd 9587 193b
00000150: 696a 20ba 9cf2 fb3d bc37 e9bc 4124 30bd
00000160: 548b c5bd c6dc 44bd 8018 ecbb a347 aabb
00000170: dd53 9abc 9d57 ca3d 32e0 043c bb0a a9bc
00000180: 4334 a23d 4f81 993c cf25 60bd 0734 b2bd
00000190: 6437 e93c 4b85 f6bc 689b 81bd 362b dabd
000001a0: 5659 983d bdf8 a0bd e352 b1bd e8a5 3c3d
000001b0: 7a28 7e3d 0508 a1bd ccdd 4dbd de39 cfbd
000001c0: 4236 a33d 4420 8f3b c218 5ebc 6146 7fbd
000001d0: 0b92 843d 11b1 be3d 82e7 7b3d 34eb bbbd
000001e0: ca23 c2bd eeae a83d d443 2d3d 2ade 833d
000001f0: b8f1 3c3c e4fa f0bd 3185 c43c e73e 883d
00000200: 86b1 2f3d 34cf 00bd 2b07 a1ba 24b1 bdbd
00000210: 3b3e 5ebd 1d5b bd3d 41be cb3b dc27 aabd
00000220: 1080 ae3d 008b aa3d f7a3 9cbd d47f 933c
00000230: a128 f5bc d99d 66bd 5f9e b93d a4b2 d53d
00000240: c541 0c3d e7d2 353d a943 a0bc db58 d4bd
00000250: a936 103d 7f61 083e b0b9 b5bd abe3 3d3c
00000260: a5f5 f1bd e455 acbd 5ee4 46bd 2909 83bc
00000270: 9c92 9f3d b5d8 92bc 6eb7 1ebd b3ea 62bd
00000280: 44ea 6cbd 55d4 d23c a6e5 11be f29b 4abd
00000290: 1d2d d7bc f642 84bd d823 06be de53 91bc
000002a0: f676 f8bd a54d 23be 7fef a0bd 414b 17bd
000002b0: c1d5 903d 7a72 63bd cd83 9e3d 0fae d8bd
000002c0: d5db 49bd e1c4 393b 5dc0 0b3c fa98 3ebe
000002d0: fde5 4fbc 9feb de3d fe51 983d 0f7a f63d
000002e0: 6993 aebd 3049 823c 8bd2 8b3c 881f 443d
000002f0: 1c87 aa3d 5484 c13d 072f 953c 2c91 8e3d
00000300: dfd9 05bc d7b4 843d 5fe5 843d 2d93 e5bd
00000310: dc96 c4bb 9200 133b 23ad 3a3d c7cd 94bd
00000320: 1dd8 8ebd 21a5 383d e74c af3d 8274 44bd
00000330: 81b6 29bd ed50 4b3d f42a 7bbb d490 5bbd
00000340: 1540 4bbd 228f 83bd 3f4e 9fbc f2dc b13d
00000350: c201 bc3d 23fb 783d ed55 abbd 5321 babb
00000360: a298 2f3d dcc9 82bc 0cac c2bd d32b ba3d
00000370: be11 3c3d b696 e53c e503 0c3d 0535 753c
00000380: ad2e a23c 0bfe 603d 9839 833d 9e5a 753d
00000390: 29c5 b93d 40c6 cc3d eb64 b03d 45dc 653d
000003a0: 359b f339 d584 703b 1861 9c3d 7d7a 193d
000003b0: 2c28 51bd 111d a33d 1f15 08bd 9d98 3e3d
000003c0: 08b0 78bd ba6a a73d 89d0 513d 1e7d 5ebd
000003d0: 28c0 643d 8a0e ca3c 8ee0 a9bc af6f b4bd
000003e0: 7cb3 88bd 3690 64bc 48a2 123d 06f5 cfbc
000003f0: 2793 7e3d 8cf8 3c3e 0950 963c 1ac6 cbbc
0.0032282441 0.14127448 0.06402395 -0.055689078 0.024825621 -0.037168294 -0.00029677505 0.11006354
0.07137999 0.023034284 0.033711262 -0.045833517 0.0038579316 -0.07156401 -0.07357244 0.0930958
0.011651586 -0.066763334 0.057913586 -0.116830155 -0.10055101 0.019565668 0.09948187 0.053761467
-0.01894174 -0.04927661 0.08888546 0.0739544 0.010972823 -0.042121876 -0.004159112 0.014653433
0.039391715 0.019254355 0.091173716 -0.11719425 -0.023623412 -0.005419266 -0.033736926 0.068579964
0.11087634 0.12651964 -0.035568673 -0.11995119 -0.07977981 0.16530968 0.18180287 0.050865687
-0.054188196 -0.13822909 -0.121496156 -0.13501966 -0.08647332 0.12801963 0.15089941 -0.09054247
-0.013685601 -0.030749109 -0.0116563635 0.0928871 -0.11945167 -0.05053174 -0.08477451 0.016375646
0.042662032 -0.06614104 -0.1566747 -0.14592957 -0.08309503 0.09560391 0.078608386 0.045958403
-0.02938309 0.081602976 0.0611269 -0.11056152 -0.0028808948 -0.012257242 -0.13963632 -0.06224566
-0.0359015 0.101802774 -0.05810784 0.002342676 -0.0006119372 0.123021334 -0.028468959 -0.043003324
-0.09645715 -0.04806211 -0.007205069 -0.005196528 -0.018838817 0.09879992 0.008110093 -0.020635
0.079201244 0.018738417 -0.054723557 -0.0870133 0.028468795 -0.030092856 -0.063284695 -0.10652773
0.074389145 -0.07859943 -0.086583875 0.046056658 0.06205032 -0.07862858 -0.05026035 -0.10118459
0.07969333 0.00436786 -0.013555707 -0.062322978 0.06473168 0.093111165 0.06150008 -0.09175721
-0.094794825 0.0823649 0.042301014 0.06438859 0.01153224 -0.117666036 0.023989292 0.06652623
0.04289391 -0.031447604 -0.0012285461 -0.092623025 -0.054258566 0.09245894 0.0062177484 -0.08308384
0.0852052 0.083272934 -0.07648461 0.01800529 -0.0299266 -0.05630288 0.0906341 0.104344636
0.03424241 0.044390585 -0.019563513 -0.1036851 0.035208378 0.13318442 -0.08873308 0.011589925
-0.11814431 -0.0841482 -0.04855763 -0.015995579 0.077916354 -0.0179256 -0.03874915 -0.055399608
-0.0578406 0.025736013 -0.1424776 -0.049465127 -0.026266629 -0.06458084 -0.13099611 -0.017740186
-0.12132065 -0.15947588 -0.0785818 -0.036937002 0.0707202 -0.055529095 0.07739983 -0.10580074
-0.049281914 0.0028346109 0.00852975 -0.18613043 -0.012689111 0.10884785 0.07437514 0.120349996
-0.0852421 0.01590404 0.017068168 0.047881633 0.08326551 0.09449068 0.018210901 0.06961283
-0.00816962 0.06479805 0.064890616 -0.11209712 -0.005999429 0.002243076 0.045575272 -0.072658114
-0.06974814 0.045079354 0.0855959 -0.047962673 -0.041433815 0.049637724 -0.0038325163 -0.053604916
-0.04962166 -0.06423785 -0.01944649 0.0868472 0.09180023 0.060786378 -0.083659984 -0.005680242
0.04287017 -0.015965395 -0.095054716 0.0909039 0.045915358 0.028025966 0.0341834 0.014966254
0.019797647 0.054929774 0.064074695 0.059900872 0.090708084 0.09998751 0.086129986 0.05611827
0.0004646421 0.0036700268 0.07635707 0.03747033 -0.0510637 0.07964528 -0.033223268 0.046532262
-0.06071475 0.08174653 0.051224265 -0.05431854 0.055847317 0.024665136 -0.020736959 -0.088103645
-0.06674859 -0.013950398 0.035799295 -0.025385391 0.062152054 0.18454188 0.01834871 -0.024874736

conv1_3_2.bias f4 [5]
00000000: 4977 e8bb 65cf aa3d 64d0 c03d a786 d9bc
00000010: 23a7 a73d
-0.007094298 0.083403386 0.09414747 -0.026553465 0.08186176

conv1_3_3.weight f4 [5, 20, 11]
00000000: 6441 953b 5efd 61bd 014e 04bd 79c6 6e3d
00000010: 0a2e 46bd 0d8e 5cbd fb35 3f3d cd2a 2f3d
00000020: 2741 1a3d 362a ae3c 3d3d 86bd 5c78 45bd
00000030: 74f9 94bb 6921 4abd 8647 b7bc f205 073d
00000040: d315 583c f80d a839 a15b cebc 610b 89bd
00000050: 2276 5f3d e29f 62bc cf0e ab3c f771 3bbd
00000060: f2b3 57bd 6005 28bd 0057 24bd a157 e23c
00000070: 5420 57bd b035 27bd 6c4e e1bc aa74 c0bc
00000080: 62ad fe3b 00dc cd3c 3ba0 313d 2370 463d
00000090: 09c1 e6bc 1171 96bc 249b 253d e5eb 323d
000000a0: 77b6 79bd 6d28 a43c 8790 b3bb 09fd 0a3d
000000b0: 2384 203d a85d 8cbd e738 01bd 5b2d 9abc
000000c0: 03f6 d53c 26c0 453d ca05 2e3d 3024 a9bd
000000d0: 12ac 6abd f0b4 323c 2321 3fbd 44a2 a1bd
000000e0: 17a3 a93c 1104 82bd 03eb d5bc ff1e 8b3b
000000f0: b7ee 92bd 8cc1 923c c302 aebd 891f a7bc
00000100: c044 603d 6662 d43c ec33 e6bc 5e9d 3fbc
00000110: 7c61 57bd 82a7 2f3d a88c df3c 4eb9 393d
00000120: 92cf 173c 7620 f33c a92a 7e3d ad4b 153b
00000130: 6382 32bc 5b17 57bb e6bc f7bc 32b9 40bd
00000140: db3c 8c3c 35a3 c639 5011 2cbb e327 8dbc
00000150: 0dc4 8fbb 4506 7dbd d602 a7bc 1e3e 88bd
00000160: 1a9a 013d 708d 45bd 28f9 9fbd 2b29 5fbc
00000170: 20ac 2d3d f2f2 24bc 3995 a63a 093a bf3c
00000180: d59f 1c3d 8414 3d3d f86d 883d 2779 093c
00000190: f2ee 8cbd 8519 9ebd 4aed f73c 4ff4 463d
000001a0: 986d 8a3d 5505 9dbc b121 333c 9e63 84bd
000001b0: d12e 393c 80f7 353a 932e bbbd f849 f3bd
000001c0: 61f1 a2bd ef22 41bd 8a04 f6bd c8c2 0dbd
000001d0: 958e 74bd 65be 98bd 0633 e2bd 683e bebd
000001e0: 2570 09be eb6c 1a3d d369 8a3d 3bbb 8d3d
000001f0: 7a5b 7c3b 45cb 80bd d895 8ebd d0fa 3a3d
00000200: bb01 d6bc a7ca 843d 3066 54bc 98f8 06bc
00000210: dc6e 253b cfac 823c 0f3a b1bc bf1b d3bd
00000220: 8237 82bd 13b5 ba3c 63af bfbd 091b 4cbd
00000230: 1d78 dabd 7516 9abd cb5e a2bc ac04 a0bd
00000240: 143c 9b3c c245 21bd 3799 b4bd 572d b6b9
00000250: ffca b8bd c0e5 81bd 8a5d 443c a73f 6abd
00000260: c4db c43a 5505 dbbd ba39 78bc c0cf 8dbb
00000270: e2fb aabb e6a0 54bd 60d4 ce3b ee72 003d
00000280: 08b7 2b3d 40c9 213d 66e1 803c 44eb 13bc
00000290: 0d78 1e3d 1453 7c3b 4870 ed3c 53cf fcba
000002a0: 655c 8fbd 4653 acbd d4fe 97bc 259b 01bd
000002b0: 60ab 0abe fe08 dabc 6f30 b4bd c984 24be
000002c0: 1ca6 c5bc a9c3 8b3d 80a1 d63d 58c0 a13d
000002d0: af6f 30bc 63fb a83b 151e 22bd 6e3d 773d
000002e0: cf92 333d b373 f43b 5af7 14bb 2b9d 333b
000002f0: 1a5b 533b dad3 b2bb 1921 9c3c 1d75 943d
00000300: 51fd 043d 6912 633d 9316 b63d 824c a5bc
00000310: 6f99 a13d a488 76bc d6d4 ccb9 8feb a83c
00000320: e8fa 933d e5ca 95bc 664b babb 5a33 683d
00000330: eb02 dbbc a0d9 ba3d 23da 30bc 0647 993d
00000340: 0dfb 0c3d efd7 a93d 999b a63d 21fc 1c3a
00000350: 6308 6b3d 2717 103d 0d14 96bc fa79 35bd
00000360: cbc8 68bd 442b 1c3c 72e4 2abb c9f0 f9bc
00000370: 93ff 3abc 88c8 adbd 5c14 48bd ab0f 043d
00000380: e41a 18bd e048 17bd e698 993c 0787 323d
00000390: 6c4c 26bd c9ba 4f3d acee abbc 911a 23bd
000003a0: b596 80bd ea13 72bd 1ed0 70bc 9b35 2a3d
000003b0: ce04 18bd ed33 e53c 5faf a23b f522 aabc
000003c0: 28c6 143d 70be 623d a712 aebd 759f 93bd
000003d0: c1dc 353b d432 db3c 8b10 4abd f8ba 803d
000003e0: 66a0 0e3d 2738 333d 1c86 20bd 91d7 4f3d
000003f0: 52c2 b83c 997d 86bb 1804 263c 366a dfba
0.0045549143 -0.05517327 -0.032300953 0.058294747 -0.04838375 -0.053846408 0.04668234 0.042765427
0.03765979 0.021260362 -0.06554649 -0.048210487 -0.0045463387 -0.04934827 -0.022372972 0.032964654
0.013188797 0.00032053865 -0.025190176 -0.066916235 0.05455602 -0.013832064 0.020881085 -0.045762982
-0.052661844 -0.04102075 -0.040122032 0.027629675 -0.052521065 -0.040822685 -0.027503215 -0.02349313
0.0077721337 0.025129318 0.0433657 0.048446786 -0.028168218 -0.018364461 0.040431157 0.043681998
-0.060965028 0.020038808 -0.0054798755 0.03393272 0.039188515 -0.06853801 -0.031548407 -0.018820455
0.026118284 0.04827895 0.04248599 -0.08258855 -0.057293005 0.010907397 -0.04666246 -0.07892278
0.02070765 -0.06348432 -0.026113039 0.0042456384 -0.071744375 0.017914556 -0.084966205 -0.02040078
0.054753065 0.025925826 -0.02810093 -0.011695234 -0.052583203 0.042884357 0.02728875 0.045342736
0.009265797 0.029678565 0.062052403 0.0022780702 -0.010895344 -0.0032820317 -0.030241441 -0.047051616
0.017118862 0.00037887102 -0.0026255436 -0.017230934 -0.0043873847 -0.061773557 -0.020387094 -0.06652473
0.031641103 -0.04823059 -0.07811195 -0.013620655 0.04240048 -0.010067688 0.0012709267 0.023343103
0.038238365 0.046162143 0.066616 0.008390701 -0.06881513 -0.07719711 0.030264515 0.048572835
0.067591846 -0.019167582 0.010933326 -0.06464313 0.011302666 0.00069414824 -0.09139743 -0.11879343
-0.079561956 -0.047152456 -0.120125845 -0.034609586 -0.05970629 -0.0745819 -0.11044888 -0.09289247
-0.13421686 0.03770153 0.067584656 0.06920477 0.0038506673 -0.062887706 -0.06962174 0.04564935
-0.026123872 0.06483965 -0.0129638165 -0.00823798 0.002524308 0.015951542 -0.02163413 -0.103080265
-0.063582435 0.022791421 -0.09359624 -0.04983047 -0.10667441 -0.075238146 -0.019820591 -0.07813391
0.018949546 -0.039373167 -0.08818286 -0.00034747526 -0.090230934 -0.063426495 0.011985192 -0.05718961
0.0015019109 -0.106943764 -0.015150482 -0.0043277442 -0.005218015 -0.051911257 0.006311938 0.031359605
0.0419226 0.039498568 0.015732478 -0.00902826 0.038688708 0.0038501667 0.028984204 -0.0019287862
-0.07000045 -0.08414321 -0.018554129 -0.031642098 -0.13541937 -0.026615616 -0.087983005 -0.16066279
-0.024127059 0.068244286 0.104800224 0.07898015 -0.010768815 0.0051569208 -0.03957947 0.06036132
0.04384118 0.0074600815 -0.002273044 0.0027406912 0.0032250346 -0.0054573836 0.019058751 0.072489
0.032468144 0.05543748 0.088910244 -0.020178083 0.07890593 -0.015047226 -0.00039068487 0.020620136
0.07225591 -0.018285224 -0.0056852577 0.056689598 -0.02673479 0.0912354 -0.010794195 0.0748425
0.03441911 0.08293139 0.08135147 0.0005988498 0.057381045 0.03517833 -0.018320108 -0.04430578
-0.056832116 0.0095318 -0.0026076105 -0.030510323 -0.011413473 -0.08485514 -0.04884754 0.032241505
-0.03713502 -0.036934733 0.018749665 0.043585803 -0.040600225 0.05071524 -0.020987831 -0.039820258
-0.06278745 -0.059101023 -0.0146980565 0.04155503 -0.037113957 0.027978862 0.0049647535 -0.020768622
0.03632179 0.055357397 -0.084996514 -0.072081484 0.0027749988 0.026757635 -0.049332183 0.062856615
0.034820937 0.043754723 -0.039190397 0.05074269 0.022553597 -0.004104328 0.010132812 -0.0017045203

conv1_3_3.bias f4 [5]
00000000: 36fe 683d f5bf 9b3c fcdb 893c 6186 c8bc
00000010: 2214 a63c
0.05688306 0.01901243 0.01682853 -0.02447814 0.020273272
