EEGDenoisenetTraining/checkpoints/deepseparator/checkpoint_epoch_80.pth (torch, 503337 bytes, 301 tensors)

conv1_1_1.weight f4 [5, 1, 3]
000000 83 25 17 3f 06 6d 87 bc 72 79 03 3f df f6 d4 be
       0.59041613 -0.016531479 0.51357186 -0.41594598
000010 17 91 0d 3f 03 ff 06 be e6 d8 2a be c1 15 07 3f
       0.55299515 -0.13183217 -0.16684303 0.5276757
000020 e9 da 1d bf 34 11 6b 3e 36 99 a1 3e 64 43 07 bf
       -0.61662155 0.22955781 0.31562203 -0.52837205
000030 c2 2f 10 bf ab a3 68 3e c2 a1 fc bc
       -0.5632287 0.22718684 -0.03083885

conv1_1_1.bias f4 [5]
000000 0d 15 54 be 32 44 17 3e a4 fe fb be 45 f5 64 3e
       -0.20711155 0.14772108 -0.49217713 0.22359188
000010 5c 25 ad 3e
       0.33817565

conv1_1_2.weight f4 [5, 1, 5]
000000 bd 59 97 3e dd e9 e9 bd 68 79 78 bc 61 12 e3 be
       0.29560652 -0.11421559 -0.015165664 -0.4434996
000010 ef 34 46 be 88 ea da 3e c8 bc 0f bf 83 7e 57 be
       -0.1935613 0.42757058 -0.5614743 -0.21044354
000020 61 f8 dc 3e 07 8e 41 3e 42 9e b0 be 63 54 3d be
       0.43158248 0.18901835 -0.3449574 -0.18489222
000030 35 2f d7 be 56 53 0e be e2 67 14 3d dd f4 36 be
       -0.42028204 -0.13898978 0.036231883 -0.17866845
000040 26 e2 b2 be 29 6e 9f 3d e8 c3 bf be b4 02 6d be
       -0.34938163 0.07784683 -0.37454152 -0.23145562
000050 31 47 e4 bd a8 c6 7a be 89 d9 00 3e 0c 28 7e be
       -0.11146391 -0.24489844 0.12582983 -0.24819964
000060 68 01 04 3f
       0.51564646

conv1_1_2.bias f4 [5]
000000 03 ed 89 3d 9f f7 8d 3d d3 2c 72 be 80 94 2a 3e
       0.067346595 0.069319956 -0.23649912 0.16658211
000010 2f 28 a9 3e
       0.3303847

conv1_1_3.weight f4 [5, 1, 11]
000000 b7 56 15 3c 14 83 7c 3a cb ce dd bd 3e f6 4e 3e
       0.009114913 0.0009632569 -0.10830458 0.20211121
000010 9b f0 8b 3e dd e8 ea bb 4e c3 81 be 68 47 88 3e
       0.27332005 -0.0071688727 -0.25344318 0.2661698
000020 75 c0 57 be c3 c1 7b 3e 92 51 a2 3e e2 1b 25 be
       -0.2106951 0.24585633 0.31702858 -0.16123918
000030 cd b1 e0 3c 08 e8 8c 3e dc 15 68 3e 72 23 1e 3d
       0.027428532 0.27520776 0.22664589 0.038608022
000040 59 df 56 3e 29 30 8b bd e6 ef 05 be a1 a7 62 3e
       0.20983638 -0.06796295 -0.13079795 0.22134258
000050 de a1 d1 3d f6 26 87 bd f8 72 ac bd a6 f4 a1 3e
       0.10235952 -0.06599228 -0.08420366 0.31631964
000060 27 40 9a 3c 75 a4 d7 3d 57 2a 90 3e 5c 18 20 3e
       0.018829418 0.105294146 0.28157303 0.15634292
000070 d9 67 ae 3d bd c6 6f bd d3 6f aa 3e 5c 31 95 be
       0.08515901 -0.05853914 0.3328844 -0.2913922
000080 40 8b 7c bc 27 4c 14 3e ac 6d 92 3e 00 78 af 3e
       -0.015414059 0.14482175 0.28599298 0.3427124
000090 4a 81 41 be 6b 10 e9 3d eb 1c 8a 3e 79 74 dd 3d
       -0.18896976 0.113800846 0.26975188 0.10813231
0000a0 0a 48 b4 3d 6b 4b bd be 4d 1d bc 3e d6 c4 49 3e
       0.08802803 -0.36971602 0.36741105 0.19703993
0000b0 61 01 b2 bb 09 7e 41 3e 58 da 5f be 44 b5 86 3e
       -0.0054322933 0.18895735 -0.21860635 0.2631017
0000c0 82 f2 a9 3e e8 1d b4 3d b5 2c 82 3e 86 aa 87 3e
       0.3319283 0.08794767 0.25424734 0.26497287
0000d0 00 31 90 3e 63 97 9f 3e 9d c9 99 bd
       0.28162384 0.31170186 -0.07509158

conv1_1_3.bias f4 [5]
000000 80 54 53 3e 20 59 89 3d 02 fc 5f 3e f7 71 f5 bd
       0.20637703 0.06706452 0.21873477 -0.11984628
000010 ca 34 b9 bd
       -0.09043272

conv1_1_4.weight f4 [5, 1, 15]
000000 bd 6b 75 be fe fe 0c bd a0 4f d8 bd 73 e1 94 be
       -0.2396688 -0.034422867 -0.10562062 -0.29078254
000010 e0 78 0a 3e dd 84 82 be 96 a4 11 3d 20 aa 67 be
       0.13522673 -0.25491992 0.035557352 -0.22623491
000020 99 5e 2a 3e 75 32 4c bd aa 49 45 bd b0 66 fe 3c
       0.16637649 -0.049852807 -0.048165955 0.031054825
000030 48 28 08 3e ac 85 1c be f9 e8 6d be 56 16 a0 3c
       0.13296616 -0.15285367 -0.23233403 0.0195419
000040 b3 dd 56 3e ed 73 86 3d 2e cf 09 be 69 93 83 bd
       0.20983009 0.0656508 -0.13457939 -0.06424601
000050 75 5e 1f bd 81 14 35 3e 22 ca 16 3e 67 82 5a bd
       -0.03890844 0.17683603 0.14725545 -0.053347018
000060 af b8 f7 bd 02 24 78 3e a0 12 85 3e 75 85 5b bd
       -0.120957725 0.24232486 0.25990772 -0.05359407
000070 f7 cb 7f 3e 9f 06 07 3e 1d 5f 6c bd 8b e6 13 bd
       0.2498015 0.1318612 -0.057707895 -0.036108535
000080 00 5c 44 3e 57 17 5d be ed c0 92 bd de 1d 2d 3d
       0.1917572 -0.21590935 -0.07165704 0.04226481
000090 d7 40 2a 3e 5d 3f 2a 3e dd 02 ce 3d 13 63 13 3d
       0.16626297 0.16625734 0.1005914 0.035983156
0000a0 7d aa 99 3d e2 db 40 3c ec 60 84 be 5c b6 c9 bd
       0.07503221 0.011771174 -0.25855196 -0.098492354
0000b0 a1 6d 37 be 98 15 3b 3e d8 6a 88 be dd 25 ec 3d
       -0.17912914 0.18269956 -0.26644015 0.11530659
0000c0 e6 00 14 be 15 74 48 3d df 19 1a bd 99 13 4c 3e
       -0.14453468 0.04893883 -0.03762233 0.19929351
0000d0 9c 16 0f 3e c2 cc e2 be fa 90 34 be 81 cc 7d 3e
       0.13973469 -0.44296843 -0.17633429 0.24785043
0000e0 e5 9c 05 3e c1 17 48 bb 32 da 64 be 5a e6 23 3e
       0.13048132 -0.0030531737 -0.2234886 0.16005841
0000f0 1c 1c 4d 3e 16 f1 84 be e3 e3 98 3e 25 99 c9 bd
       0.20030254 -0.25965184 0.29861364 -0.09843663
000100 6a 6d da bd 1a 00 55 3e ab 51 6a be 36 da 71 be
       -0.106654 0.2080082 -0.22882716 -0.23618397
000110 0d 5c 73 be 13 24 42 3e 9f c0 b4 3d 34 66 49 3e
       -0.23765583 0.18959074 0.08825802 0.19667894
000120 49 7c 7b bd 5f e9 85 3b 58 b6 6b 3d
       -0.061397824 0.004086658 0.057546943

conv1_1_4.bias f4 [5]
000000 19 fa 96 be 04 91 7e be c9 27 62 3e a1 60 71 3e
       -0.29487684 -0.24860007 0.2208549 0.23572017
000010 b5 dd 10 3e
       0.14147075

conv1_2_1.weight f4 [5, 20, 3]
000000 bd 07 7d be e9 8a 17 be bb 7d 38 be aa 8d 50 be
       -0.24709983 -0.14799084 -0.18016712 -0.2036654
000010 e2 8b 00 be 78 9c 49 3d a8 a1 89 be e7 3d 8f bc
       -0.12553361 0.049221486 -0.26881146 -0.017485572
000020 39 5f b4 bc 91 d6 13 bd 18 c6 8c bc 2e 37 c6 bc
       -0.022018062 -0.0360933 -0.017184302 -0.024196234
000030 54 90 23 bc 0f f4 af 3d 88 57 c7 bd a9 94 1e 3d
       -0.009983141 0.08591472 -0.09733492 0.038715992
000040 20 c0 0a bd b4 e3 1b be 64 b6 88 3b 9b ee 37 3d
       -0.03387463 -0.1522358 0.0041721333 0.044905286
000050 3c 98 be ba 65 36 cc bd a2 11 4c 3c 7f 12 08 3c
       -0.0014541219 -0.099713124 0.012455376 0.008305191
000060 96 fc 52 3d 90 63 8e bd c0 12 27 3d bd 0e d4 bd
       0.051510416 -0.06952584 0.040789366 -0.103543736
000070 a8 99 21 be 30 7b 1b bd 9e ea c9 bd 5b da c4 3d
       -0.15781271 -0.037959278 -0.09859203 0.096119605
000080 9e f5 96 3c 6c 63 c7 3d 6e 32 cf bb 27 00 78 be
       0.018427666 0.0973576 -0.0063231504 -0.24218808
000090 b5 3d a9 bc 76 14 a3 bd aa 29 c1 bd 7d 9d 42 bd
       -0.020659307 -0.07962887 -0.09431775 -0.047513474
0000a0 75 ec f9 bc f5 d1 be 3d f5 79 95 3d 33 1a d2 bd
       -0.03050826 0.0931739 0.07298652 -0.10258903
0000b0 27 eb 47 3d 28 62 00 3c a2 a7 2d 3d da b2 33 be
       0.048808243 0.007835902 0.042396195 -0.17548695
0000c0 c3 22 de bd 87 9e 2a 3e 37 0b 56 3c 63 09 39 bd
       -0.10846474 0.16662036 0.013064197 -0.045174967
0000d0 f9 86 43 be 46 31 3c 3d 9f 48 a6 3d aa e1 c6 3d
       -0.19094457 0.04594543 0.0811932 0.09711011
0000e0 1f b4 de 3a 56 2d 95 3e 6d eb 11 3e 42 e4 5e 3e
       0.0016990936 0.2913615 0.14249964 0.21766761
0000f0 7a e6 2f bd 0d 49 fb 3d 00 f6 02 3d 27 93 9c 3d
       -0.04294441 0.12269793 0.031972885 0.076452546
000100 3f 54 bd 3d 99 c0 13 3d 6c 90 78 3b 72 60 b1 bd
       0.09244584 0.036072347 0.003792788 -0.086609736
000110 b4 6f 5d 3d 1e a0 40 bb 03 a6 25 3e 87 0f bc 3d
       0.054061607 -0.0029392312 0.1617661 0.09182649
000120 c9 67 2b be e3 7d be 3c e6 f8 0f be 0f 32 c5 bd
       -0.1673881 0.023253387 -0.14059791 -0.096286885
000130 48 e9 01 be 72 08 d9 bc d6 cf 17 3e 1c f5 b8 3d
       -0.12686646 -0.026493285 0.14825377 0.09031126
000140 9c 89 47 3c 0d b1 7a bd 85 b3 2d be 25 6f 01 be
       0.012178805 -0.061204005 -0.16963013 -0.12640055
000150 5b af 31 be 10 38 33 bd 82 66 cc 3d 49 a7 a9 bc
       -0.17352049 -0.043754637 0.09980489 -0.02070965
000160 90 ed 18 be c1 7c 60 be af 83 ff 3c ae 37 4c 3d
       -0.14934373 -0.2192259 0.031190721 0.049857788
000170 96 60 8e bc c9 84 62 3d 87 a6 04 3e 7c ab c9 3d
       -0.01738004 0.055302415 0.1295415 0.09847161
000180 54 54 83 3d 6d 71 50 3d 3f 9f 29 bd 5d 11 31 3b
       0.06412569 0.05088942 -0.041411635 0.0027018406
000190 2c 9b 37 3e a6 f6 ad bc 7e a5 8a 3d 17 19 78 3d
       0.17930287 -0.021235775 0.067698464 0.060570803
0001a0 9e 2d 5b 3d 38 98 3e 3d dc ae a8 bd 6a 7e 0c bd
       0.0535103 0.046531886 -0.08236477 -0.034300245
0001b0 7e 1d b8 3d 71 3a c0 3d e5 e7 4a 3d 93 bc ae 3c
       0.0899 0.09386147 0.049537558 0.021330154
0001c0 f8 a7 75 bb 0d 16 1b be 2b 97 0b 3d 8c dc cd bc
       -0.003748415 -0.1514513 0.034079712 -0.025129579
0001d0 e0 8c 0d bd 30 7c cc 3d 94 a0 27 bb 42 9f 0c 3e
       -0.034558177 0.099846244 -0.002557789 0.13732627
0001e0 c5 83 bc 3a c7 c9 be bc fb c9 b2 bc 00 f4 37 be
       0.0014382532 -0.023289574 -0.021824827 -0.17964172
0001f0 69 52 79 be 86 ea ce bd 58 c2 41 be e1 ba 09 3e
       -0.24347843 -0.101033255 -0.18921793 0.13450195
000200 7d 9f 0b bf 1b b7 f6 bd 2d 5a 4b 3d 0c 5c 25 3e
       -0.54540235 -0.12046643 0.049646545 0.16148394
000210 20 48 0c bd 41 d8 4e be 31 78 59 3d 52 b1 08 bc
       -0.03424847 -0.20199682 0.05309314 -0.008343058
000220 7e a7 24 be b2 64 3c bd 94 49 9e bd 6e ee 43 be
       -0.16079518 -0.045994468 -0.07728878 -0.19133922
000230 41 1d 9b bd 74 d9 26 be 1e 77 d0 bd 4e 20 83 3b
       -0.07573939 -0.1629389 -0.1017897 0.0040016538
000240 bd e1 dd bd 74 ce 0c be 11 1e 92 3b 31 b3 96 3d
       -0.10834072 -0.1375063 0.0044591506 0.07358397
000250 5d b1 28 be f6 7f ef bd e1 9e 62 bd c9 4f 60 3c
       -0.16473909 -0.116943285 -0.0553273 0.013690897
000260 a4 96 91 3d 4d 38 4d 3d 29 79 99 3d 35 f2 8d 3d
       0.071088105 0.05010252 0.074938126 0.06930963
000270 e1 88 0b 3e fa 19 10 3e 02 f4 2e 3c 1e f3 34 3e
       0.13626434 0.1407241 0.010678293 0.17670867
000280 03 20 a5 bd 41 63 e5 bd 6d 0c b1 3d 43 7e 00 3e
       -0.080627464 -0.11200572 0.08644948 0.12548165
000290 42 40 78 bd fc 15 55 bd 74 6f 72 bd 23 12 8b bd
       -0.060608156 -0.05202292 -0.05918832 -0.06790569
0002a0 c1 4a 00 3c f5 34 67 3d 01 09 1f 3c e8 a6 a8 bc
       0.007830323 0.056446988 0.009706737 -0.0205874
0002b0 89 3c af bd a5 ee 5f bd cf e5 8f 3d 87 da 14 be
       -0.08556468 -0.05467095 0.070262544 -0.14536487
0002c0 9f 15 aa bd 20 0c 94 bd c9 cb 1c be 2f a7 0c 3e
       -0.08304905 -0.07228875 -0.15312113 0.1373565
0002d0 67 0b 3e 3e 76 8a cc bd 59 30 96 bd b1 85 3b 3d
       0.18559037 -0.09987347 -0.0733344 0.045781795
0002e0 48 e4 15 3e 12 cf 17 bd d5 06 62 3c e9 cf e6 bd
       0.14637864 -0.037062712 0.013795574 -0.112701245
0002f0 4a e8 82 bd 31 91 3d be 49 72 16 3d 48 5c 82 bc
       -0.06391962 -0.18512417 0.036730085 -0.015913144
000300 b4 75 9d bd f6 38 08 be 7c be 0f be de 16 65 be
       -0.07688466 -0.13302979 -0.14037508 -0.22372004
000310 22 0e 87 bd a0 fe 63 be 05 89 32 be 7c b8 56 3e
       -0.065944925 -0.222651 -0.17435081 0.20968813
000320 3d 6b 7b 3d 77 5b b0 bd 6a d4 17 3d d9 af 83 3c
       0.061381567 -0.086111955 0.03706781 0.016075062
000330 d9 c9 11 bc e5 c0 07 be fb 54 89 bd e5 4a 08 3e
       -0.008898222 -0.13257177 -0.06705662 0.1330982
000340 9d 03 bd 3d 6b 89 5a 3d 19 e9 92 3d 1f 34 62 bd
       0.09229205 0.05335371 0.07173366 -0.055225488
000350 9b b4 fc bd b4 6d ff bb eb af 24 3c de a3 42 bd
       -0.12339135 -0.00779506 0.010051708 -0.047519557
000360 c5 b9 29 bd 0a 17 ae bc 77 b8 46 3d 55 e2 21 3e
       -0.04143693 -0.02125122 0.048515763 0.15808995
000370 4f d3 c7 3d 3e 71 16 3e 4a 8a 4a 3e a0 20 84 3d
       0.09757101 0.14691636 0.19779316 0.06451535
000380 88 f4 a5 3d 6e f2 7c bd 8d 88 d8 bd f3 9f f5 bd
       0.08103281 -0.061754636 -0.1057292 -0.119933985
000390 ab 3d 1a 3e f2 01 05 3e a8 07 8c 3e 21 40 4b 3d
       0.15062587 0.12989023 0.2734959 0.049621705
0003a0 a9 3d c1 bd f9 01 f4 bd 1a df 61 bd 00 ed c5 bd
       -0.09435589 -0.11914439 -0.055144407 -0.09664345
0003b0 2f 95 fe 3d b0 8a 1b 3d 48 c9 a9 3d 95 57 a7 bd
       0.12430798 0.03797406 0.082903445 -0.08171002
0003c0 e4 45 8f bc 73 67 12 3d fb f0 26 3e fc 53 fd 3b
       -0.017489381 0.035743188 0.16302864 0.007730959
0003d0 ae c1 13 be b2 f7 0f be b0 59 e1 bd 47 6f 29 bc
       -0.14429352 -0.14059332 -0.11003435 -0.010341472
0003e0 34 b4 a6 3c 3a 93 a6 3b 36 20 7d 3d 3c f8 59 3d
       0.0203496 0.0050834687 0.061798297 0.05321525
0003f0 fe f3 4c be 18 e0 33 be e7 1a 63 bd 37 2a 66 3d
       -0.2001495 -0.17565954 -0.055445578 0.056192603

conv1_2_1.bias f4 [5]
000000 61 a2 c7 bd 87 76 8f 3d 64 32 b2 3d d0 3b d0 3c
       -0.09747768 0.07005029 0.087010175 0.025419146
000010 db c1 0f 3d
       0.035096984

conv1_2_2.weight f4 [5, 20, 5]
000000 64 d2 07 bd 57 a4 f5 3c ce 68 a4 bb 84 ee f9 bc
       -0.03315963 0.02998559 -0.0050173765 -0.03050924
000010 2b cd df 3d 6e 3c 9a bd 00 70 ef bd f2 b5 e3 bc
       0.109278046 -0.07531057 -0.11691284 -0.02779672
000020 dc e0 90 3d bd b6 ce bd c5 ec a4 3b 43 1a 3a bc
       0.070741385 -0.10093448 0.005033108 -0.0113588
000030 04 36 35 3d 1d 8a f7 3c be d7 9c 3d 64 52 a7 bb
       0.044240966 0.030217225 0.07658337 -0.0051062573
000040 30 a4 0f be 61 7b f5 bd 7a f9 bb 3d ee db da 3c
       -0.14027476 -0.11986423 0.09178443 0.026716199
000050 7c 84 97 3d 6d af 79 bd d1 70 1a bd 78 0e 0d bd
       0.07398316 -0.060958315 -0.037705246 -0.034437627
000060 bd d1 d0 bd ec 13 90 3c 95 d7 f2 bc 6d 67 fe bd
       -0.101962544 0.017587624 -0.029643813 -0.12422071
000070 b8 a4 a0 3d b4 3c 85 3d 6e a3 94 3d 98 0b 1e bd
       0.078439176 0.06505719 0.07257734 -0.038585275
000080 13 39 9f bc 26 99 bf bd 2b 18 93 bd 86 5e 90 3d
       -0.019436395 -0.093553826 -0.07182344 0.07049279
000090 20 cd 3a bb 54 12 5c bd 80 8c 2f 3c 7c 75 e4 3c
       -0.0028503612 -0.053728417 0.01071465 0.027888052
0000a0 a1 e8 75 bc 2a 3f 61 bd 1e 57 32 3d 6a 41 bd bd
       -0.015009076 -0.05499188 0.043540113 -0.09240992
0000b0 99 53 3a 3d cd 38 9e 3c 52 7a 11 3c 2f 16 e1 ba
       0.04548988 0.019314194 0.008879261 -0.0017172749
0000c0 0f 69 af bd 6d a8 34 bc 97 ea 2b 3d 00 03 11 bc
       -0.0856496 -0.011026484 0.04197177 -0.008850813
0000d0 5f 6b ce bd fb 06 57 bd 1f de 90 bc ad b0 4e bc
       -0.10079073 -0.05249689 -0.01768404 -0.012615365
0000e0 7f d4 c7 3d 2d aa df 3d 35 76 32 bd 00 c4 92 3d
       0.09757327 0.1092113 -0.043569762 0.0716629
0000f0 a3 77 da 3d 73 02 ae 3d bd 32 27 3d 85 be 6b bd
       0.1066735 0.08496561 0.040819872 -0.05755474
000100 d8 85 b2 3d d0 1f c2 3d 11 a2 ea bc 61 65 95 bd
       0.08716935 0.09478724 -0.028641732 -0.07294727
000110 be ea c6 3d 9e 98 cf bc ed 19 75 3c 09 e5 ba 39
       0.09712742 -0.025341328 0.0149597945 0.0003564733
000120 36 46 02 3e 17 7b 17 bd b2 5a d8 3c b4 dd b3 bd
       0.12722096 -0.036982622 0.026410434 -0.08782521
000130 fe f3 94 3d 4a 0d ae 3d 7e bc 2a bd 9c 52 b3 bd
       0.072731 0.084986284 -0.041683666 -0.08755991
000140 52 e8 2f 3d a1 64 de 3c 58 93 c5 3c 25 4d 97 bc
       0.042946167 0.027147593 0.02411811 -0.018469403
000150 3b 45 0b 3d 05 e8 b1 bd fe 56 2a bd 89 af 47 3d
       0.03400157 -0.08686832 -0.04158687 0.048751388
000160 c3 1c df bb c3 f2 09 bd 9b 2d b2 bd a0 d6 cb 3c
       -0.0068088486 -0.03367878 -0.08700105 0.024882615
000170 1f c5 10 be b6 e4 92 3c 0a 10 91 3d b5 5d cb bd
       -0.14137696 0.017931323 0.07083137 -0.099299826
000180 d5 14 02 be c9 64 82 bc 6f ce c8 bd 0d 84 8b bd
       -0.1270326 -0.015917199 -0.09804999 -0.06812296
000190 f0 2e 11 3e de 91 1b be 70 16 df 3d 31 7b 25 be
       0.14178061 -0.15192363 0.108929515 -0.16160275
0001a0 1d 93 2d bd cd c9 d2 bd 10 99 95 3d 5e 6c f4 3d
       -0.042376626 -0.10292397 0.07304585 0.11934732
0001b0 69 09 23 be 29 05 04 be 13 4c df 3e a6 48 24 3d
       -0.15921558 -0.12892593 0.43612728 0.040108345
0001c0 d1 78 4a be 18 ce cb be ab 84 72 3e bf 80 d9 bd
       -0.1977265 -0.39805675 0.23683421 -0.106202595
0001d0 c1 85 e0 bc 62 85 21 ba f3 7a cc 3d ed 32 6e bd
       -0.027407529 -0.0006161538 0.09984388 -0.058154035
0001e0 bf d5 85 bd 2c 77 85 3d 19 9f f9 bc dd 39 19 bd
       -0.065349095 0.06516871 -0.030471371 -0.0374087
0001f0 70 fc 9b bd 58 e1 dc bb 92 f4 b6 3d 53 9c 3c 3c
       -0.07616508 -0.0067407303 0.08933367 0.01151188
000200 70 35 4b bd 08 bd 14 be b3 fe ea bd f7 b3 45 bb
       -0.04961151 -0.14525235 -0.11474361 -0.0030167082
000210 fc c0 15 3e ca a3 47 3e ca 74 a8 bd 41 72 09 be
       0.14624399 0.19496074 -0.08225401 -0.1342249
000220 58 b5 2c 3d 87 06 11 3d 59 d8 c6 3c 9a ad fe bd
       0.04216513 0.035406616 0.024273084 -0.124354556
000230 a7 a6 9b bd 0a 6b 01 be 2f 16 92 bd 8e 7d f8 bd
       -0.07600146 -0.12638488 -0.071331374 -0.12133323
000240 2f 3f d6 bb a9 c9 f8 bd 85 7d a5 3d af 08 fd 3b
       -0.006538294 -0.121478386 0.080805816 0.0077219824
000250 3f 9d d8 bc e6 1f 97 3d 38 de e9 bd 56 72 8e 3d
       -0.026442168 0.07379131 -0.11419338 0.069554016
000260 99 5c 88 bc 0a a6 df bd b2 43 ab 3a f6 59 2d 3e
       -0.016645717 -0.10920341 0.001306644 0.16928849
000270 71 59 1b 3e db e3 16 bd c4 f3 af 3c 4e 60 b6 3d
       0.15170838 -0.036838394 0.021478541 0.089050874
000280 07 73 47 3d 4e a8 ca 3d 16 33 a9 3c 8f 05 7c 3c
       0.048693683 0.09895383 0.020654242 0.015382185
000290 2e e4 b6 3d 9e 29 20 3e 5f ab 02 be 2c 46 16 3c
       0.089302406 0.15640876 -0.12760685 0.009172004
0002a0 aa 72 30 3e f0 ac 18 3e 8a da d2 3d c7 1b bc 3c
       0.17231241 0.1490972 0.10295589 0.022962464
0002b0 77 77 f1 3d 4d eb 99 bd 2f ca db bd 2d 95 b7 3d
       0.11790364 -0.07515583 -0.10731923 0.08964
0002c0 f2 74 75 bd 10 88 ca 3d 76 08 ab 3d e7 39 1c 3d
       -0.05992598 0.09889233 0.08351223 0.038141157
0002d0 c9 c7 66 3e e1 04 22 3e da f3 2d be 3e ed f2 bd
       0.2253715 0.15822174 -0.16987553 -0.118616566
0002e0 27 1a 1b 3e 2d 72 36 3c f7 0b d4 bd e6 06 7e 3d
       0.15146695 0.01113562 -0.103538446 0.062018298
0002f0 9d d3 aa bd b0 6a 98 3d 1d f4 0b 3e 90 55 18 bd
       -0.08341143 0.07442224 0.1366734 -0.037190974
000300 c2 eb fd 3d eb 18 14 3d 2e cb ea 3d 20 a2 44 be
       0.12398483 0.036156576 0.11464535 -0.19202471
000310 49 95 23 3d fe ef 82 3b c2 4e 2c 3e 51 04 f4 bd
       0.03993729 0.0039958945 0.16826919 -0.11914886
000320 e2 fc a4 3c f0 04 e5 bd d7 2c ee bd 39 a7 c7 3d
       0.020140115 -0.111825824 -0.11629646 0.09748692
000330 3a 57 db bc c2 a5 19 be 16 8b 0b be de 5f f7 bc
       -0.026774991 -0.15004638 -0.13627276 -0.03019708
000340 cc 1c 1a be 38 8d 40 3e e9 47 10 be 05 08 d0 3d
       -0.15050048 0.1880387 -0.14089932 0.101577796
000350 78 25 48 3e ed fa d1 3d bd ea 24 3e ea f6 8a bb
       0.19545543 0.102529384 0.1610517 -0.00424086
000360 95 61 a7 3c 2c b4 9d bc 58 53 6c bd 89 b3 28 3c
       0.020432273 -0.019250952 -0.05769667 0.010296711
000370 45 17 f6 3c 71 6d 8a bd 47 59 92 3d 64 61 17 3d
       0.030040393 -0.067591555 0.071459346 0.036958113
000380 38 ed b7 3d e0 ad 8c bd cf 30 9c 3d bc 50 b1 bd
       0.08980793 -0.068691015 0.07626497 -0.08657977
000390 66 6f bf bc 7f 6c 3e be f4 73 cc bc d6 21 e5 3d
       -0.023368549 -0.18596075 -0.024957635 0.11188094
0003a0 a7 2f ff 3c da 8a 76 3d 08 57 f7 3d 26 80 9a bc
       0.031150652 0.060191013 0.12077147 -0.018859934
0003b0 4e 3a 38 3c 97 1a 8c 3d fe 8f c6 bd b8 7a 89 3c
       0.01124437 0.06841009 -0.09695433 0.01678215
0003c0 d2 3e 7a 3d 4f 0b 3a bc 99 a5 1b bd 4d ba 8e 39
       0.061095066 -0.011355235 -0.037999723 0.00027223155
0003d0 5d ab ac bd 0e 90 b5 3a ca f9 01 bd 3c 7e e0 3d
       -0.084311225 0.0013852136 -0.031732358 0.10961577
0003e0 1a ba d2 3d 3e d2 41 3e f6 e1 62 3d 3c 88 0b bd
       0.10289402 0.18927857 0.055391274 -0.03406547
0003f0 12 52 5b bd 27 9e 21 3c 64 94 94 bc e4 89 59 3d
       -0.053545065 0.009864367 -0.018137164 0.05311002

conv1_2_2.bias f4 [5]
000000 b5 dc ab 3d eb bb a3 3d 20 ab a0 3d 97 87 5a bd
       0.08391706 0.07994827 0.078451395 -0.053351965
000010 ee 3a fe 3c
       0.03103396

conv1_2_3.weight f4 [5, 20, 11]
000000 92 06 e7 bc 10 1f 05 be 4f 7f 45 be e2 07 db bd
       -0.028201375 -0.1300013 -0.19286846 -0.10694863
000010 ad 39 03 be 50 99 05 be cd d9 23 3d 1b 86 29 3d
       -0.1281497 -0.13046765 0.040002633 0.04138766
000020 fb 6e b6 3d 1b b6 fd 3d 76 19 27 3e 47 d6 c9 bd
       0.089078866 0.123882495 0.16318306 -0.09855323
000030 08 1f 29 bd 14 d5 63 bd 48 4c 18 be e5 92 32 be
       -0.04128936 -0.05562313 -0.14872849 -0.17438848
000040 23 18 c3 bd 5c 50 28 bd 56 7a 95 3d 02 6a e6 bb
       -0.09526088 -0.04109226 0.07298724 -0.00703168
000050 e7 01 b9 bd 13 30 1b bd b9 a4 98 3a b5 25 93 bc
       -0.09033566 -0.037887644 0.0011645771 -0.017962316
000060 77 16 92 bd 84 6d 34 be f4 3b 23 3d 5a 00 9b 3e
       -0.07133191 -0.17619902 0.039852098 0.30273706
000070 ee c8 74 3e 81 e8 63 3d 9b 8c 1c 3c 4e 3e 8f bc
       0.23904774 0.055641655 0.009555007 -0.017485764
000080 9f 35 86 be 28 f4 af bd 6d 50 be 3c 45 da f6 3d
       -0.26212785 -0.08591491 0.02323171 0.1205335
000090 6f 9f 3b 3d 1c aa 7d bd 5f 25 fc bd c4 97 10 be
       0.045806345 -0.061929807 -0.123118155 -0.14120394
0000a0 ed a4 27 be f8 04 32 3c 88 21 c4 bc 44 5b 9a bc
       -0.16371508 0.010865442 -0.02394177 -0.018842347
0000b0 ac e0 11 bd fb 91 6a bd 5f ff e8 3b 81 d2 76 3c
       -0.035614654 -0.057268124 0.0071105207 0.0150648365
0000c0 4d f2 b7 3c 56 0e e7 bc 56 77 fc bc 33 75 5f bd
       0.022454405 -0.028205078 -0.030818623 -0.05455513
0000d0 b3 c4 92 3b d3 f9 38 bd a1 9f c1 bd 4f 8f b1 bd
       0.004479015 -0.045160126 -0.09454275 -0.08669912
0000e0 ad f6 fd bd 15 12 1b bd 25 30 61 3d a3 7f 6c bd
       -0.12400565 -0.03785904 0.054977555 -0.05773891
0000f0 26 8e 46 bd b0 e3 62 be 33 e3 22 be 3f 58 0a bd
       -0.048475407 -0.22157168 -0.15906982 -0.033775564
000100 ae 5c e5 bc eb 81 c1 bd e2 97 9c be 0c c2 5c be
       -0.027998295 -0.09448608 -0.30584627 -0.21558398
000110 3c a5 3f be 36 b2 91 be c2 3f 44 be bf 92 0b be
       -0.18715376 -0.28456277 -0.19164947 -0.13630198
000120 d2 6e e2 bd 35 81 a6 bd 75 25 93 bd 31 86 ab bd
       -0.110562935 -0.08130113 -0.07184879 -0.08375204
000130 ae f2 7f bc eb bf 5d bd 86 e3 d5 ba 45 5b 87 bd
       -0.015621824 -0.054138105 -0.0016318418 -0.06609205
000140 08 bc 5e bd 8f 88 23 3d dd 0a a9 bc 40 8f 84 bd
       -0.05437854 0.039925154 -0.020635063 -0.06472635
000150 df b9 e1 bd 06 b9 fd bd cf cb 96 bd c3 82 8a bd
       -0.1102178 -0.12388806 -0.07363092 -0.06763222
000160 ae 6f d8 3c 43 97 04 bd cf 41 6c 3b 7a 1f 39 3d
       0.02642044 -0.032370817 0.0036049967 0.045196034
000170 a3 fb 8d 3d ae 69 37 3d 15 60 a5 bd a9 dd b9 bd
       0.069327615 0.04477852 -0.08074967 -0.090754814
000180 cb d0 8d bd 3c 2f bc 3c 1b c8 85 bc 7f 60 4c 3d
       -0.0692459 0.022971742 -0.01633077 0.049896713
000190 90 f5 25 3c 96 12 f7 bc f9 e4 73 bd 5c e8 eb 3c
       0.010129347 -0.03016023 -0.059544537 0.028797321
0001a0 4b f5 30 3e 4a 7d 86 3d 65 08 f3 3c 6e b4 d0 3d
       0.17281072 0.06566866 0.029667089 0.10190664
0001b0 ba 0e 1a bd 50 c2 a5 bd 76 bf 44 be a8 5c 6d bd
       -0.0376117 -0.08093703 -0.19213662 -0.057949692
0001c0 22 9f f3 bd 70 05 f3 bc f0 87 71 bd 0e 85 d3 3c
       -0.118955866 -0.029665679 -0.05896753 0.025820281
0001d0 c4 a5 7b bd 3b ef d9 bb 16 be 44 bc c1 d7 32 bc
       -0.061437383 -0.006650833 -0.012008211 -0.010915698
0001e0 27 3e 54 bd f8 7f cf bd a7 8f 41 be a6 c3 34 be
       -0.051817086 -0.1013183 -0.18902455 -0.17652759
0001f0 ab a5 33 be b7 65 01 be 52 db 47 bd cc ee 81 bd
       -0.17543666 -0.12636457 -0.048793145 -0.06344375
000200 2f a7 bc 3c 82 8b 8f 3d 30 fc 83 3c e6 7b a4 3d
       0.023028938 0.07009031 0.016111463 0.08031444
000210 71 f3 99 bd 40 60 09 bd c0 a6 27 be f5 c1 e7 bd
       -0.07517136 -0.033539057 -0.16372204 -0.11316291
000220 c9 88 94 bd 19 a8 fa bd 90 ce c6 bd 26 a3 b9 bd
       -0.07252652 -0.12239093 -0.097073674 -0.09064321
000230 41 20 39 bc 5f ad 12 3d f7 5c d7 3c f8 a8 82 bd
       -0.011299194 0.03580987 0.026289446 -0.063798845
000240 ea de 0a bd df 9a 39 bd 41 5c fd bd 36 47 51 bd
       -0.033903994 -0.045313712 -0.12371112 -0.051093303
000250 1f 6b cb bd 68 91 f2 3c c0 12 76 bb 3d 1b c7 3d
       -0.09932541 0.02961035 -0.0037547797 0.09721992
000260 15 33 91 3d 5b 9d b4 3d a7 03 80 bd 6a 33 40 bd
       0.07089821 0.08819076 -0.06250697 -0.046924032
000270 e9 0f 46 bd bf bd 23 bc ea ee 50 bd 63 cb 93 bc
       -0.048355017 -0.009993969 -0.051009096 -0.018041318
000280 3d 96 04 3d c0 b3 e6 3d 14 eb 02 3e 35 c0 19 3e
       0.03236984 0.11264753 0.12784988 0.15014727
000290 d9 3d 85 3d c1 83 84 be d3 da 28 be 41 5f c6 bd
       0.06505937 -0.2588177 -0.16489725 -0.09686137
0002a0 62 76 08 3c 3c 3d fd 3a 71 58 84 3d a8 91 64 3d
       0.008329006 0.0019320617 0.06462181 0.05580297
0002b0 55 5e 5a 3c 10 b5 f3 bc e9 ad 8c bc 3f 7f 42 bd
       0.013328155 -0.029749423 -0.01717277 -0.047484633
0002c0 25 68 21 be 25 b0 2c bd 2f 58 87 bd 2f f2 9b bd
       -0.15762384 -0.042160172 -0.066086166 -0.07614552
0002d0 59 84 05 3b 87 c5 d5 3d 6c 44 0f 3e 9c 12 40 3e
       0.0020373075 0.10438066 0.13990945 0.18757099
0002e0 30 52 2e 3e 4b 28 f7 3d 19 f9 fe 3d 06 a1 af bd
       0.1702354 0.12068232 0.12449855 -0.08575635
0002f0 0d 03 a4 bc b0 27 09 bd 72 b7 dc bd ac 86 1c 3c
       -0.020020986 -0.033485115 -0.10777177 0.009553593
000300 0f 0d 03 bd 69 17 f4 3b b1 d7 2c bd 44 94 92 3d
       -0.031994876 0.00744908 -0.042197887 0.07157186
000310 b4 bd 30 bd 10 d8 86 bd e4 1e 9d bd 1b fa a4 bd
       -0.043149665 -0.065841794 -0.076719075 -0.08055516
000320 4a 0b c4 bd d6 90 8b 3c c6 f1 3f 3b 7c 5f c5 bd
       -0.09572466 0.017036837 0.0029288395 -0.09637353
000330 cb 1d ed bd 88 f2 8c bd 64 f4 9d bd 08 d2 e8 bd
       -0.11577948 -0.06882197 -0.077126294 -0.11368185
000340 16 e7 fc bd 85 6b 96 3d 95 b5 1b bd 40 c4 21 bd
       -0.12348764 0.073447265 -0.038014967 -0.0394938
000350 c5 39 c7 3d df ee 48 3d ac a7 78 3d c5 c7 01 bd
       0.097278155 0.04905593 0.06070678 -0.031684656
000360 30 25 67 bd 75 6e 18 be 24 07 42 be ad a9 37 be
       -0.05643195 -0.14885886 -0.18948036 -0.1793582
000370 c9 1b 1f bd bb ce 26 bd eb d0 b6 bd c4 26 c2 3d
       -0.038844857 -0.040724497 -0.08926567 0.0948005
000380 d4 96 c0 3d fc 7a 04 3d 29 93 a7 3d 0a ca 36 be
       0.09403768 0.03234385 0.081823654 -0.1785051
000390 dd 2a 4e bd cd 87 ae bd df 4a 62 3c bc 79 8d bd
       -0.050333846 -0.08521996 0.013811796 -0.069079846
0003a0 48 fa a4 bc 5d 91 37 3e 02 f0 83 be c9 67 34 bc
       -0.020138875 0.17926545 -0.2576905 -0.011011072
0003b0 3e 4a 51 bd d6 c4 15 be c1 02 52 3e 71 c1 ab bd
       -0.051096193 -0.14625868 0.20508863 -0.083865054
0003c0 bb 3f bd bd e3 73 90 be af 76 53 bd f5 60 0e bd
       -0.09240671 -0.28213415 -0.051626857 -0.034760434
0003d0 0d 48 6c be b9 a8 9d be af 32 4f 3e 64 16 9c 3e
       -0.2307436 -0.30792788 0.20234178 0.30485833
0003e0 2a 5d 6b bc b2 3a 40 be eb e6 87 be 80 1c 56 bd
       -0.014365474 -0.1877239 -0.26543364 -0.052273273
0003f0 22 1b c5 be f6 22 39 3d 7c c9 18 bd 69 60 bb 3d
       -0.38497263 0.045199357 -0.037301525 0.09149248

conv1_2_3.bias f4 [5]
000000 7c 89 ae b8 48 dd 3d 3d f6 af 72 3d c5 34 a4 3d
       -8.322575e-05 0.04635361 0.05924984 0.080178775
000010 e8 d3 3a 3d
       0.045612246

conv1_2_4.weight f4 [5, 20, 15]
000000 34 c8 a9 bc 1d 2d 11 3d 95 e1 dd 3c 0b d5 06 bd
       -0.020725347 0.035443414 0.027085105 -0.032918017
000010 7a 03 6f bd fe 1b a9 bc e3 7e 50 3d 63 fb f7 bc
       -0.058352925 -0.02064323 0.05090226 -0.030271238
000020 dc 9a 81 bc 27 5c 5b 3c dd 23 a9 bc 89 0b 18 3d
       -0.015820913 0.01338867 -0.020646984 0.037120376
000030 6f 12 45 3d 0d f4 a7 3c 1e 4a 3e bd 2e ae 6d bd
       0.048113283 0.020502115 -0.046457402 -0.05802744
000040 2e 61 a0 bd 19 a9 38 3d a6 7d c6 bc 60 82 d5 bc
       -0.078310356 0.04508314 -0.024229836 -0.026063144
000050 6a 2a 0e 3d 08 ff a1 bd 48 8b 71 bb 13 ab 6f 3d
       0.034708418 -0.079099715 -0.00368567 0.05851276
000060 9d bf b1 3c e3 86 ce 3c dc 15 91 bd 22 57 c4 bd
       0.021697814 0.025210803 -0.070842475 -0.09586932
000070 0b 8e 8a bd f1 9b 23 be 16 b9 dd 3e db c9 2e 3e
       -0.06765374 -0.15977456 0.43305272 0.17069189
000080 ca 2d 97 3e 23 53 83 3e a0 b7 8a 3e 1c 5a a9 3e
       0.29527122 0.25649366 0.2709322 0.3307656
000090 38 da a9 3e 1e 7a 8a 3e 3f 2a 82 3e 11 2c 3b 3e
       0.331743 0.27046293 0.25422856 0.18278529
0000a0 08 26 a6 3e de f9 35 3e bb 3a 78 3d 60 f1 aa 3e
       0.3245089 0.17771098 0.060602885 0.3338728
0000b0 91 72 91 3e db 12 ad 3c 50 09 13 3d 8e 6c 99 bc
       0.2840772 0.021127155 0.035897553 -0.01872852
0000c0 f9 8d c6 3c ed bb e3 3c 13 e2 52 3d 3f fe a4 3b
       0.02423762 0.027799571 0.051485132 0.0050351913
0000d0 67 68 99 ba 85 48 c3 bd b8 98 b5 3a dd 12 6c 3d
       -0.0011704088 -0.095353164 0.0013854718 0.057635177
0000e0 68 4e 81 3d 79 01 23 bc 35 dc bd 3d 17 e6 41 3c
       0.06313783 -0.009949082 0.09270517 0.011834643
0000f0 83 8b 2b bb cd 1c 2b bd e3 dd b9 ba e7 16 48 3d
       -0.0026175685 -0.041775513 -0.0014180507 0.048849966
000100 e5 b8 1e 3d 19 7e c7 bc a4 9c 0f bd 3a 27 57 3b
       0.038750548 -0.02435212 -0.035061494 0.0032829777
000110 e2 e7 36 3d 9e 25 92 3d 4c 05 83 3d d3 d0 3a 3d
       0.044654734 0.07136081 0.06397495 0.045609307
000120 02 c4 20 3e b9 5b 1b 3e 52 1e b5 3d ae 32 21 bd
       0.15699771 0.15171708 0.08843674 -0.039354973
000130 6a 31 b3 bc f3 ef 5d bc 43 31 c0 3c ed cd 17 3e
       -0.021874148 -0.013545978 0.02346099 0.14824648
000140 d0 c4 19 3e 1b a6 6a 3e 5a 42 19 3e d1 6e 44 3d
       0.15016484 0.22914927 0.14966717 0.047957245
000150 33 9f 0c 3c 07 38 df 3d 4d f5 7f bd a4 bf 51 bd
       0.008582878 0.10899358 -0.062489796 -0.051208153
000160 a1 44 0c 3d 8c 8f 0e 3e 10 1c 41 3b ff 37 d3 3c
       0.034245137 0.13921946 0.002946619 0.025783537
000170 8a 6d 13 3d 45 40 6a bc 71 2a 70 3c 76 18 17 bd
       0.035993136 -0.01429755 0.014658556 -0.036888562
000180 cf 48 c9 bd 47 98 5d 3d e6 a0 5c 3d 60 5c 4e bd
       -0.0982834 0.0541003 0.053864382 -0.050381064
000190 27 2d 24 be 04 18 b8 bd 2a a2 a1 bd 78 0a 7d be
       -0.16032849 -0.089889556 -0.078922585 -0.24711025
0001a0 97 33 8f be 87 71 f9 3d 42 ef 99 3d 90 b0 43 bc
       -0.27969047 0.12179857 0.07516338 -0.011943951
0001b0 38 91 22 3d e8 c6 76 bc cf 91 5a bb b2 ca 06 3d
       0.039689273 -0.015062071 -0.003335107 0.03290815
0001c0 e7 fa 26 3e 1e eb b5 3d 60 60 27 3e af 64 9b 3d
       0.16306649 0.08882736 0.16345358 0.07587563
0001d0 5a e2 54 3e e2 27 22 3e 4b 72 ef 3d e7 75 1e 3d
       0.20789471 0.15835527 0.116917215 0.03868666
0001e0 3e 73 8e 3c f3 af 2a 3d 31 73 3f 3b 49 cf c7 bc
       0.017388936 0.041671705 0.0029212947 -0.024390833
0001f0 4d 66 e0 ba e9 bb 90 3d 39 c7 5d 3b f3 30 e7 3d
       -0.0017120332 0.07067091 0.003384067 0.11288633
000200 4f 0b cb 3d f6 75 9c 3d 32 85 16 3e e6 9a 49 3e
       0.09914266 0.07639687 0.14699247 0.19687995
000210 ba 5c 5d 3e f3 49 32 3e 7f 10 3a 3e 4e 2d 18 3d
       0.21617404 0.17411022 0.18170355 0.03715258
000220 79 76 54 3c d9 d8 d3 3c fe ff 41 3d 6b d0 e5 3c
       0.012967699 0.025860237 0.047363274 0.028053483
000230 35 31 02 3d b7 e0 93 3b 00 9b 02 3d 2b 38 a5 bc
       0.03178521 0.004512872 0.0318861 -0.020168385
000240 fb 8b 47 bd dd d3 a5 bd 40 8f cf bd 41 69 ea bd
       -0.04871748 -0.0809705 -0.10134745 -0.11445857
000250 a5 c6 1b be 78 18 0d be 20 0e e9 3c d6 94 0f 3d
       -0.15212496 -0.13778865 0.028449118 0.03505405
000260 88 e2 8d 3c 09 f3 38 3c 1a 25 1c 3d 8e c0 e2 3c
       0.017319933 0.011288413 0.03812132 0.027679708
000270 21 9f e5 3b c3 dc b0 bc c2 2a 1e bd 1c 1c 18 bd
       0.007007495 -0.021589642 -0.038614996 -0.037136182
000280 f5 dd 1b be 29 c9 d4 bd db 49 46 be 4c 7b a6 be
       -0.15221389 -0.10389931 -0.19364111 -0.32515943
000290 9d 17 ab be 61 b3 58 3d bd 62 b8 3d 12 ef 60 bc
       -0.33416453 0.052905444 0.09003208 -0.013728874
0002a0 0a 5a 4c bd 57 df d4 3c f1 75 f7 bc 00 9f 6d bc
       -0.049890555 0.025985403 -0.030207606 -0.014503241
0002b0 5c 82 b2 ba 6c 74 d0 bc b2 a0 5b 3c 31 51 bf 3d
       -0.0013619172 -0.02544614 0.013405012 0.09341658
0002c0 c5 63 93 3d d1 61 f0 3c 05 4e 4f bb 23 32 13 be
       0.07196764 0.029343517 -0.0031632197 -0.14374594
0002d0 05 68 b2 bc 9a 6d 87 3d 96 f8 25 3d a3 4e 8a 3c
       -0.021778116 0.06612702 0.040520273 0.0168832
0002e0 19 d3 44 bc 31 5c 51 bd af d8 b9 3b 54 5a 51 3d
       -0.01201322 -0.05111331 0.0056715827 0.051111534
0002f0 8e a7 5a bd 83 5c 57 ba 4e 3d f3 3d 01 9a 9d 3d
       -0.05338245 -0.00082153844 0.11876927 0.076953895
000300 c1 2c af 3c 02 d2 21 3c 1b 42 3c bd 66 f4 ae b7
       0.021383645 0.00987673 -0.04596148 -2.0856223e-05
000310 95 02 06 bc 45 73 00 3a fa 00 3b bd 7c 2e 3e bc
       -0.008179327 0.0004899989 -0.04565523 -0.011607762
000320 19 ea 9f bd 08 9e a7 bd 35 7d 3d bd 9e 51 18 3d
       -0.078083225 -0.08184439 -0.046261985 0.03718721
000330 fa d1 25 3d 22 a1 95 3c 5a ad 64 bd ce c2 0a bd
       0.040483452 0.01826531 -0.055829383 -0.033877186
000340 21 7f f4 bd 19 d4 41 be ac 8b e2 ba da 44 e0 bc
       -0.119383104 -0.18928565 -0.0017284057 -0.027376581
000350 a8 9e 59 bd e1 7d 96 bb fc 97 95 bc 08 46 04 3d
       -0.053129822 -0.0045926427 -0.018260948 0.03229335
000360 fd 2d 9e 3c 18 53 80 3d 0e 9f d0 bc 03 4f 84 bc
       0.019309038 0.06265849 -0.025466468 -0.016150957
000370 26 a3 73 bd a6 3e 8d bd 17 5c 01 be 3c e7 24 be
       -0.059481762 -0.06896715 -0.12632786 -0.16103834
000380 0c aa 37 be bb e7 c5 3d e3 0a 3c 3e c2 14 5a 3d
       -0.17935961 0.0966334 0.18363528 0.053242452
000390 79 5e 28 3e 2f ad 5a 3e fe bf 2a 3e d6 b3 55 3e
       0.16442288 0.21355127 0.16674802 0.20869383
0003a0 09 a0 ef 3d e5 e7 04 3e ba 8d 99 3d ff bb 9b bc
       0.11700446 0.12979086 0.07497735 -0.019010542
0003b0 67 ce fd bc 53 a3 0b 3d 0c 76 4d 3b 3d 5e 66 3d
       -0.03098221 0.034091305 0.003135088 0.056242216
0003c0 ad e8 38 bc ad 7d d7 bd 77 47 78 bd 0b 64 c6 bc
       -0.011285943 -0.10522018 -0.06061503 -0.024217626
0003d0 e6 9b 78 bc 4b 81 8e bd 27 58 26 bd 59 18 8e bd
       -0.015173888 -0.069582544 -0.040611412 -0.06938238
0003e0 39 fd 14 3d 05 78 92 3d c5 ce 0a 3e 6c 42 b8 3d
       0.036374304 0.07151798 0.13555439 0.08997044
0003f0 23 b0 e1 3b 7d b2 ee 3d 6b 60 21 3d 5a ef 4a 3d
       0.006887452 0.11655138 0.039398592 0.04954467

conv1_2_4.bias f4 [5]
000000 33 86 8b bd 07 2c 58 bd 15 7d ff bb 39 12 22 bd
       -0.06812706 -0.052776363 -0.0077968934 -0.03956816
000010 47 da ab bd
       -0.083912425

conv1_3_1.weight f4 [5, 20, 3]
000000 9a 16 c4 3c 34 96 63 bd 96 e4 11 3e 8e a0 c0 bd
       0.023936559 -0.055563167 0.14247355 -0.094056234
000010 c0 00 9d bc 9b ed ac bd 60 57 12 3e 90 2f 2b bd
       -0.019165397 -0.08443757 0.14291143 -0.041793406
000020 d0 56 83 3c 51 8a a7 bd 3b e9 8d 3d 90 4d a5 bd
       0.016032606 -0.08180679 0.06929251 -0.080714345
000030 d1 ed a1 3d b0 d7 c1 bd 4c d1 c9 3d 9c 82 c8 3d
       0.07906688 -0.09464967 0.09854373 0.09790537
000040 29 f1 43 3d f1 9d d4 3d f7 22 c2 3b a9 7e e4 bc
       0.04783741 0.103816874 0.0059245783 -0.027892428
000050 6f a6 bd 3d 39 ac 52 bd a1 1f de bd a9 04 de bd
       0.0926026 -0.051433776 -0.108458765 -0.108407326
000060 27 1e ef 3d 89 c8 36 3d ee 0e 61 bd ca 24 f9 3d
       0.11675673 0.04462484 -0.05494588 0.1216522
000070 fc 68 b5 3d b3 38 39 3d 08 35 2b be d0 fa 0b be
       0.08857915 0.04522009 -0.16719449 -0.13669896
000080 92 51 74 bd 5f 34 33 be c5 c5 26 be 7c de 4c be
       -0.059648104 -0.17500447 -0.1628638 -0.20006746
000090 75 82 2d be 51 f6 c6 3d 57 97 0f 3e f5 4e b7 bd
       -0.16944297 0.0971495 0.14022575 -0.08950607
0000a0 19 c3 dd bd 56 99 84 be d6 2e 7a bd fb 45 2e be
       -0.108282275 -0.25898236 -0.061079822 -0.17018883
0000b0 0a 45 b3 bd 15 fc f2 bd 56 e3 18 3d c3 9e ea bd
       -0.087534025 -0.11864487 0.03732618 -0.11456063
0000c0 ab 23 a6 bd a8 df 1d bd e3 ba a9 bd 18 12 29 3e
       -0.08112272 -0.038543373 -0.08287599 0.16510808
0000d0 90 e0 50 3b 12 6f 09 be 67 39 c1 bc 01 89 06 be
       0.003187213 -0.13421276 -0.023586942 -0.131382
0000e0 f5 8d 15 be a5 0e 04 3e d4 76 9f bc b1 01 a1 3d
       -0.14604934 0.12896211 -0.019465841 0.07861651
0000f0 67 ba 89 3d f3 6c 8a 3d 7d 42 a5 bb 13 3a cf bc
       0.067250066 0.06759062 -0.0050433264 -0.025296247
000100 d4 15 ca bd 3c 03 a1 3d e1 b8 21 3e a1 17 f7 3d
       -0.09867445 0.07861945 0.15793182 0.12065054
000110 e9 d1 cb bd b4 01 12 3d 4a b8 59 3d f2 be b1 bb
       -0.099521466 0.035646155 0.053154267 -0.005424374
000120 4f d3 93 bd a8 f3 29 3c db 8e 4e 3d 79 31 e0 bb
       -0.07218038 0.010373034 0.050429206 -0.006841835
000130 7d 92 8e bd 04 83 86 3d 5b c8 59 bd ea 4a 11 3e
       -0.06961534 0.06567958 -0.05316959 0.14188734
000140 a5 0a e2 3d d9 38 33 3d 6e 1d 10 be b8 82 6d 3c
       0.110371865 0.043755386 -0.14073727 0.014496498
000150 62 aa 0e 3e 50 87 37 3e 37 b4 4d bd 46 a9 6f bd
       0.13932183 0.17922711 -0.050220694 -0.05851104
000160 00 28 22 3e 7b 61 3b 3e 88 81 b4 3d f8 43 2d be
       0.15835571 0.18298905 0.088137686 -0.1692046
000170 09 0c 9b bd 6b ed 9c 3e 1c 0c 72 bd ae c0 6c be
       -0.07570655 0.30649886 -0.05909358 -0.23120376
000180 ee 39 a0 bd b7 6a 89 3d 4f f1 07 bd 9a 28 68 3d
       -0.07823549 0.06709807 -0.033189114 0.056679346
000190 cd a9 b0 3c 05 80 8a be da c1 56 3d 39 fe 6f be
       0.021565342 -0.27050796 0.052430965 -0.23436822
0001a0 5a 55 8f bd aa 6a 13 bd fd d2 13 3e a0 72 8b 3c
       -0.069987014 -0.035990395 0.14435954 0.01702243
0001b0 ec d1 69 3d 37 4f a0 3d 26 47 b5 bd ff 94 5e bd
       0.057084963 0.07827609 -0.08851461 -0.054341312
0001c0 ee 46 89 3a 78 37 06 3e dd 9d ed bd 48 58 1f 3b
       0.0010473409 0.13107097 -0.11602376 0.0024314094
0001d0 39 d2 6c be 1f cd 27 bd 3a 56 37 3e 49 ca a7 bd
       -0.23127069 -0.040967103 0.17903987 -0.0819288
0001e0 73 88 1d bd c3 71 e5 bb 3e b5 40 3c 15 ff 9b 3d
       -0.038460206 -0.007002087 0.0117619615 0.076170124
0001f0 7c 73 ed bd 39 10 18 3d 0f f1 18 bd 7b b5 01 bd
       -0.115942925 0.037124846 -0.037339266 -0.031667214
000200 c2 4c 0a be ae ca 09 bd 10 14 e4 bd ed 26 26 bc
       -0.13505843 -0.033640556 -0.11136639 -0.010141117
000210 9b 4d a6 bd 11 8a 6c bb c6 37 51 bd 4b d5 24 be
       -0.08120271 -0.0036093036 -0.05107858 -0.1609699
000220 b3 28 b3 3d 5d 67 3f bd 08 53 b4 bd 49 6e af 3d
       0.08747997 -0.046729434 -0.088048995 0.08565957
000230 4f 16 02 be 2a e0 df 3d 95 55 0a bd a4 c3 1e be
       -0.12703823 0.10931428 -0.033773024 -0.15504318
000240 01 84 84 bd d0 4a c2 bd 68 80 7a bd b6 6a 40 3d
       -0.0647049 -0.094869256 -0.061157614 0.046976767
000250 f8 7f 9c 3d d8 ae 51 be c9 50 0a bd db ec 62 be
       0.076415956 -0.20476854 -0.03376845 -0.22160666
000260 fa 3c be bd e8 3d 70 3e 85 a1 f8 3d 5d fe f4 bd
       -0.09288974 0.23461115 0.121401824 -0.119625784
000270 f9 c3 8c 3d 24 16 cb bd 81 bb 2b be 24 b5 16 3e
       0.06873316 -0.09916332 -0.16770746 0.14717537
000280 29 96 49 3c 18 17 cb bc f1 7d 40 3e 48 20 98 bd
       0.012303867 -0.024791285 0.18798043 -0.07428032
000290 e5 c0 1b bc 8f d2 af 3c 6a 09 05 3e 0c bc 66 bd
       -0.009506439 0.021462707 0.12991872 -0.05633168
0002a0 ac e1 81 3d a0 45 0f 3e d5 12 3e 3d bc fb a1 3d
       0.063418716 0.13991404 0.04640468 0.07909343
0002b0 46 17 1d 3e cd 49 21 3e ac 45 01 3e 21 31 46 3e
       0.1534091 0.15750809 0.12624234 0.19354679
0002c0 e2 69 3e 3d c6 aa 75 3e 7c 79 26 3e 87 5c 97 3e
       0.046487696 0.23990926 0.1625728 0.2956278
0002d0 de e7 f3 3d c2 ab 80 bd e9 aa a6 3d 3f 31 ca 3d
       0.119094595 -0.0628276 0.08138067 0.09872674
0002e0 3a aa ad 3d f9 b1 0f bd 16 c7 89 3d 1b 46 e1 bc
       0.08479734 -0.035081837 0.06727426 -0.02749925
0002f0 24 52 98 3b ce 7d 19 3e 92 75 e4 3d 43 89 6e bd
       0.004648464 0.14989397 0.11155237 -0.05823637
000300 87 e5 c4 bc 36 c0 0a 3e fa a7 d1 3c fe 06 34 3c
       -0.024035228 0.13549885 0.025592793 0.010987995
000310 48 d0 bb bd 65 67 17 be 38 e9 6c 3e 21 5a 85 3d
       -0.09170586 -0.14785536 0.23135841 0.06511331
000320 d2 59 b3 bd 54 9c 68 bd c5 d7 a6 bd 82 6b f0 bb
       -0.08757366 -0.05678971 -0.081466235 -0.0073370347
000330 2a 24 f6 3d 8a 94 0b 3d 89 77 0d be e4 13 92 3e
       0.120186165 0.034077205 -0.1381513 0.285308
000340 42 17 b5 3d 85 17 55 be 58 9a 26 be 25 5b 94 bd
       0.08842327 -0.20809753 -0.16269815 -0.07243947
000350 2e 02 17 3d 97 0f 89 3d 94 9b 3d bd 69 15 4a 3d
       0.036867313 0.06692427 -0.04629095 0.049336825
000360 7a af a7 3d 54 0f ec 3d f5 a0 9a bd c0 ff 51 be
       0.081877664 0.11526361 -0.07550231 -0.20507717
000370 4c ad 12 be 4e a2 25 3e c6 48 0f 3d bf d3 6e 3b
       -0.1432392 0.16175196 0.03498151 0.0036442128
000380 10 50 30 3e 66 0c e4 bd 24 66 0c bd 9d c7 2c ba
       0.17218041 -0.11135177 -0.034277096 -0.0006591024
000390 6a de b0 3d bc 3a 64 bd 67 a6 61 bd e6 5c d8 bd
       0.08636172 -0.055720076 -0.055090334 -0.10564594
0003a0 d1 84 df 3d 9d 44 a1 3d 0f 46 89 bc f5 27 05 be
       0.109140046 0.07874415 -0.01675704 -0.13003524
0003b0 5e 77 9c 3d 23 e4 93 bb 82 c8 2c bd 4f 7d 09 3d
       0.07639955 -0.00451328 -0.042183407 0.03356677
0003c0 72 5c 0f 3e 63 04 de bd b1 cf 79 3b 8f 6a 7d bd
       0.14000109 -0.108406805 0.0038118178 -0.0618692
0003d0 0e 17 97 3d c7 af be bd 7f 5a e8 3d f7 48 15 bd
       0.07377444 -0.093108706 0.11345386 -0.036446538
0003e0 59 83 f1 3d b0 fd 96 bd b6 db c9 3c 72 32 a2 3d
       0.11792631 -0.07372606 0.0246409 0.07919778
0003f0 f0 62 83 bd 45 87 98 bc 8b a9 e0 3d 43 90 44 bc
       -0.06415355 -0.018619189 0.10969838 -0.011997285

conv1_3_1.bias f4 [5]
000000 17 09 db 3d f9 5d c2 bd de 05 16 bd 6e 48 47 bd
       0.10695093 -0.0949058 -0.03662669 -0.04865306
000010 d2 b4 b1 3d
       0.08677067

conv1_3_2.weight f4 [5, 20, 5]
000000 83 51 a4 3d 54 8e 78 3e 5f ba 37 3e 4b d7 f6 bd
       0.080233596 0.24273044 0.17942189 -0.120527826
000010 24 89 b9 bc 16 05 bb bd ca e7 54 3c f5 47 2b 3e
       -0.022648402 -0.091318294 0.012994716 0.16726668
000020 5d 02 d3 3d 43 4b 99 3d d2 d3 00 3e ad 14 16 be
       0.10303185 0.07485058 0.12580803 -0.14656325
000030 bf 3b 5a 3d 0d 18 08 be d3 8b 43 bd 72 b1 75 3d
       0.053279635 -0.13290425 -0.04774077 0.05998368
000040 68 c2 36 3e 62 c8 a1 bd 66 78 e5 3d 85 a0 eb bd
       0.17847598 -0.07899548 0.11204605 -0.11505226
000050 5e 21 ce bd 8e b4 50 3d fe 7c cf 3d 65 2e 5e 3d
       -0.10064958 0.05095344 0.10131262 0.054243464
000060 9e a3 84 bc 36 eb 56 bc f9 58 d4 3d 99 cf be 3d
       -0.0161913 -0.013117602 0.10368533 0.0931694
000070 ef f7 be 3d fc f4 19 bd cc 31 2a 3e b5 ce b4 3d
       0.09324633 -0.03758715 0.16620559 0.08828489
000080 3a 4b 0b 3e d3 e7 2c be 6d 08 07 3e 36 b4 bb bd
       0.13602915 -0.16885309 0.13186808 -0.09165232
000090 5b 70 c2 3d d3 3f 12 bb 39 0f 03 3b ef a0 a4 3d
       0.09494086 -0.0022315874 0.0019998087 0.08038508
0000a0 26 4f 1e 3e 6a a9 61 3e e4 84 4a bd d0 76 b6 bd
       0.1545988 0.22037283 -0.04944314 -0.089093804
0000b0 d2 87 1a bb a7 37 a4 3e 68 3f 3d 3e 0f 7f 8d 3b
       -0.002357949 0.3207371 0.18481219 0.004318125
0000c0 1f b5 5b be a2 1e 5b be fe 22 87 bd 5d 75 90 3a
       -0.21455811 -0.21398404 -0.06598471 0.0011021305
0000d0 29 7f 86 3d 8c 81 bb 3e dd c2 ac 3e 9d 05 9a be
       0.065672226 0.36622274 0.3374242 -0.30082408
0000e0 d3 05 fd bd 9e 37 1b be c9 91 e6 bd 63 17 a8 3e
       -0.123546265 -0.15157935 -0.11258275 0.32830343
0000f0 b0 9f a4 bd c5 1e 08 3c 3e bb 13 be 00 c9 3c bc
       -0.080382705 0.008308117 -0.14426896 -0.0115225315
000100 e7 ae d4 3c 33 ad 86 be ce 33 bc be 03 95 91 be
       0.025962306 -0.26304016 -0.36758274 -0.28434
000110 20 f5 f3 bd e2 fa 5a 3e 99 70 d6 bd e3 aa 92 3e
       -0.11911988 0.21384767 -0.10470695 0.28646
000120 48 2f 3d 3d cd 54 74 3e 1d b1 76 3e 2d eb 20 bd
       0.04618767 0.23860474 0.24091001 -0.03928678
000130 38 56 de 3d ca 81 c8 3d c5 62 ba bd f5 ac a9 bc
       0.10856289 0.0979038 -0.0910087 -0.020712355
000140 d6 1d 9c bd 61 1d b3 3d 9c 13 b6 bd 8a a1 eb bc
       -0.07622878 0.08745838 -0.08890459 -0.028763551
000150 83 03 94 3b 5a ac aa 3d b4 b1 17 be 1e b0 3c be
       0.00451702 0.08333655 -0.14813882 -0.18426558
000160 23 e4 95 be f7 c9 4b be 3f ac 23 be 83 b8 42 be
       -0.29275617 -0.19901262 -0.15983675 -0.19015698
000170 2c d3 b4 bd 2c 24 80 bd 2c d8 a4 3b 5e a7 ad bd
       -0.0882934 -0.06256899 0.0050306525 -0.084791884
000180 38 61 af 3b 88 56 30 be cb 54 94 be cb c7 8f be
       0.0053521655 -0.17220509 -0.28970942 -0.28082117
000190 94 03 de 3c 7d 86 0e bd 9e 64 85 bd 1e 2d e0 bd
       0.027101316 -0.034796227 -0.06513332 -0.109461054
0001a0 c9 a9 a7 3d b7 f7 aa bd 13 1b ba bd 90 86 21 3d
       0.08186681 -0.08348029 -0.09087195 0.03943497
0001b0 93 8f 46 3d 51 98 ba bd f5 e5 60 bd 85 ae e7 bd
       0.048476767 -0.09111083 -0.054906804 -0.11312584
0001c0 9a be 9f 3d 5d d2 57 bb a9 33 14 bd 0a fa 99 bd
       0.07800026 -0.0032931783 -0.03618208 -0.07518394
0001d0 9f 7f 74 3d d1 95 99 3d 36 10 56 3d 5d 5b c5 bd
       0.05969202 0.07499278 0.052261554 -0.09636567
0001e0 13 73 cc bd ef 88 9f 3d e5 78 01 3d 09 f8 6b 3d
       -0.09982886 0.0778979 0.031609435 0.05760959
0001f0 2d 83 e4 3a ab d5 e6 bd dd 43 f6 3c ea d5 77 3d
       0.0017434113 -0.11271223 0.030061657 0.06050674
000200 2b fe 16 3d d4 8e 1a bd 6f 11 3a b9 ac 68 e5 bd
       0.036863487 -0.037733868 -0.00017744837 -0.11201605
000210 b3 b5 82 bd 8d 2d bd 3d 78 87 63 3c 1d 56 bb bd
       -0.063823126 0.09237204 0.013887279 -0.09147284
000220 fd c6 a5 3d b4 8b a1 3d d0 39 9e bd 7d 44 a2 3c
       0.08094595 0.078879744 -0.077258706 0.019808048
000230 a8 72 1b bd 57 e6 7c bd ee 80 bb 3d cc 52 e0 3d
       -0.03795114 -0.061743107 0.09155451 0.10953292
000240 e0 8f 03 3d 10 eb 45 3d 9a 91 c9 bc 66 68 cf bd
       0.03211963 0.048319876 -0.024605561 -0.10127334
000250 87 72 4c 3d 7c 84 0f 3e 18 59 e9 bd 44 1c 27 3c
       0.04991391 0.14015383 -0.113939464 0.01019961
000260 c7 12 f4 bd ae 59 b4 bd 4c 0a 1c bd ef 2b 49 bd
       -0.11917644 -0.088061675 -0.038095757 -0.049114164
000270 ca b1 11 3d 48 6e 5f bd 9c 77 b9 bd 51 29 e3 bd
       0.035569943 -0.05454853 -0.09056017 -0.11091865
000280 35 12 a4 bd 47 b5 55 3c 4f de 14 be c5 a6 3e bd
       -0.08011285 0.013043708 -0.14537929 -0.046545763
000290 da c2 14 bd 07 e2 da bd 19 fe 46 be 75 48 b5 bd
       -0.036318637 -0.106876425 -0.19432868 -0.08851711
0002a0 32 57 5f be e6 ad 8f be f4 12 f4 bd 1a c6 5e bd
       -0.21810606 -0.2806236 -0.119176775 -0.054388143
0002b0 08 e1 39 3d 40 f6 be bd 73 26 6c 3d df 40 d8 bd
       0.045380622 -0.09324312 0.057653856 -0.10559248
0002c0 39 27 51 bd 91 93 a5 b9 01 74 39 3c aa eb 36 be
       -0.051062796 -0.00031581198 0.011319161 -0.17863336
0002d0 72 03 08 bc d7 76 e1 3d 6b af 9a 3d 50 c5 00 3e
       -0.008301603 0.11008995 0.075529896 0.12575269
0002e0 6c 76 b2 bd 31 e3 f0 3c 4b 21 dd 3c 68 9c 50 3d
       -0.087139934 0.029405208 0.026993414 0.05093041
0002f0 42 f9 ae 3d 33 af c2 3d a1 a5 dd 3c a2 62 3b 3d
       0.08543636 0.09506073 0.027056517 0.04574836
000300 f5 84 17 bd ae fd cf 3c e8 6c b2 3c 4d 0b f3 bd
       -0.036992032 0.025389519 0.021780446 -0.1186739
000310 fb 8f 9b bc b5 a6 80 bc ac 70 b6 3c ff e7 da bd
       -0.018989554 -0.015704492 0.022270523 -0.10688781
000320 cf de 87 bd bf 8f 3a 3d ec fa a8 3d f8 3d 49 bd
       -0.06634294 0.045547243 0.082509845 -0.049131364
000330 37 d1 3e bd ff a5 6a 3d 1a 32 a0 3b bb d3 34 bd
       -0.04658624 0.057287212 0.004888785 -0.044147234
000340 cb fc 19 bd ed 26 62 bd 2f 43 aa bc 31 d7 c4 3d
       -0.037594598 -0.055212904 -0.020783989 0.09611357
000350 32 bb c8 3d 96 bc 95 3d 81 d4 8f bd 84 62 3d 3c
       0.0980133 0.073113605 -0.07022954 0.0115591325
000360 22 3a 48 3d c9 0c e0 ba 50 3c b2 bd 56 48 ca 3d
       0.048883565 -0.0017093654 -0.0870291 0.09877078
000370 4f bc 55 3d 70 a0 0a 3d 9c 26 32 3d 85 d9 cd 3c
       0.05218154 0.03384441 0.043493852 0.025128135
000380 8f ec 0d 3d 86 3a 5e 3d 29 3e 85 3d bc 7e 87 3d
       0.034649428 0.05425503 0.06505997 0.066159695
000390 c5 49 c0 3d 87 4b d5 3d ef 5d c4 3d ea 6a 82 3d
       0.093890704 0.10414796 0.09588229 0.063680485
0003a0 96 3d d7 39 c1 c2 65 3c 76 4f ac 3d 21 8e 38 3d
       0.0004105388 0.014023484 0.084135935 0.04505742
0003b0 18 be 4c bd 88 6c ab 3d 6d b5 03 bd 52 7c 3d 3d
       -0.049985975 0.0837031 -0.032155443 0.04626114
0003c0 b0 fc 54 bd 3b ca af 3d 80 d5 6d 3d f4 09 49 bd
       -0.051998794 0.08583494 0.058064938 -0.049081758
0003d0 7a f9 70 3d fe 65 bd 3c 46 d4 b0 bc 30 53 be bd
       0.05883167 0.023119923 -0.021585595 -0.092932105
0003e0 b5 a4 8c bd fe 0f 29 bc 8e 58 b7 3d 75 1b b8 3b
       -0.06867353 -0.010318754 0.08952437 0.0056185075
0003f0 e2 90 b6 3d dc 96 40 3e a1 56 92 bb 08 89 93 bc
       0.08914353 0.18807548 -0.0044658934 -0.018009678

conv1_3_2.bias f4 [5]
000000 31 90 24 3d 63 28 a7 3d ab c0 c6 3d 3a a0 ae bc
       0.040176574 0.08162 0.09704717 -0.021316636
000010 f8 10 95 3d
       0.07278627
