EEGDenoisenetTraining/checkpoints/deepseparator/checkpoint_epoch_20.pth (torch, 503337 bytes, 301 tensors)

conv1_1_1.weight f4 [5, 1, 3]
0	0x3f07f390	0.5310602
1	0x3d824f92	0.06362833
2	0x3f02ce75	0.5109628
3	0xbeb3c61a	-0.35112077
4	0x3ef46e92	0.47740608
5	0xbd4953b1	-0.04915208
6	0x3d6af2c2	0.05736042
7	0x3edb10e8	0.42786336
8	0xbed4f250	-0.4159112
9	0x3ea2d689	0.31804302
10	0x3e737d25	0.23778208
11	0xbefa60e3	-0.48902044
12	0xbf15609e	-0.5835055
13	0x3e4046db	0.18777029
14	0xbd9f70f4	-0.07785216

conv1_1_1.bias f4 [5]
0	0xbe3f7149	-0.18695559
1	0x3e27ead9	0.16398181
2	0xbf08d208	-0.5344548
3	0x3e7bc89d	0.24588247
4	0x3eaefb9b	0.34176335

conv1_1_2.weight f4 [5, 1, 5]
0	0x3eb900b4	0.3613335
1	0x3beaf6b1	0.007170521
2	0x3d73b813	0.05950172
3	0xbf031052	-0.5119678
4	0xbe54e80f	-0.20791648
5	0x3f00327d	0.5007704
6	0xbed867f8	-0.42266822
7	0xbdf31f30	-0.11871183
8	0x3edb7a32	0.42866665
9	0x3ead4be0	0.3384695
10	0xbeab3f9b	-0.33446965
11	0xbe434e42	-0.19072822
12	0xbedc09b0	-0.4297614
13	0xbe259e6e	-0.16173717
14	0x3cc23e5a	0.023711372
15	0xbe2be3b3	-0.16786079
16	0xbeb00a23	-0.34382734
17	0x3dde8697	0.10865515
18	0xbec08bd0	-0.37606668
19	0xbe6bf320	-0.23041964
20	0xbdb9ae89	-0.09066493
21	0xbea1022c	-0.3144697
22	0x3e162607	0.14662944
23	0xbe3c0316	-0.18360552
24	0x3f06c946	0.5265087

conv1_1_2.bias f4 [5]
0	0x3b6ab17b	0.0035811353
1	0x3d182090	0.03714043
2	0xbe56e9ed	-0.20987673
3	0x3e26591f	0.16244934
4	0x3ed42754	0.41436255

conv1_1_3.weight f4 [5, 1, 11]
0	0x3dc2c1ce	0.095096216
1	0xbc8c0a00	-0.017094612
2	0xbdc860c8	-0.097840846
3	0x3e8bf57d	0.2733573
4	0x3ea21ad6	0.316611
5	0x3d9c0577	0.0761823
6	0xbe24e2f9	-0.16102208
7	0x3e994798	0.29937434
8	0xbdaece58	-0.08535451
9	0x3e747407	0.23872386
10	0x3e920556	0.28519696
11	0xbe469e0c	-0.19396228
12	0x3d426925	0.047463555
13	0x3e8a957c	0.27067173
14	0x3e83bcbd	0.25729933
15	0x3d65c7c5	0.05609872
16	0x3e49b18f	0.1969664
17	0xbcde5753	-0.027141249
18	0xbdc6e45b	-0.09711524
19	0x3e4deaee	0.2010915
20	0x3d1ff599	0.03905258
21	0xbe3e863f	-0.18605898
22	0xbde86235	-0.113468565
23	0x3e775954	0.2415517
24	0x3d8a086d	0.06739888
25	0x3dbe9af4	0.09306899
26	0x3e668f3f	0.22515582
27	0x3e374339	0.17896737
28	0x3d7cb20a	0.06169323
29	0xbcc682c7	-0.024232281
30	0x3e9f4c5a	0.3111294
31	0xbeafbdea	-0.3432458
32	0xbe1c045c	-0.15236038
33	0x3df80c4c	0.121117204
34	0x3e9f14ce	0.3107056
35	0x3e9a4667	0.30131838
36	0xbe44459d	-0.1916718
37	0x3dd811f3	0.105502985
38	0x3e8e8c5c	0.2784146
39	0x3e2f01f1	0.17090584
40	0x3e4432b2	0.19159964
41	0xbe6ec0fb	-0.23315804
42	0x3ec1a737	0.37822887
43	0x3e5e2e6a	0.21697393
44	0xbb11ac55	-0.0022227962
45	0x3dd476d2	0.10374226
46	0xbe42d751	-0.19027449
47	0x3e6d318d	0.23163433
48	0x3ea257ef	0.31707713
49	0x3dcc2614	0.099682
50	0x3e5821ec	0.2110669
51	0x3e86c04b	0.26318583
52	0x3ea39588	0.3195002
53	0x3ea7311a	0.3265465
54	0x3b047c00	0.0020215511

conv1_1_3.bias f4 [5]
0	0x3e1c587e	0.15268132
1	0x3d9f5388	0.07779604
2	0x3e6f9e43	0.23400216
3	0xbd15c26b	-0.036562365
4	0xbd916777	-0.070998125

conv1_1_4.weight f4 [5, 1, 15]
0	0xbe7408a1	-0.23831417
1	0xbdaba6f4	-0.08381453
2	0xbe20d830	-0.15707469
3	0xbe9fcecb	-0.31212458
4	0x3dcb3c1a	0.09923573
5	0xbe711361	-0.23542549
6	0x3d11275c	0.035437927
7	0xbe3e8d58	-0.18608606
8	0x3e65e285	0.22449692
9	0x3ca7bbd6	0.02047531
10	0x3cfcaf26	0.030845236
11	0x3d9f06e6	0.07764988
12	0x3e4c569a	0.19954911
13	0xbdb66a6e	-0.089070186
14	0xbe6d73f8	-0.2318877
15	0xbdde9ad3	-0.10869374
16	0x3e4c11f4	0.19928724
17	0x3cdf7d7c	0.027281515
18	0xbe04d1b3	-0.12970619
19	0x3b865b6b	0.0041002533
20	0xbcaa72c0	-0.02080667
21	0x3e426bee	0.18986484
22	0x3e2ba450	0.16761899
23	0xbd34351e	-0.04399597
24	0xbdbcbc95	-0.09215657
25	0x3e7b9be3	0.24571185
26	0x3e7220ab	0.23645274
27	0xbce1a95c	-0.027546577
28	0x3e802b14	0.25032866
29	0x3e246de9	0.16057552
30	0xbdb9e795	-0.09077374
31	0xbd8d3ae9	-0.06896002
32	0x3e14ab48	0.14518464
33	0xbe7fe512	-0.24989727
34	0xbe014bc6	-0.12626562
35	0x3bff7658	0.00779609
36	0x3e3fc51a	0.18727532
37	0x3e16e1d5	0.14734586
38	0x3dbb0caa	0.09133275
39	0x3d2d9819	0.04238138
40	0x3d8ee49b	0.06977197
41	0x3c4e8b11	0.012606398
42	0xbe8051ad	-0.25062314
43	0xbdbcab88	-0.092124045
44	0xbe3241fa	-0.1740798
45	0x3e32c4d4	0.17457896
46	0xbe425a9c	-0.18979877
47	0x3dd50499	0.104012676
48	0xbdc616f9	-0.096723504
49	0x3db0bc22	0.086296335
50	0xbd5946ba	-0.053045966
51	0x3e5ae0bb	0.2137479
52	0x3df4bce4	0.119500905
53	0xbedda404	-0.43289196
54	0xbe543a1e	-0.20725295
55	0x3e307a90	0.17234254
56	0x3ddfc6f9	0.10926623
57	0x3cb780cb	0.02240028
58	0xbe568450	-0.2094891
59	0x3e33434e	0.17506143
60	0x3e4f3f51	0.20238997
61	0xbe67777a	-0.2260417
62	0x3e6e2f82	0.2326031
63	0xbda938c5	-0.08262781
64	0xbdae724d	-0.08517895
65	0x3e47ac72	0.19499376
66	0xbe578f6c	-0.21050805
67	0xbe6b4d06	-0.22978601
68	0xbe543ce8	-0.20726359
69	0x3e6a47b8	0.22878921
70	0x3e021987	0.1270505
71	0x3e828f15	0.25499788
72	0xbcbd52d9	-0.023110794
73	0x3ddbc3b3	0.10730686
74	0x3dfce39d	0.12348101

conv1_1_4.bias f4 [5]
0	0xbe274ceb	-0.16337936
1	0xbe8b6b9c	-0.27230537
2	0x3e657737	0.22408758
3	0x3e85fa79	0.26167658
4	0x3e31ff35	0.1738251

conv1_2_1.weight f4 [5, 20, 3]
0	0xbe1e39ac	-0.15451688
1	0xbdac6702	-0.08418085
2	0xbe07ab16	-0.13248858
3	0xbdc039dd	-0.093860365
4	0xbb5accd2	-0.0033386243
5	0x3cb44de6	0.022009801
6	0xbe627052	-0.2211316
7	0xbe04ab09	-0.1295587
8	0xbdaf8baa	-0.08571561
9	0xbd6fb05d	-0.058517803
10	0xbcdba338	-0.026811227
11	0xbbf7af6c	-0.0075587537
12	0x3bbb3e00	0.005714178
13	0x3dc5aa14	0.096515805
14	0xbdd1ecbe	-0.10250233
15	0x3c99c3e9	0.018770175
16	0xbcc7930b	-0.024362108
17	0xbe071e9d	-0.13195272
18	0xbcef9aca	-0.029248614
19	0x3c54dec9	0.012992569
20	0xbd6bc122	-0.057557233
21	0xbdeb0e8b	-0.11477383
22	0xbc35f438	-0.01110559
23	0xbb32cdbc	-0.0027283272
24	0x3d21a125	0.03946032
25	0xbdadca85	-0.08485893
26	0x3cdef37f	0.027215717
27	0xbdf7c0c3	-0.12097313
28	0xbe375f93	-0.17907552
29	0xbdbadf7b	-0.09124657
30	0xbe14560d	-0.14485951
31	0x3daf3a25	0.08556012
32	0x3a3aecb4	0.00071306084
33	0x3db119c4	0.086474925
34	0x3cddf98a	0.027096529
35	0xbe25bd5c	-0.16185516
36	0xbc8ddb6f	-0.017316548
37	0xbd85eb7f	-0.06539058
38	0xbdc64b0c	-0.09682283
39	0xbdd26748	-0.102736056
40	0xbd2ee0f5	-0.042695004
41	0x3de64930	0.11244428
42	0x3d97e6c0	0.07417059
43	0xbdf60313	-0.12012305
44	0x3cfc1504	0.03077174
45	0x3d7169ca	0.05893878
46	0x3db4d731	0.08830107
47	0xbe1317cb	-0.14364545
48	0xbde0b332	-0.10971679
49	0x3d6c5a28	0.057703167
50	0xbdbeeb9c	-0.09322283
51	0xbbbd798e	-0.0057823127
52	0xbe2f4b37	-0.17118536
53	0x3d8aa8ed	0.06770501
54	0x3d09b6ec	0.033621714
55	0x3db13561	0.08652759
56	0x3cb8f0d1	0.022575768
57	0x3e0a888f	0.13528655
58	0x3b66272b	0.003511856
59	0x3de4bb58	0.111685455
60	0xbdbd0fb3	-0.0923151
61	0x3e015d46	0.12633237
62	0xbcb5337c	-0.022119276
63	0x3dff11b0	0.124545455
64	0x3d81dff5	0.063415445
65	0x3deef49c	0.11667749
66	0xbe0a45e5	-0.13503225
67	0xbc63a781	-0.0138949165
68	0x3c2a6694	0.010400433
69	0x3d2a0bdf	0.041515227
70	0x3df5d3fc	0.120033234
71	0x3de5b315	0.11215798
72	0xbe15e34c	-0.14637488
73	0x3ccd513a	0.025063146
74	0xbdf97276	-0.12180035
75	0xbdb2bc4b	-0.0872732
76	0xbdd998f6	-0.10624878
77	0x3d1945a6	0.037419938
78	0x3d76d573	0.060262155
79	0x3d1dfd53	0.038571667
80	0xbd0af8fc	-0.033928856
81	0xbd9f5f12	-0.07781805
82	0xbe3d1a0b	-0.18466966
83	0xbe051560	-0.12996435
84	0xbe3512ae	-0.17682907
85	0xbd535c8e	-0.05160194
86	0x3dcfc2ec	0.101446
87	0x3cb317fa	0.021862019
88	0xbe3d0e36	-0.18462452
89	0xbe632fdc	-0.22186226
90	0xbc7eff76	-0.015563836
91	0x3bd695a8	0.006548602
92	0xbcce73d2	-0.025201712
93	0xbd407ffd	-0.04699706
94	0x3d0ba39d	0.03409158
95	0x3d98768f	0.07444488
96	0x3c87bab3	0.016568517
97	0xbbde58d5	-0.006785492
98	0xbdc2f32a	-0.09519036
99	0xbd4800e5	-0.048828978
100	0x3ddfd292	0.10928835
101	0xbda3cea6	-0.079983994
102	0x3b0c401e	0.0021400522
103	0x3c867df1	0.016417475
104	0x3c012024	0.007881198
105	0x3cdf5264	0.027260967
106	0xbdc9aeb8	-0.09847778
107	0xbd5d0a2a	-0.05396477
108	0x3d1fbc90	0.038998187
109	0x3cdcba01	0.026944162
110	0xbc34f37e	-0.011044381
111	0x3d843064	0.06454542
112	0x3d13f3fa	0.036121346
113	0xbdfc9b4b	-0.12334307
114	0x3cedf5b9	0.029047834
115	0xbd7ea3c9	-0.062167916
116	0xbd365a7e	-0.044519894
117	0x3da72b28	0.08162528
118	0xbd0bafc7	-0.03410318
119	0x3dcbc5cb	0.099498354
120	0xbc9d42d6	-0.019196909
121	0xbd0584a2	-0.03259719
122	0x3a00b105	0.00049091905
123	0xbded9b5b	-0.11601897
124	0xbdfc1de8	-0.12310392
125	0xbde3cdf8	-0.1112327
126	0xbe2d57cd	-0.16928025
127	0xbd05b1d5	-0.032640297
128	0xbe97f0b4	-0.2967583
129	0xbde364a9	-0.11103184
130	0x3da4b82f	0.08042943
131	0x3e461b60	0.1934638
132	0xbc6a088b	-0.014284263
133	0xbe22f092	-0.15912083
134	0x3d8d93d6	0.06912963
135	0xbb16bc9b	-0.0023000601
136	0xbe107e73	-0.14110737
137	0xbcb00a26	-0.021489214
138	0xbda089b7	-0.07838767
139	0xbe109a22	-0.14121297
140	0xbdee54fe	-0.11637305
141	0xbe26ca0f	-0.16288017
142	0xbdd183d4	-0.10230222
143	0x3c12c844	0.00895888
144	0xbde0e7aa	-0.109816864
145	0xbe08cbbb	-0.13358967
146	0x3c0ba2a9	0.008522668
147	0x3d850308	0.06494719
148	0xbe0d21b8	-0.13782394
149	0xbe0a4137	-0.1350144
150	0xbdef00cf	-0.11670076
151	0xbc943260	-0.018090427
152	0x3d325ea0	0.043547273
153	0xbd539169	-0.051652346
154	0x3a8b940d	0.0010648981
155	0x3d7ebed7	0.062193718
156	0x3db65ef0	0.08904827
157	0x3d87992a	0.066210106
158	0xbcec7681	-0.0288651
159	0x3d9d3b47	0.07677322
160	0xbe002d2b	-0.1251723
161	0xbe07a9c3	-0.13248353
162	0x3d4c5c30	0.049892604
163	0x3daed3f6	0.08536522
164	0xbdb9b812	-0.09068312
165	0xbd5c27b4	-0.0537488
166	0xbd65b36b	-0.05607931
167	0xbd62e210	-0.05539137
168	0xbd1e3d1e	-0.038632505
169	0xba54a747	-0.00081120845
170	0x39ebcaec	0.0004497388
171	0x3ca3a83a	0.019977678
172	0xbd29e4f0	-0.041478097
173	0xbc74c02d	-0.014938396
174	0x3da13a80	0.07872486
175	0xbdfbb76d	-0.12290845
176	0xbd573298	-0.052538484
177	0xbd887bd3	-0.066642426
178	0xbe0d6cd2	-0.13811043
179	0x3d718218	0.058961958
180	0x3dcb2b84	0.09920409
181	0xbddd4414	-0.108040005
182	0xbdcee94b	-0.10103091
183	0x3de57e7d	0.11205766
184	0x3e026361	0.12733223
185	0xbcfc2656	-0.030779999
186	0xbd33b4a8	-0.04387346
187	0xbe2ddbd2	-0.16978386
188	0xbdc7c6fd	-0.09754751
189	0xbe378677	-0.17922388
190	0x3d791d0b	0.060818713
191	0xbd33980e	-0.043846183
192	0xbd87a6c2	-0.066236034
193	0xbe13eb3c	-0.14445204
194	0xbe1630ae	-0.14667007
195	0xbe69d59a	-0.22835389
196	0xbd66c445	-0.05633952
197	0xbe34dd4e	-0.17662546
198	0xbe079369	-0.13239826
199	0x3e0c7576	0.13716683
200	0x3d5e1be4	0.054225817
201	0xbdea5176	-0.11441319
202	0x3c407d6c	0.011748653
203	0xbc0f1825	-0.008733784
204	0xbcd786a4	-0.026309319
205	0xbe1a6845	-0.15078838
206	0xbdadaf8d	-0.08480749
207	0x3e0f7892	0.14010838
208	0x3dbd3c95	0.09240071
209	0x3d0e3181	0.03471518
210	0x3d02e3e7	0.031955626
211	0xbd942a8e	-0.07234679
212	0xbdecbe8a	-0.1155978
213	0xbd701e73	-0.05862279
214	0xbd964fc0	-0.0733943
215	0xbdcfdec9	-0.10149915
216	0xbd853904	-0.065050155
217	0xbd8342e4	-0.06409243
218	0x3c696e43	0.01424748
219	0x3db8e66c	0.090283245
220	0x3d95e1b1	0.07318438
221	0x3dd04b71	0.10170639
222	0x3e1bab68	0.15202105
223	0x3c0ddde7	0.008658863
224	0x3d8321a4	0.06402901
225	0xbd8fd53b	-0.07023092
226	0xbdd42afa	-0.1035976
227	0xbe07974c	-0.13241309
228	0x3deb8836	0.115005895
229	0x3dbeae05	0.09310535
230	0x3e5d8477	0.21632563
231	0x3db51886	0.08842568
232	0xbd585154	-0.052811936
233	0xbdb78914	-0.089616925
234	0xbd9c669a	-0.07636757
235	0xbdce2c0d	-0.10066996
236	0x3d9543d6	0.07288329
237	0x3d97966b	0.07401737
238	0x3d2b6844	0.041847482
239	0xbdc1de1f	-0.09466194
240	0xbd8a191e	-0.06743072
241	0xbc5b8a2c	-0.013399642
242	0x3e183f89	0.14867987
243	0xbc217326	-0.009854114
244	0xbd7d543f	-0.06184792
245	0xbd9b62d4	-0.07587209
246	0xbd6d7a58	-0.057978004
247	0xbc82d163	-0.015968984
248	0xbb1441c8	-0.0022622216
249	0xbcfe7f4c	-0.03106656
250	0x3db3a485	0.08771614
251	0x3d9c1066	0.07620315
252	0xbe30a04b	-0.17248647
253	0xbe17ef75	-0.1483744
254	0xbd59f37a	-0.053210713
255	0x3d511f50	0.051055253

conv1_2_1.bias f4 [5]
0	0xbdd31f1a	-0.103086665
1	0x3d99730d	0.07492647
2	0x3daedf27	0.08538657
3	0x3cd45411	0.025918992
4	0x3d4b9e19	0.04971132

conv1_2_2.weight f4 [5, 20, 5]
0	0xbdbe2b85	-0.092856444
1	0x3bced43a	0.0063119205
2	0xbcedff15	-0.029052297
3	0xbd2542ff	-0.040347096
4	0x3d8ceb58	0.06880826
5	0xbbffa282	-0.007801355
6	0xbd7e4a29	-0.062082443
7	0x3c0af29d	0.008480695
8	0x3db43e59	0.08800954
9	0x3b8bbc52	0.004264393
10	0x3b493e1e	0.003070719
11	0xbd819ed9	-0.06329126
12	0x3d15f8c5	0.0366142
13	0x3e02de71	0.12780167
14	0x3e0b56f3	0.13607387
15	0x3c9a39c4	0.018826373
16	0xbdffcd7a	-0.124903634
17	0xbd75a116	-0.059968077
18	0x3de8f2a4	0.11374405
19	0x3d5dcebb	0.05415223
20	0x3dc830e1	0.09774948
21	0xbd13a5c4	-0.03604676
22	0xbc7ef784	-0.015561942
23	0xbc914c99	-0.01773672
24	0xbd987cf4	-0.07445708
25	0x3cbf1e30	0.023329824
26	0xbc977cd7	-0.018492145
27	0xbdbd8838	-0.09254497
28	0x3df9a77d	0.12190149
29	0x3e058d22	0.13042119
30	0x3d4384b5	0.04773398
31	0xbcb2a3bc	-0.02180659
32	0xbd3be781	-0.045875076
33	0xbdfec44e	-0.12439786
34	0xbd22de37	-0.0397627
35	0x3da9b1bc	0.08285853
36	0x3c0197e0	0.007909745
37	0xbd2d6f0c	-0.04234223
38	0x3cbc6082	0.022995237
39	0x3d30be8c	0.04315047
40	0xbc0960e2	-0.008384915
41	0xbd44e702	-0.04807187
42	0x3d4e13aa	0.05031172
43	0xbdaebb21	-0.08531786
44	0x3d737fa0	0.059447885
45	0x3d243a02	0.040094383
46	0x3c209094	0.009800095
47	0x3ca73297	0.020409865
48	0xbda1cba8	-0.079001725
49	0xbc457832	-0.012052583
50	0x3bd3c45f	0.0064626182
51	0xbd6584f9	-0.056035016
52	0xbe070720	-0.13186312
53	0xbd8e6832	-0.069534674
54	0xbd1c4fdc	-0.038162097
55	0xbd9aeffc	-0.07565305
56	0x3d2f9deb	0.04287521
57	0x3d9bd205	0.076084174
58	0xbd988239	-0.07446713
59	0x3d557ddd	0.052121986
60	0x3d42d64d	0.047567654
61	0x3d29d02b	0.04145829
62	0x3a9398cf	0.001126075
63	0xbdb3e476	-0.0878381
64	0x3d78e594	0.060765818
65	0x3cb6aa89	0.022298114
66	0xbdcaee0b	-0.09908684
67	0xbde6a67c	-0.11262223
68	0x3d745ceb	0.059658926
69	0xbdb1c338	-0.08679813
70	0xbcce1cc5	-0.025160203
71	0xbd18484a	-0.037178315
72	0x3d9abae8	0.07555181
73	0xbd884589	-0.06653888
74	0xbc0361c9	-0.008018919
75	0xbdb542e1	-0.08850647
76	0x3d95865b	0.07301017
77	0x3db7c9ce	0.08974038
78	0xbd1bff37	-0.03808519
79	0xbda9bdb6	-0.082881376
80	0xbc1b3626	-0.009473359
81	0xbd305198	-0.043046564
82	0xbd1a4902	-0.037667282
83	0xbd9cd157	-0.07657116
84	0xbcd7571d	-0.026286656
85	0xbd998938	-0.074968755
86	0xbc10c819	-0.0088367695
87	0x3da502e5	0.08057193
88	0x3ce47031	0.027885528
89	0x3c61ad10	0.0137741715
90	0xbdb2f6a6	-0.08738451
91	0x3d20a4b5	0.039219577
92	0xbdbe849f	-0.09302639
93	0x3d22ded6	0.039763294
94	0x3dc0ebc7	0.09419971
95	0xbd381ebf	-0.044951197
96	0xbd990a14	-0.074726254
97	0x3a66f4fd	0.000881031
98	0xbdd2ab48	-0.102865756
99	0xbd5668ac	-0.052345917
100	0x3d495610	0.04915434
101	0xbd5c12f1	-0.053729
102	0x3da87133	0.08224716
103	0xbdbd4494	-0.09241596
104	0xbd38736b	-0.045031946
105	0x3cbb6f97	0.022880359
106	0xbd367191	-0.0445419
107	0x3de7a9a2	0.11311652
108	0xbdaea1ba	-0.08526941
109	0x3da98945	0.08278135
110	0x3c952c12	0.01820949
111	0xbdc846d5	-0.09779135
112	0xbd8be7af	-0.068312995
113	0xbe27db6e	-0.163923
114	0xbda044f4	-0.07825652
115	0xbd6093b9	-0.05482838
116	0xbcafcbb8	-0.021459445
117	0x3d06b641	0.032888655
118	0x3dedbe76	0.11608593
119	0xbd5a3156	-0.053269707
120	0xbd8e78e9	-0.069566555
121	0x3d5c148c	0.053730533
122	0xbcc0e259	-0.023545431
123	0xbd85950d	-0.0652257
124	0xbd8f6e3e	-0.07003449
125	0xbd863708	-0.06553465
126	0xbb941130	-0.0045186505
127	0x3cd566ac	0.026049934
128	0x3b9db959	0.004813355
129	0xbda5b825	-0.080917634
130	0x3cae4c5c	0.021276645
131	0x3d7b2bc6	0.061321042
132	0xbb7881d3	-0.0037919178
133	0x3d7574f4	0.05992599
134	0x3d1f4da8	0.03889242
135	0xbe04a31c	-0.12952846
136	0x3d21b5e2	0.039480098
137	0x3b515397	0.0031940693
138	0xbc391008	-0.011295326
139	0xbe06e578	-0.13173473
140	0xbdce84a7	-0.10083895
141	0xbe1672ee	-0.1469228
142	0xbda69846	-0.081345126
143	0xbe0541e3	-0.13013415
144	0xbc592690	-0.013253823
145	0xbd847c51	-0.06469024
146	0x3d4d1014	0.05006416
147	0x3ca6efa5	0.020377943
148	0xbd9d5358	-0.07681912
149	0x3d5fd6db	0.05464826
150	0xbd5fac5e	-0.05460774
151	0x3cb7bc8e	0.022428777
152	0xbc0f8f20	-0.008762151
153	0xbd0cdba6	-0.03438916
154	0x3d087724	0.033316746
155	0x3d866c28	0.06563598
156	0x3d9836e4	0.074323446
157	0xbc353bc6	-0.011061614
158	0xbcb1d0e1	-0.021706047
159	0x3dc7a0c5	0.09747461
160	0x3d07c8b2	0.033150382
161	0x3d5caf9c	0.05387841
162	0x3d2159fd	0.03939246
163	0x3c9aade8	0.018881753
164	0x3d8ed2b7	0.069737844
165	0x3d83c050	0.06433165
166	0xbd7d0118	-0.06176862
167	0x3d951078	0.07278532
168	0x3dfb2e54	0.12264696
169	0x3d9f70ba	0.07785173
170	0x3dd22ad3	0.10262074
171	0xbc592039	-0.013252311
172	0x3dfe486e	0.124161586
173	0xbbd96b08	-0.0066350736
174	0xbd6221ad	-0.055207897
175	0x3d72b56d	0.059255052
176	0xbda2ac01	-0.079429634
177	0x3d2075ec	0.03917496
178	0x3c6e1cf9	0.014533275
179	0xbc959750	-0.018260628
180	0x3de94cf2	0.11391629
181	0x3e093de1	0.13402511
182	0xbc1a0b87	-0.009402162
183	0xbc9671e0	-0.018364847
184	0x3e0bda7c	0.13657564
185	0x3c813869	0.015773969
186	0xbdae70eb	-0.08517631
187	0x3da8685e	0.082230315
188	0xbd64a4ec	-0.055821344
189	0x3d64e48c	0.05588202
190	0x3dc1b9d9	0.09459276
191	0xbd68d336	-0.05684205
192	0x3dc36142	0.09540035
193	0x3cabf642	0.020991448
194	0x3d6690a0	0.05629027
195	0xbcfa18a1	-0.030529322
196	0x3def1ab2	0.116750136
197	0xbcc1dee7	-0.023665858
198	0x3e07ed6d	0.13274164
199	0xbc29be68	-0.010360338
200	0x3c6183fe	0.01376438
201	0xbe036a1a	-0.12833443
202	0xbdcfb778	-0.10142416
203	0x3d74d9f6	0.059778176
204	0xbd157887	-0.036491897
205	0xbdcbf09b	-0.09958001
206	0xbd7faea9	-0.06242243
207	0xbba129fe	-0.004918336
208	0xbda05e04	-0.07830432
209	0x3e1c8a58	0.15287149
210	0xbcb84745	-0.022494921
211	0x3d8dd87d	0.069260575
212	0x3de2cdff	0.11074447
213	0x3d97667a	0.07392593
214	0x3d9be923	0.07612827
215	0xbc83aaa4	-0.016072579
216	0x3d861492	0.06546892
217	0xbb803372	-0.0039123828
218	0xbc3d0b9e	-0.011538414
219	0x3d38ee58	0.045149177
220	0x3d77d628	0.06050697
221	0xbd44d9e3	-0.048059355
222	0x3dad61fa	0.08465953
223	0x3d8a23c5	0.06745104
224	0x3ddd718e	0.108126745
225	0xbd4fb4fa	-0.050709702
226	0x3dc31e52	0.095272675
227	0xbd814d0b	-0.06313523
228	0x3c88554a	0.016642231
229	0xbe107d0b	-0.141102
230	0xbd1c8469	-0.038212214
231	0x3d20aead	0.039229084
232	0x3d02aaf7	0.031901326
233	0x3dab1d53	0.083552025
234	0x3d815cf3	0.06316557
235	0xbbf8ca73	-0.007592493
236	0x3cda62b4	0.026658393
237	0x3da15312	0.078771725
238	0xbd9e16ce	-0.077191934
239	0x3d25281c	0.040321454
240	0x3d944b11	0.0724088
241	0xbbbaf67a	-0.005705652
242	0xbd06090e	-0.03272348
243	0x3c732a86	0.014841681
244	0xbd8eecdd	-0.06978772
245	0xbc9e3c21	-0.019315781
246	0xbc990c16	-0.01868252
247	0x3d91c78a	0.07118137
248	0x3de4d6b8	0.11173767
249	0x3e3c2ce9	0.18376507
250	0x3bc83990	0.0061103776
251	0xbd35e494	-0.044407442
252	0xbd9d3510	-0.076761365
253	0xbca46f53	-0.020072615
254	0xbd68ae7e	-0.056807034
255	0x3d1c257f	0.038121697

conv1_2_2.bias f4 [5]
0	0x3db58e70	0.088650584
1	0x3dbdfee9	0.09277136
2	0x3da3741d	0.07981131
3	0xbd917733	-0.071028136
4	0x3d7428a0	0.059609056

conv1_2_3.weight f4 [5, 20, 11]
0	0xbd77827a	-0.060427167
1	0xbdb19692	-0.08671297
2	0xbdc82998	-0.097735584
3	0xbcd7c965	-0.02634115
4	0xbd81f365	-0.06345252
5	0xbd9d4180	-0.07678509
6	0x3d3aa587	0.045568015
7	0x3d3a3696	0.045462213
8	0x3d56562c	0.052328274
9	0x3d2c85bb	0.042119723
10	0x3d67da7c	0.056604847
11	0xbd85a97a	-0.06526466
12	0x3aec3d62	0.0018023665
13	0xbd3b2f40	-0.045699358
14	0xbda7b177	-0.081881456
15	0xbda0cd8e	-0.078517064
16	0xbd85bbf5	-0.065299906
17	0xbc012fc1	-0.007884921
18	0x3db0549c	0.08609888
19	0x3d367d32	0.04455299
20	0xbcde698c	-0.027149938
21	0x3cb65e7e	0.022261854
22	0xbcf80b70	-0.030278891
23	0xbd87840a	-0.06616981
24	0xbd4a3137	-0.04936334
25	0xbd6ca64e	-0.057775788
26	0x3cc8d8e2	0.02451748
27	0x3d29b164	0.04142894
28	0x3c673107	0.01411081
29	0xbac80c25	-0.0015262408
30	0xbd070f17	-0.032973375
31	0x3d0896af	0.033346828
32	0xbcbd4d89	-0.02310826
33	0xbd2272e9	-0.039660368
34	0x3db404ae	0.08789955
35	0x3e236bb3	0.15959053
36	0x3d83644e	0.06415616
37	0x3a16a4a7	0.0005746581
38	0xbd1814af	-0.0371291
39	0xbd5883c1	-0.052860025
40	0xbddd3561	-0.10801197
41	0x3d09272c	0.033484623
42	0x3bba6d8f	0.00568933
43	0x3bebf172	0.0072004134
44	0xbd3c6855	-0.045997936
45	0xbd73df76	-0.05953928
46	0x3bfa0896	0.007630418
47	0x3cfd362c	0.03090962
48	0x3d18c4e3	0.03729714
49	0xbcaab0b7	-0.020836217
50	0xbbad881e	-0.0052957674
51	0xbccd7f80	-0.02508521
52	0x3d30ca5f	0.043161746
53	0xbc0a0571	-0.008424149
54	0xbd856590	-0.06513512
55	0xbd2a6410	-0.041599333
56	0xbd849911	-0.064745076
57	0x3c5751ab	0.01314203
58	0x3de095fc	0.10966107
59	0x3bba8f0d	0.0056933225
60	0x3cc1d5bd	0.023661489
61	0xbe140c0f	-0.14457725
62	0xbdd46be5	-0.10372142
63	0x3c83bf93	0.01608256
64	0x3cf0ae73	0.029380059
65	0xbcd536cc	-0.026027106
66	0xbdf0c1bd	-0.11755703
67	0xbd4f911f	-0.050675508
68	0x3c0fdb44	0.008780304
69	0xbd9ee5f3	-0.07758703
70	0xbd67615d	-0.056489337
71	0xbd2ee58c	-0.04269938
72	0xbcbbe71e	-0.022937354
73	0xbd3aed64	-0.04563655
74	0xbc9f218f	-0.019425182
75	0xbd5cd3dd	-0.053912986
76	0xba9eaac6	-0.0012105338
77	0xbdc30321	-0.09522081
78	0xbcca1a14	-0.024670638
79	0xbd8c4560	-0.0684917
80	0xbd3bf4b8	-0.04588768
81	0x3d76c7a4	0.060248986
82	0x3c07591f	0.008260994
83	0xbcf2525a	-0.029580284
84	0xbd8a8196	-0.06762998
85	0xbdaa82a9	-0.08325703
86	0xbd0a2c85	-0.033733863
87	0xbce52aa5	-0.027974436
88	0x3b85b97f	0.0040809507
89	0xbd2c918d	-0.042130996
90	0xbb398139	-0.0028305782
91	0x3d48e6c3	0.049048197
92	0x3da65a0f	0.08122646
93	0x3d6a7a77	0.057245698
94	0xbd7ab090	-0.06120354
95	0xbd8f0d14	-0.06984916
96	0xbd3ab1dd	-0.04557978
97	0x3d431e0c	0.047636077
98	0x3bd1a4b4	0.006397808
99	0x3bd4782e	0.006484053
100	0xbc2fd01a	-0.010730768
101	0xbd270505	-0.04077627
102	0xbd93caaf	-0.07216393
103	0x3cc6f720	0.02428776
104	0x3e1676a9	0.14693703
105	0x3d7ab10b	0.061203998
106	0x3d12ccf9	0.03584001
107	0x3df2caa3	0.11855056
108	0xbbfff792	-0.007811495
109	0xbd43bb32	-0.047785945
110	0xbe0f2be9	-0.13981594
111	0xbc2ec1fc	-0.010666367
112	0xbda4aa7d	-0.080403306
113	0xbc9826cd	-0.01857319
114	0xbd3ea62f	-0.046545204
115	0x3d0fe241	0.035127882
116	0xbd85a6f6	-0.06525986
117	0xbc872218	-0.01649575
118	0xbcabdd72	-0.020979617
119	0xbce52895	-0.027973453
120	0xbd66576a	-0.05623571
121	0xbd991bf3	-0.07476034
122	0xbdf9140a	-0.12162025
123	0xbdd564f1	-0.10419644
124	0xbd9af239	-0.075657316
125	0xbcc00205	-0.023438463
126	0x3d056d61	0.032575015
127	0x3b74352c	0.0037263138
128	0x3d77d0e0	0.060501933
129	0x3d87eb5e	0.066366896
130	0xbbd0080c	-0.0063486155
131	0x3d468505	0.0484667
132	0xbd8b528a	-0.068028525
133	0x3c20b1da	0.009808028
134	0xbdda2fb0	-0.10653627
135	0xbd536ebc	-0.051619276
136	0xbb1ddefd	-0.002408921
137	0xbd5e4b4a	-0.05427102
138	0xbd780b3e	-0.060557596
139	0xbd7b9e67	-0.06143036
140	0x3b32f6e0	0.0027307793
141	0x3ccb9348	0.024850503
142	0x3c36b48f	0.011151447
143	0xbdbb0c45	-0.091331996
144	0xbd3bc080	-0.04583788
145	0xbd0feac4	-0.035136
146	0xbddfb963	-0.109240316
147	0xbcde81a0	-0.02716142
148	0xbdc252e0	-0.094884634
149	0x3cbe535b	0.023233106
150	0xbcb7cde7	-0.02243705
151	0x3d449780	0.047996044
152	0x3c021af0	0.007940993
153	0x3cd5e494	0.026109971
154	0xbd885485	-0.06656746
155	0xbcf3c2ba	-0.029755939
156	0xbcb384a4	-0.021913834
157	0x3bd2572f	0.0064190845
158	0xbd396eed	-0.045271803
159	0xbcd0f02c	-0.025505148
160	0xbc28583f	-0.010274946
161	0x3d511f04	0.05105497
162	0x3d6f29a8	0.058389336
163	0x3d69371f	0.056937333
164	0xbcc11e1d	-0.02357393
165	0xbe74cf70	-0.23907256
166	0xbe352e6d	-0.17693491
167	0xbe06d62f	-0.13167642
168	0xbd1d7dc5	-0.03845002
169	0xbd0eb1e8	-0.034837633
170	0x3d27a867	0.040932085
171	0x3d4336e3	0.047659766
172	0x3cf379c1	0.029721143
173	0xbb956876	-0.004559572
174	0x3cebfb1a	0.028806258
175	0x3bdc29a0	0.0067188293
176	0xbdd48acb	-0.10378035
177	0xbcd87b5d	-0.026426012
178	0xbd9ff95a	-0.07811232
179	0xbdde19a2	-0.10844733
180	0xbdad4926	-0.084612176
181	0xbd01472b	-0.03156201
182	0x3c547bfa	0.012969011
183	0x3d7412a1	0.05958808
184	0x3d04c1cd	0.032411385
185	0x3c87db32	0.016584013
186	0x3c53db3f	0.01293069
187	0xbd2f49c6	-0.042794965
188	0x3bcfa75c	0.0063370895
189	0xbcdfb32d	-0.027307117
190	0xbdea98ac	-0.11454901
191	0xbb169407	-0.0022976415
192	0xbd0d48fc	-0.03449343
193	0x3c8389a5	0.016056845
194	0xbcfd9eb1	-0.030959459
195	0x3dca89fc	0.098896
196	0x3b974eae	0.0046175336
197	0xbc39954b	-0.011327098
198	0xbd9c5434	-0.07633248
199	0xbd3561e9	-0.044282828
200	0xbdab099a	-0.08351441
201	0x3c75e126	0.015007293
202	0x3cea0940	0.028568864
203	0xbd2224e9	-0.03958598
204	0xbd36defa	-0.04464624
205	0xbba6e68a	-0.0050934004
206	0xbd04c185	-0.032411117
207	0xbd9d4d79	-0.07680792
208	0xbdb56457	-0.08857029
209	0x3d7722b8	0.060335845
210	0xbd3d5124	-0.04621996
211	0xbd0b3ad6	-0.033991657
212	0x3db3a48f	0.087716214
213	0x3cd56099	0.026047038
214	0x3d64b886	0.055840038
215	0xbc948657	-0.018130464
216	0xbd886466	-0.066597745
217	0xbe1351f9	-0.14386739
218	0xbe48207f	-0.19543646
219	0xbe3978e2	-0.1811252
220	0x3c68aaf6	0.0142009165
221	0x3ba00954	0.0048839245
222	0xbae717f3	-0.0017631039
223	0xbccecc54	-0.025243916
224	0xbc601f71	-0.013679371
225	0xbb80f2a5	-0.0039351755
226	0x3b03bee1	0.0020102786
227	0xbcf7b273	-0.030236458
228	0xbcd616d0	-0.026133925
229	0x3c980837	0.018558605
230	0x3cbb3e60	0.022856891
231	0xbd02d4ac	-0.0319411
232	0x3d50781e	0.050895803
233	0x3cef7cbf	0.029234288
234	0xbdd512fd	-0.10404012
235	0xbc394ed9	-0.011310303
236	0xbde25824	-0.11051968
237	0xbc8b21ec	-0.016983949
238	0x3db918ca	0.09037931
239	0x3d9bb5f5	0.07603065
240	0xbc94c86e	-0.018161979
241	0xbdbb19b0	-0.09135759
242	0xbe1b9ddf	-0.15196942
243	0xbe036d2d	-0.12834616
244	0xbe13afc2	-0.14422515
245	0xbe0a23e3	-0.13490252
246	0xbdb5fb3a	-0.08885808
247	0xbdf87a86	-0.121327445
248	0xbdeb11ca	-0.11478002
249	0xbdc61ee4	-0.09673861
250	0xbd8ce8d9	-0.0688035
251	0xbdbc05f1	-0.09180821
252	0xbe07c7be	-0.1325979
253	0x3cbe9851	0.02326599
254	0x3d98131e	0.07425521
255	0x3d8a8d5b	0.06765243

conv1_2_3.bias f4 [5]
0	0x3bb7800d	0.0055999816
1	0xbb8c0d93	-0.004274079
2	0x3d51fc72	0.05126614
3	0x3d6cb5c5	0.057790536
4	0x3d11dc8a	0.035610713

conv1_2_4.weight f4 [5, 20, 15]
0	0xbdae77a1	-0.08518911
1	0x3bbc19a0	0.0057403594
2	0x3d3d5edd	0.046233047
3	0xbb9bff4b	-0.004760658
4	0xbd049ee1	-0.03237808
5	0xb98fc2b6	-0.00027420156
6	0x3d7047a0	0.058662057
7	0xbd2147de	-0.03937518
8	0xbd226bbf	-0.039653536
9	0xbccc231f	-0.02491909
10	0xbd4a052b	-0.049321335
11	0xbb117841	-0.002219692
12	0xbc04fe75	-0.008117308
13	0xbd32e4ad	-0.043675113
14	0xbe0a424c	-0.13501853
15	0xbd251ab5	-0.040308673
16	0xbc92c763	-0.01791734
17	0x3d95ef7e	0.0732107
18	0x3c5d7c0a	0.013518343
19	0x3c187901	0.009306193
20	0x3d4af79f	0.049552556
21	0xbd3875cd	-0.04503422
22	0x3cb53945	0.022122035
23	0x3d795c61	0.060879115
24	0x3ce118d4	0.02747766
25	0x3cfbd16b	0.030739507
26	0xbd04e8df	-0.032448646
27	0xbdaa1b41	-0.083059795
28	0xbd94a397	-0.07257765
29	0xbdfe2b28	-0.12410575
30	0x3dc227c1	0.09480239
31	0x3ca02c2f	0.019552318
32	0x3d85c7e5	0.065322675
33	0x3c88d607	0.016703619
34	0x3d55e071	0.052215997
35	0x3d9700dc	0.07373211
36	0x3dfe0313	0.1240293
37	0x3d9ef29f	0.0776112
38	0x3d88ae38	0.066738546
39	0x3d090545	0.03345229
40	0x3df24b58	0.11830777
41	0x3d9164be	0.07099293
42	0x3b15bb40	0.0022847205
43	0x3ddd032e	0.10791622
44	0x3d8cd8fc	0.06877324
45	0x3cb1b88e	0.021694448
46	0x3d358e61	0.044325236
47	0xbbc03da6	-0.005866724
48	0x3d06ab2e	0.032878093
49	0x3d451514	0.048115805
50	0x3d8f11be	0.06985806
51	0x3ca0c4e1	0.01962513
52	0x3d19efcb	0.0375822
53	0xbd2865e2	-0.041112788
54	0x3d2998ba	0.041405417
55	0x3d854185	0.065066375
56	0x3da936f1	0.08262432
57	0x3d29ef7b	0.041488152
58	0x3dbc9639	0.0920834
59	0xbbd1e0cf	-0.006404973
60	0x3d3f070f	0.04663759
61	0x3c301f08	0.010749586
62	0x3d02687d	0.03183793
63	0x3da0cfd8	0.07852143
64	0x3d76adb7	0.06022426
65	0xbc66abd5	-0.014079054
66	0xbcc63283	-0.024194008
67	0x3b92537e	0.0044655195
68	0x3d260132	0.040528484
69	0x3d9449ec	0.07240662
70	0x3d96e42d	0.0736774
71	0x3d890e78	0.06692213
72	0x3e2724e6	0.1632267
73	0x3e242ba4	0.16032273
74	0x3dec901e	0.11550926
75	0xbd6e8e6d	-0.058241297
76	0xbd3ccdb8	-0.046094626
77	0xbd57a53f	-0.052647825
78	0xbc2e5fbb	-0.010642941
79	0x3dbfe9e2	0.093707815
80	0x3d9f8ae8	0.07790166
81	0x3e21bb02	0.15793994
82	0x3de3e6f7	0.111280374
83	0x3da1ba5c	0.07896873
84	0x3db9d5af	0.0907396
85	0x3e46cd56	0.19414267
86	0x3d9d438e	0.07678901
87	0x3dd1683f	0.102249615
88	0x3e0f8488	0.140154
89	0x3e2b7db2	0.16747168
90	0xbcc512f0	-0.024056882
91	0x3c24c53f	0.010056793
92	0x3c648ef6	0.0139501
93	0xbb762007	-0.003755571
94	0x3c911c8a	0.017713804
95	0xbc5c04e3	-0.013428899
96	0xbd8a2f51	-0.06747306
97	0x3d7416a7	0.059591915
98	0x3d4af0b4	0.04954596
99	0xbce51d36	-0.02796803
100	0xbdd22c9e	-0.10262416
101	0xbd9142ee	-0.07092844
102	0xbd839837	-0.06425517
103	0xbe17784f	-0.14791988
104	0xbe101769	-0.1407143
105	0x3e0858f9	0.1331519
106	0x3d8bb96c	0.06822476
107	0xbcde6917	-0.02714972
108	0x3c10a388	0.008828051
109	0xbd56f4d8	-0.052479595
110	0xbd525ea0	-0.051359773
111	0xbd0768fe	-0.033059113
112	0x3dae558a	0.08512409
113	0x3be0bc85	0.006858411
114	0x3db10023	0.08642604
115	0x3c39766a	0.011319736
116	0x3e1a449c	0.15065235
117	0x3e0ff226	0.14057216
118	0x3e1528d7	0.1456636
119	0x3dcf4783	0.10121062
120	0x3d17c5f1	0.037054006
121	0x3d6f7ab5	0.058466632
122	0x3b8d1e20	0.0043065697
123	0xbd07e922	-0.033181317
124	0xbcb32f26	-0.021873068
125	0x3d0a9ab7	0.033838954
126	0xbd1f3672	-0.038870282
127	0x3d8ee1cc	0.06976661
128	0x3d7198a6	0.058983468
129	0x3d2f0633	0.04273052
130	0x3e01fb2e	0.12693474
131	0x3e5b2e99	0.21404494
132	0x3e7767c8	0.24160683
133	0x3e3b2454	0.18275577
134	0x3e4412f0	0.19147849
135	0x3d8f5c47	0.070000224
136	0x3d593353	0.053027462
137	0x3d6501d5	0.05590995
138	0x3d8b0a46	0.06789069
139	0x3d69a998	0.057046503
140	0x3d774277	0.06036612
141	0x3ca4dc55	0.020124594
142	0x3d25c9d4	0.04047568
143	0xbc596a70	-0.013270006
144	0xbcbd760f	-0.023127584
145	0xbd6762d3	-0.05649073
146	0xbda4a6db	-0.08039638
147	0xbda091bc	-0.078402966
148	0xbdd93f92	-0.10607828
149	0xbd8b8254	-0.068119675
150	0xbc0ee3d1	-0.008721308
151	0x3c553fb6	0.013015678
152	0x3c9ca660	0.019122303
153	0x3c8103c0	0.015748858
154	0x3d2ddc4a	0.042446412
155	0x3cf495da	0.029856611
156	0x3c06d491	0.008229391
157	0xbca164f7	-0.019701464
158	0xbd459512	-0.048237868
159	0xbd1794ca	-0.03700713
160	0xbe0bee69	-0.13665165
161	0xbd95b29c	-0.07309458
162	0xbde50f29	-0.11184532
163	0xbe49c1fd	-0.19702907
164	0xbe2d3cee	-0.16917774
165	0xbd283ad6	-0.041071735
166	0x3cdbd4f6	0.026834946
167	0xbd4d1f5d	-0.05007874
168	0xbd26e5ef	-0.040746626
169	0x3d70f2f6	0.058825456
170	0x3928170f	0.00016030319
171	0x3b9fa773	0.0048722564
172	0x3c8adbe5	0.016950557
173	0xbc0843a5	-0.008316909
174	0x3b279b40	0.0025574714
175	0x3d88a664	0.066723615
176	0x3d8330fe	0.06405829
177	0x3cc4830c	0.02398827
178	0xbc9d3f2a	-0.019195158
179	0xbe02f58e	-0.12788984
180	0xbddbad27	-0.107263856
181	0x3b20d8b5	0.002454323
182	0xbacc1a34	-0.0015571774
183	0x3ba83ce4	0.005134212
184	0x3bd717be	0.0065641096
185	0xbc4a806b	-0.012359719
186	0x3d2937f7	0.041313138
187	0x3dab5ae8	0.08366948
188	0xbbd86cf0	-0.0066047832
189	0x3d043ace	0.032282643
190	0x3df1273c	0.117750615
191	0x3d9ee7c5	0.0775905
192	0x3cf5bc72	0.029997084
193	0x3bbc0f3a	0.00573912
194	0xbd85c66b	-0.06531986
195	0xbd5ef498	-0.05443248
196	0xbd28bfde	-0.041198604
197	0xbbb8eb2c	-0.005643269
198	0xbd3d3759	-0.04619536
199	0xbb3001a6	-0.0026856451
200	0xbd85ac10	-0.06526959
201	0xbd944779	-0.07240195
202	0xbd1dcb5b	-0.038524013
203	0x3c7bf896	0.015379092
204	0x3ad0a3ca	0.0015917954
205	0xbca345f0	-0.01993081
206	0xbdca6e72	-0.09884347
207	0xbdab3e97	-0.083615474
208	0xbe1bf080	-0.15228462
209	0xbe371ced	-0.17882128
210	0xbc537caf	-0.012908145
211	0xbcab95ff	-0.020945547
212	0xbd0b65ec	-0.034032747
213	0x3cad671f	0.021167336
214	0xbb13db12	-0.0022560996
215	0x3d2a6e24	0.041608945
216	0x3c836701	0.016040327
217	0x3d556eec	0.052107736
218	0xbd2881de	-0.041139476
219	0xbd434201	-0.047670368
220	0xbdcac836	-0.099014685
221	0xbdce0127	-0.100588135
222	0xbe09bb98	-0.13450468
223	0xbe234d40	-0.15947437
224	0xbe256a6d	-0.1615388
225	0x3d871635	0.065960325
226	0x3e1bc8b3	0.1521328
227	0x3d39e119	0.045380685
228	0x3e0f2a30	0.13980937
229	0x3e321938	0.17392433
230	0x3df0804c	0.11743221
231	0x3e2c9a15	0.16855653
232	0x3d9281eb	0.07153686
233	0x3d84fb17	0.06493204
234	0x3cb2ede6	0.021841954
235	0xbd4eeeac	-0.050520584
236	0xbd9c235a	-0.0762393
237	0xbc8c6699	-0.017138766
238	0xbd263511	-0.04057795
239	0x3cc145a3	0.023592776
240	0xbbbcbdd1	-0.0057599326
241	0xbdbd0f4c	-0.09231433
242	0xbd61a019	-0.05508432
243	0xbd18adaa	-0.037274994
244	0xbd255b90	-0.040370524
245	0xbdd12d9e	-0.10213779
246	0xbdcb15fc	-0.099163026
247	0xbe019522	-0.12654546
248	0xbd21c687	-0.03949597
249	0xbd71fb8d	-0.05907779
250	0xbc97b481	-0.018518688
251	0xbda6b4f3	-0.08139982
252	0xbe0db121	-0.138371
253	0xbc15fe53	-0.009154874
254	0x39cbc83e	0.0003886837
255	0x3d1fd217	0.039018717

conv1_2_4.bias f4 [5]
0	0xbcbe4a4e	-0.02322879
1	0xbd5c02c3	-0.05371357
2	0x3be42fd1	0.006963708
3	0xbd53721d	-0.0516225
4	0xbc2c27c7	-0.0105075305

conv1_3_1.weight f4 [5, 20, 3]
0	0x3d2d3bb8	0.04229328
1	0xbda1c9d3	-0.07899823
2	0x3de57e07	0.112056784
3	0xbd881243	-0.06644108
4	0xbbec0a56	-0.0072033806
5	0xbdb2a073	-0.087220095
6	0x3e061f4d	0.13097878
7	0xbbb0a5c9	-0.005390857
8	0x3a5f70b0	0.00085235666
9	0xbd302402	-0.04300309
10	0x3d362bc5	0.044475336
11	0xbd813f35	-0.06310884
12	0x3dbaa23c	0.09112975
13	0xbdb1f84f	-0.08689939
14	0x3deeb3f3	0.11655416
15	0x3de0886d	0.10963521
16	0x3d4c0749	0.049811635
17	0x3df9b3c4	0.12192491
18	0xbc7aff95	-0.015319725
19	0xbc9ae2f3	-0.018907046
20	0x3d6d8137	0.057984557
21	0xbc8647db	-0.016391685
22	0xbe0362f3	-0.12830715
23	0xbde6189b	-0.11235162
24	0x3e1d9661	0.15389396
25	0x3d084a8f	0.03327423
26	0xbd4794e1	-0.048725966
27	0x3d8c3855	0.06846682
28	0x3d865b0a	0.06560333
29	0x3bb543f7	0.0055317837
30	0xbd7cec25	-0.061748642
31	0xbdf9073f	-0.12159585
32	0xbdb1b627	-0.08677321
33	0xbd81fa57	-0.06346577
34	0xbd503725	-0.05083384
35	0xbda9001f	-0.08251976
36	0xbe289c34	-0.16465837
37	0x3d84604d	0.064636804
38	0x3e074087	0.13208209
39	0x3c3e1440	0.011601508
40	0x3d44ebec	0.048076555
41	0xbde5ae5c	-0.11214897
42	0x3d9dd58d	0.07706747
43	0xbe0d34ef	-0.13789724
44	0xbca0c43b	-0.01962482
45	0xbdeb28f8	-0.114824235
46	0x3d069b88	0.03286317
47	0xbe0cba76	-0.13743004
48	0xbd9d8154	-0.07690683
49	0xbd1bd2be	-0.038042776
50	0xbda6a4b3	-0.08136883
51	0x3e029253	0.12751131
52	0xbc1edba3	-0.00969592
53	0xbe03fe01	-0.12889864
54	0x3cbb5cf5	0.022871474
55	0xbc167668	-0.009183504
56	0xbd1dc0f0	-0.038514078
57	0x3db32912	0.08748068
58	0xbd56424b	-0.052309316
59	0x3d886796	0.066603824
60	0x3dd77541	0.10520411
61	0x3dc18f17	0.0945112
62	0xbcd8a8a8	-0.026447609
63	0xbd470de7	-0.048597243
64	0xbda463f7	-0.08026879
65	0x3df7573d	0.12077186
66	0x3de2540d	0.11051188
67	0x3d59134d	0.052996922
68	0xbce1603c	-0.027511708
69	0x3c53c471	0.012925253
70	0x3d9fcd00	0.078027725
71	0xbd529a63	-0.051416766
72	0xbda9cd36	-0.08291094
73	0xbb92feee	-0.0044859564
74	0x3d130d3d	0.035901297
75	0xbc1a3f9e	-0.009414582
76	0xbd1c4ba6	-0.03815808
77	0x3db008d7	0.08595436
78	0x3c0f5b67	0.008749819
79	0xbc3015a9	-0.010747352
80	0x3d31a05b	0.043365818
81	0x3c782de0	0.015147656
82	0xbdd02c62	-0.10164715
83	0x3d12ebc3	0.03586937
84	0x3d931cb3	0.07183208
85	0x3e178583	0.14797024
86	0xbb75da84	-0.0037514279
87	0xbd43ae6a	-0.047773756
88	0x3cba6958	0.02275531
89	0x3dfa4623	0.12220409
90	0x3d924f13	0.071439885
91	0x3d880e87	0.06643396
92	0x3d99dbc4	0.0751262
93	0x3e06dba0	0.13169718
94	0xbdad1753	-0.08451714
95	0xbdc23daa	-0.09484418
96	0xbe09330c	-0.13398379
97	0x3d351108	0.044205695
98	0xbcd1feb8	-0.025634155
99	0xbd4522ae	-0.048128776
100	0x3d7d286e	0.061806135
101	0x3c8c086d	0.017093861
102	0xbd7f1416	-0.062275015
103	0xbdc075a5	-0.09397439
104	0x3b90cef2	0.004419201
105	0x3b3de252	0.0028974009
106	0x3e05fe7e	0.13085362
107	0xbc3d963f	-0.011571466
108	0x3d089afa	0.033350922
109	0x3d426735	0.047461707
110	0xbd78608f	-0.06063896
111	0xbd2d73bf	-0.042346712
112	0xbcc87233	-0.024468517
113	0x3dbcc5f9	0.09217448
114	0xbdc2987f	-0.095017426
115	0xbd10173b	-0.035178404
116	0xbe0f43cc	-0.13990706
117	0xbdd2e0fb	-0.10296818
118	0x3dd5310f	0.10409748
119	0xbdbac422	-0.091194406
120	0xbc4a9a16	-0.0123658385
121	0x3d94a2cc	0.072576135
122	0x3d2b9453	0.0418895
123	0x3d9aee38	0.07564968
124	0xbd784d23	-0.06062044
125	0x3dcc5695	0.09977452
126	0xbc37e0bb	-0.0112230135
127	0xbda3493f	-0.07972955
128	0xbcc10674	-0.023562647
129	0xbc86e85f	-0.016468225
130	0xbcd82032	-0.02638254
131	0x3b028e29	0.001992116
132	0xbd879f6b	-0.066222034
133	0x3cbabbff	0.022794722
134	0xbb5d344e	-0.00337531
135	0xbdb3dabc	-0.08781955
136	0x3e017e3b	0.1264581
137	0xbaead709	-0.0017916869
138	0xbd5912a1	-0.05299628
139	0x3d3ce028	0.04611221
140	0xbc5c18cf	-0.013433649
141	0x3ddcea40	0.10786867
142	0x3da76097	0.0817272
143	0xbddfe35e	-0.10932039
144	0xbda45db0	-0.08025682
145	0x3b0273f1	0.0019905532
146	0x3d18a95e	0.037270896
147	0x3dcbf811	0.09959424
148	0x3ac28234	0.0014839829
149	0xbdcf95b5	-0.10135976
150	0x3d5b6642	0.053564318
151	0xbd0d6907	-0.03452399
152	0x3cd4e240	0.02598679
153	0x3d10fa7b	0.035395127
154	0x3e025876	0.12729058
155	0xbdb30f9e	-0.08743213
156	0xbcab5fb3	-0.020919656
157	0xbd3ffb92	-0.046870776
158	0xbe14e515	-0.14540513
159	0xbd9a8d37	-0.07546466
160	0xbddc883b	-0.107681714
161	0xbd6fa182	-0.058503635
162	0x3e1af52e	0.15132591
163	0x3e13f97d	0.14450641
164	0x3c703e31	0.014663265
165	0x3d8ac459	0.067757316
166	0x3e0e6efb	0.13909523
167	0xbd4799b6	-0.048730575
168	0x3c64266e	0.013925178
169	0x3e194ed2	0.14971474
170	0x3df6120e	0.120151624
171	0x3da97be3	0.08275583
172	0x3dbb3fa4	0.09142998
173	0x3e07530a	0.1321527
174	0xbd17597f	-0.036950585
175	0x3d4b5e1b	0.049650293
176	0x3d90b8dc	0.07066509
177	0x3e0fe487	0.1405202
178	0x3d8ba019	0.068176456
179	0x3e318deb	0.17339294
180	0x3dd5828a	0.10425289
181	0xbda86a0c	-0.08223352
182	0x3d3b1b7c	0.045680508
183	0x3dc9782b	0.09837373
184	0x3db18547	0.08667999
185	0xbd68cf38	-0.056838244
186	0x3d5efb96	0.05443915
187	0xbc20ed0a	-0.0098221395
188	0x3beed00f	0.007287986
189	0x3e13bf35	0.14428408
190	0x3d9b0797	0.07569807
191	0xbd941c9c	-0.07232019
192	0xbd09e21b	-0.033662897
193	0x3df4c049	0.11950738
194	0x3c966a5b	0.018361261
195	0x3cc9a339	0.024613963
196	0xbdd3c0ef	-0.103395335
197	0xbe1cbb55	-0.15305836
198	0x3e278c03	0.16362004
199	0x3d1856a6	0.03719201
200	0xbd8dd6c1	-0.06925727
201	0xbd8fff9d	-0.07031176
202	0xbdaddcd5	-0.08489386
203	0xbcf417db	-0.029796531
204	0x3dd0a459	0.10187597
205	0x3d502674	0.05081792
206	0xbdfa34cf	-0.12217104
207	0x3e65e92e	0.22452232
208	0x3d997a07	0.07493978
209	0xbe139859	-0.14413585
210	0xbe06e68c	-0.13173884
211	0xbdc491b3	-0.095981024
212	0xbd8fcc83	-0.070214294
213	0x3da427f5	0.08015434
214	0xbbee7412	-0.0072770203
215	0x3d459719	0.0482398
216	0x3d35eb77	0.04441401
217	0x3df93d9f	0.121699564
218	0xbd983f45	-0.07433943
219	0xbe25e85c	-0.1620192
220	0xbd87b4b8	-0.06626266
221	0x3dec3204	0.11532977
222	0x3d9bbd49	0.07604463
223	0xbc393d55	-0.011306127
224	0x3dcc8df1	0.09988011
225	0xbe0292f6	-0.12751374
226	0xbd786a73	-0.060648393
227	0xbca091ad	-0.019600714
228	0x3dab08f1	0.08351315
229	0xbd2862cb	-0.04110984
230	0xbd05a2cd	-0.032625962
231	0xbdc59ccd	-0.09649048
232	0x3de16062	0.11004712
233	0x3dd23a18	0.10264987
234	0x3bf92eb0	0.0076044425
235	0xbdbc2b28	-0.09187919
236	0x3dce0cc9	0.10061032
237	0xbd2965e8	-0.04135695
238	0xbd8d695c	-0.06904861
239	0x3cb80eb0	0.022467941
240	0x3e070ad7	0.13187729
241	0xbde0d55e	-0.109781966
242	0x3c0cccad	0.00859372
243	0xbda9fcac	-0.083001465
244	0x3d59adbe	0.05314421
245	0xbdd64a6d	-0.10463414
246	0x3dbf1687	0.093304686
247	0xbd8b5111	-0.068025716
248	0x3dd882af	0.10571801
249	0xbdd0d440	-0.101967335
250	0x3c25842c	0.010102313
251	0x3d62940a	0.055316962
252	0xbda76f27	-0.081754975
253	0xbd1521cb	-0.03640918
254	0x3db517ba	0.08842416
255	0xbcdcecb6	-0.026968341

conv1_3_1.bias f4 [5]
0	0x3ddbd1ba	0.107333615
1	0xbdaccf51	-0.0843798
2	0x3cd526f7	0.026019556
3	0xbd59fc84	-0.053219333
4	0x3da07d3d	0.07836387

conv1_3_2.weight f4 [5, 20, 5]
0	0x3c772f7f	0.015087008
1	0x3de6782f	0.11253392
2	0x3d5f4a92	0.054514475
3	0xbd750bc1	-0.059825663
4	0x3ccb4668	0.024813846
5	0xbcf5c087	-0.02999903
6	0xbb829d7f	-0.00398606
7	0x3de0ac55	0.1097037
8	0x3dc161e0	0.09442496
9	0x3cdc95f9	0.026926981
10	0x3cb23c34	0.021757223
11	0xbcd8818e	-0.026428964
12	0xbaa97b55	-0.0012930433
13	0xbd8c6930	-0.068560004
14	0xbda3828a	-0.07983883
15	0x3dd601c2	0.10449554
16	0xbc8d7e9d	-0.017272288
17	0xbd205b2a	-0.03914944
18	0x3d8f8c7a	0.07009216
19	0xbdd39472	-0.10331048
20	0xbd9f283c	-0.07771346
21	0x3bdf3399	0.006811571
22	0x3dd50a5d	0.10402367
23	0x3d645d47	0.05575302
24	0xbc1c8470	-0.00955306
25	0xbd56f792	-0.052482195
26	0x3d8e9c21	0.06963373
27	0x3da4a4d8	0.08039254
28	0xbb912e80	-0.004430592
29	0xbcf6b561	-0.030115785
30	0xbbab612a	-0.0052300887
31	0xba24f46c	-0.0006292525
32	0x3d163534	0.036671832
33	0x3d603945	0.054742116
34	0x3dc306bb	0.09522768
35	0xbdd8673c	-0.105665654
36	0xbd38ff23	-0.045165192
37	0x3bd9f22c	0.0066511836
38	0xbd0e4cb6	-0.034741126
39	0x3d77fd9f	0.060544606
40	0x3ded42e1	0.11585022
41	0x3dd752e0	0.10513854
42	0xbb16ee0f	-0.0023030078
43	0xbdcbcda7	-0.099513344
44	0xbd83884c	-0.06422481
45	0x3e04d5df	0.1297221
46	0x3e1e3717	0.15450703
47	0x3d7fd568	0.06245938
48	0x3bf9c69f	0.0076225544
49	0xbdbf8fc0	-0.0935359
50	0xbdc3fed2	-0.095700875
51	0xbdf70da8	-0.120631516
52	0xbd75d30e	-0.06001573
53	0x3dda5b24	0.10661915
54	0x3dec32ee	0.115331516
55	0xbd8a694f	-0.06758367
56	0xbbf5966c	-0.0074947383
57	0xbc6d8fc3	-0.0144996075
58	0xbaf10549	-0.0018388416
59	0x3d9182fc	0.071050614
60	0xbdeb3526	-0.11484747
61	0xbd6e8453	-0.058231663
62	0xbd802bbf	-0.06258344
63	0x3cecb856	0.028896492
64	0x3d87f3db	0.066383086
65	0xbd5e3e9b	-0.054258924
66	0xbe13a7bb	-0.14419453
67	0xbe07a0e0	-0.13244963
68	0xbdb44c67	-0.08803635
69	0x3d9ecb81	0.07753659
70	0x3dcfbfde	0.10144018
71	0x3d214c88	0.039379627
72	0xbc0adaef	-0.008475049
73	0x3d8fa3cb	0.07013663
74	0x3d6a5271	0.05720753
75	0xbdd03b62	-0.101675764
76	0xbb350044	-0.0027618567
77	0xbaa3862d	-0.0012475901
78	0xbdffa197	-0.12481993
79	0xbd46034a	-0.04834298
80	0xbd01a525	-0.031651635
81	0x3dccf164	0.10006979
82	0xbd2dd7d0	-0.042442143
83	0x3cbcad35	0.02303181
84	0x3c54c078	0.012985341
85	0x3e022e86	0.1271306
86	0xbcdea731	-0.027179332
87	0xbd14aa3a	-0.036295153
88	0xbdb0d4ce	-0.08634339
89	0xbd2e9a9d	-0.04262792
90	0x3d0dd288	0.034624606
91	0x3cdf7c7e	0.027281042
92	0xbc7b1b10	-0.015326276
93	0x3de3a6e2	0.11115815
94	0xbc9e3d94	-0.019316472
95	0xbc7eed38	-0.015559487
96	0x3da71089	0.08157451
97	0x3d358c3a	0.044323184
98	0xbc84886c	-0.016178332
99	0xbd8c2d3b	-0.068445645
100	0x3d155a86	0.036463283
101	0xbccf389c	-0.025295548
102	0xbd695be8	-0.056972414
103	0xbdc5a968	-0.09651452
104	0x3da072c8	0.07834393
105	0xbd9da424	-0.07697323
106	0xbdaa8d24	-0.08327702
107	0x3d3ca84f	0.04605895
108	0x3d8770a1	0.06613279
109	0xbd92d5b8	-0.0716967
110	0xbd42cdcb	-0.04755954
111	0xbdbcaf25	-0.09213094
112	0x3da94bc7	0.082664065
113	0x3be0f496	0.0068650944
114	0x3a50c904	0.0007964524
115	0xbd5bad13	-0.053631853
116	0x3d810377	0.06299489
117	0x3dd54ee9	0.104154415
118	0x3d8a0db5	0.06740896
119	0xbdb1bdbd	-0.08678768
120	0xbdbde876	-0.09272854
121	0x3da8572f	0.08219754
122	0x3d46db7c	0.04854916
123	0x3d8d5ded	0.069026805
124	0x3c9800c5	0.018555054
125	0xbdee380d	-0.116317846
126	0x3cb67b28	0.022275522
127	0x3d969f3a	0.07354589
128	0x3d32b3cf	0.04362851
129	0xbce51308	-0.027963176
130	0x39fc1a67	0.00048084857
131	0xbdb157b3	-0.086593054
132	0xbd5823b6	-0.05276843
133	0x3dc444b1	0.09583414
134	0x3c0d886e	0.008638484
135	0xbd98e3f3	-0.07465353
136	0x3db349ff	0.08754348
137	0x3db1db54	0.08684412
138	0xbd8f407a	-0.0699472
139	0x3cccf033	0.02501688
140	0xbccad8d6	-0.024761599
141	0xbd705b22	-0.05868066
142	0x3db911e2	0.09036614
143	0x3dd052ac	0.101720184
144	0x3d1a090e	0.03760629
145	0x3d293504	0.041310325
146	0xbc76c88e	-0.015062464
147	0xbdd732eb	-0.10507759
148	0x3cc476bc	0.023982398
149	0x3e013703	0.12618642
150	0xbda09265	-0.078404225
151	0x3c80edf6	0.015738469
152	0xbdd66335	-0.10468141
153	0xbd83c4d8	-0.06434029
154	0xbcd2b677	-0.025721772
155	0xba9158e9	-0.0011089119
156	0x3dbdc2c1	0.09265662
157	0xbaeeeb5d	-0.0018228103
158	0xbcc622e9	-0.024186568
159	0xbd1c85e1	-0.038213614
160	0xbd3c75b0	-0.046010673
161	0x3d10ce46	0.035352968
162	0xbe0b66c9	-0.13613428
163	0xbd3dab41	-0.0463059
164	0xbc1f3481	-0.009717108
165	0xbd631ddf	-0.05544841
166	0xbdfac5a6	-0.1224473
167	0xbbd6e587	-0.0065581235
168	0xbde32d7c	-0.1109266
169	0xbe11cd0d	-0.14238377
170	0xbd84d14d	-0.064852335
171	0xbd063cd2	-0.032772847
172	0x3dadcff4	0.084869295
173	0xbd3817ca	-0.044944562
174	0x3dbb559d	0.09147189
175	0xbddac867	-0.10682755
176	0xbd4aec72	-0.049541898
177	0x3c060cff	0.008181809
178	0x3c80e05e	0.015731987
179	0xbe3329e3	-0.17496447
180	0xbc0552ec	-0.008137446
181	0x3deae5ef	0.114696376
182	0x3da1cb4a	0.079001024
183	0x3df7a933	0.12092819
184	0xbd9f2902	-0.077714935
185	0x3c53da98	0.012930535
186	0x3c7f1e77	0.015571228
187	0x3d4ba8cf	0.049721535
188	0x3da8ab3d	0.08235786
189	0x3dc4d9ce	0.096118554
190	0x3c6fd375	0.014637818
191	0x3da5d7ec	0.080978245
192	0x3b08c231	0.00208677
193	0x3da041ee	0.07825075
194	0x3da5314d	0.08066044
195	0xbdc0e048	-0.09417778
196	0x3c3ab08b	0.01139463
197	0x3cb51c90	0.022108346
198	0x3d85fa6e	0.06541906
199	0xbd53aca1	-0.051678304
200	0xbda1ad2d	-0.07894359
201	0x3d1e762d	0.03868692
202	0x3da1f304	0.0790768
203	0xbd5c97ef	-0.053855833
204	0xbd338b29	-0.043833885
205	0x3d3ed864	0.046593085
206	0xbbe0baa0	-0.006858185
207	0xbd5fa76c	-0.054603025
208	0xbd57eb88	-0.052714854
209	0xbd8a2810	-0.067459226
210	0xbcb8d8a4	-0.02256424
211	0x3da0ae2e	0.07845722
212	0x3dae10d0	0.084993005
213	0x3d632237	0.05545255
214	0xbdb86b1f	-0.09004807
215	0xbc5d1e8b	-0.013496052
216	0x3d2b0b4c	0.04175882
217	0xbcb84a75	-0.022496441
218	0xbdcdb3ad	-0.10044036
219	0x3dac0a65	0.0840042
220	0x3d2362e2	0.039889224
221	0x3cc92192	0.02455214
222	0x3cee8f8d	0.029121185
223	0x3c36979a	0.011144543
224	0x3c744e63	0.014911267
225	0x3d52adca	0.05143527
226	0x3d7e5eb4	0.062102035
227	0x3d5ee42b	0.054416817
228	0x3db7e135	0.08978502
229	0x3dc8fb0d	0.09813509
230	0x3da52e31	0.08065451
231	0x3d5a5698	0.05330524
232	0x3a1f7d7a	0.0006084066
233	0x3980ee88	0.00024591782
234	0x3d96de03	0.07366564
235	0x3cff6637	0.03117667
236	0xbd605ab5	-0.054774005
237	0x3d963f4b	0.07336291
238	0xbd2070bc	-0.039170012
239	0x3d2ab6c3	0.0416782
240	0xbd829793	-0.06376567
241	0x3dad8660	0.084728956
242	0x3d4ed505	0.05049612
243	0xbd609818	-0.054832548
244	0x3d55f75a	0.052237846
245	0x3cc990c0	0.024605155
246	0xbc81e907	-0.015858186
247	0xbda2118f	-0.07913505
248	0xbd73b82b	-0.059501808
249	0xbc4cdb26	-0.012503421
250	0x3ce7e907	0.028309358
251	0xbd118aef	-0.035532888
252	0x3d2db13f	0.042405363
253	0x3e273735	0.16329654
254	0xbaa73b1c	-0.0012758705
255	0xbd1f65fe	-0.038915627

conv1_3_2.bias f4 [5]
0	0xbb6fb355	-0.0036575396
1	0x3db12607	0.08649831
2	0x3db869f4	0.09004584
3	0xbcf0b761	-0.029384317
4	0x3db39d65	0.08770255
