EEGDenoisenetTraining/checkpoints/deepseparator/checkpoint_epoch_50.pth (torch, 503337 bytes, 301 tensors)

conv1_1_1.weight f4 [5, 1, 3]
0.57135254 0.04594574 0.50559837 -0.41675913 0.5279869 -0.10600738 -0.096391656 0.46550837
-0.49858817 0.2637466 0.2526052 -0.5204822 -0.58344984 0.18963687 -0.06936186
00000000: 2944 123f 9a31 3c3d e56e 013f 7461 d5be
00000010: 262a 073f 661a d9bd fd68 c5bd 1d57 ee3e
00000020: f346 ffbe cb09 873e 7855 813e 523e 05bf
00000030: f85c 15bf 2b30 423e 970d 8ebd

conv1_1_1.bias f4 [5]
-0.20986623 0.13858482 -0.67339647 0.23379548 0.33530796
00000000: 2ce7 56be 2ee9 0d3e b663 2cbf 1568 6f3e
00000010: 7cad ab3e

conv1_1_2.weight f4 [5, 1, 5]
0.3342654 -0.08364503 -0.020875018 -0.5158983 -0.212766 0.4294974 -0.521519 -0.19276789
0.4373622 0.24370681 -0.3379427 -0.17930469 -0.42339978 -0.14452505 0.036711816 -0.18109545
-0.34913474 0.09312014 -0.37757006 -0.24195774 -0.12885962 -0.28492057 0.11769461 -0.22963645
0.5321982
00000000: d624 ab3e 164e abbd 1602 abbc e911 04bf
00000010: 55df 59be 15e7 db3e 4582 05bf f264 45be
00000020: f0ed df3e 478e 793e d306 adbe a69b 37be
00000030: dbc7 d8be 60fe 13be 215f 163d 1671 39be
00000040: cac1 b2be c6b5 be3d dd50 c1be c5c3 77be
00000050: c7f3 03be 1ce1 91be df09 f13d d125 6bbe
00000060: 243e 083f

conv1_1_2.bias f4 [5]
0.0004242974 0.0640867 -0.24058503 0.16780181 0.33814818
00000000: 3c74 de39 e33f 833d ec5b 76be 3dd4 2b3e
00000010: c221 ad3e

conv1_1_3.weight f4 [5, 1, 11]
0.03338779 -0.010547331 -0.09782635 0.23257181 0.2953847 0.024198966 -0.21541591 0.2734655
-0.14641275 0.2498139 0.31366912 -0.16926296 0.041715562 0.27621192 0.2447951 0.052940946
0.19641735 -0.05783387 -0.11873087 0.22095488 0.0906408 -0.111407466 -0.069933765 0.28107548
0.06961752 0.117234185 0.2645319 0.16524434 0.089685686 -0.02683776 0.32913628 -0.30481875
-0.08709873 0.121544264 0.28751826 0.33963513 -0.17820102 0.115125746 0.269027 0.12850405
0.11534588 -0.3180189 0.37318212 0.2093261 -0.015509451 0.13841395 -0.17242748 0.24692649
0.3290525 0.11722985 0.2530015 0.26056138 0.3013746 0.3258616 -0.03571633
00000000: a3c1 083d b6ce 2cbc 2e59 c8bd 4e27 6e3e
00000010: aa3c 973e e93c c63c fd95 5cbe ac03 8c3e
00000020: 39ed 15be 37cf 7f3e 3d99 a03e 4553 2dbe
00000030: f0dd 2a3d a66b 8d3e 91ab 7a3e 9bd8 583d
00000040: a121 493e 35e3 6cbd 2c29 f3bd ff41 623e
00000050: e2a1 b93d 9929 e4bd 6f39 8fbd 20e9 8f3e
00000060: a193 8e3d 7a18 f03d ba70 873e d035 293e
00000070: 21ad b73d ddda dbbc 8d84 a83e 3411 9cbe
00000080: d260 b2bd 33ec f83d 9835 933e a8e4 ad3e
00000090: 547a 36be 0cc7 eb3d e8bd 893e 9196 033e
000000a0: 763a ec3d 60d3 a2be ba11 bf3e 9559 563e
000000b0: 5a1b 7ebc 63bc 0d3e d490 30be 4cda 7c3e
000000c0: 9279 a83e 3416 f03d 6a89 813e 4d68 853e
000000d0: c64d 9a3e 55d7 a63e 494b 12bd

conv1_1_3.bias f4 [5]
0.18729743 0.05374274 0.18501577 -0.12597622 -0.080575146
00000000: e6ca 3f3e 5921 5c3d c674 3d3e e9ff 00be
00000010: 9504 a5bd

conv1_1_4.weight f4 [5, 1, 15]
-0.2516299 -0.053602815 -0.13058625 -0.31413758 0.11613163 -0.25044876 0.026746988 -0.21895711
0.18799971 -0.028692001 -0.023319084 0.05932679 0.16163848 -0.12856776 -0.2268714 -0.060300775
0.19348127 0.033861056 -0.15094453 -0.054030858 -0.040989615 0.17548965 0.15056267 -0.043399766
-0.10754962 0.24801557 0.24584998 -0.04762561 0.25128797 0.14781214 -0.062820844 -0.046512384
0.17707147 -0.22575122 -0.08651333 0.031457003 0.16584155 0.15889326 0.09626238 0.03771624
0.07160591 0.00988573 -0.25654426 -0.09682495 -0.17311329 0.19699782 -0.2514332 0.10867496
-0.1370122 0.05454804 -0.037929215 0.19958898 0.13113616 -0.44470477 -0.18535452 0.244194
0.1322425 0.0049440954 -0.22922277 0.1605771 0.19008383 -0.25813007 0.27274132 -0.1000196
-0.10312173 0.20474085 -0.22455873 -0.23982257 -0.23920482 0.19670856 0.10286607 0.22175282
-0.038926784 0.03383142 0.07630291
00000000: a2d5 80be a08e 5bbd 67b8 05be a4d6 a0be
00000010: 6cd6 ed3d d23a 80be 801c db3c 4b36 60be
00000020: ff82 403e 7d0b ebbc aa07 bfbc a600 733d
00000030: 8f84 253e 44a7 03be fa50 68be f2fd 76bd
00000040: f41f 463e e4b1 0a3d 3491 1abe 764f 5dbd
00000050: bae4 27bd 8fb3 333e 1a2d 1a3e f4c3 31bd
00000060: fa42 dcbd cbf7 7d3e 19c0 7b3e 1213 43bd
00000070: d1a8 803e 115c 173e 37a8 80bd c583 3ebd
00000080: 3952 353e 542b 67be e72d b1bd 0fd9 003d
00000090: 5ed2 293e eab4 223e 3625 c53d 587c 1a3d
000000a0: 1fa6 923d c2f7 213c c559 83be 294c c6bd
000000b0: 9c44 31be ccb9 493e dabb 80be fa90 de3d
000000c0: ed4c 0cbe c46d 5f3d aa5b 1bbd 0e61 4c3e
000000d0: 8f48 063e 58b0 e3be 93cd 3dbe fe0d 7a3e
000000e0: 946a 073e 1402 a23b 60b9 6abe 536e 243e
000000f0: 56a5 423e a029 84be c0a4 8b3e 13d7 ccbd
00000100: 7c31 d3bd 96a7 513e b9f2 65be 0c94 75be
00000110: 1cf2 74be f86d 493e 72ab d23d 2c13 633e
00000120: b171 1fbd d192 0a3d b344 9c3d

conv1_1_4.bias f4 [5]
-0.2499392 -0.27513084 0.22979078 0.24055201 0.1571649
00000000: 10f0 7fbe f3dd 8cbe 464e 6b3e 4453 763e
00000010: d6ef 203e

conv1_2_1.weight f4 [5, 20, 3]
-0.22350083 -0.1460195 -0.1959546 -0.15676983 -0.088623546 0.019198557 -0.27064696 -0.16375594
-0.096779086 -0.051633198 -0.035445403 -0.027017996 -0.005364412 0.08371929 -0.10205368 0.016334357
-0.044972662 -0.14870957 -0.034294024 -0.013309063 -0.07499511 -0.107635364 -0.0057262615 -0.0049104835
0.042205803 -0.08281868 0.03207645 -0.12292352 -0.19222857 -0.08325129 -0.12536494 0.080664285
0.0012224952 0.09911936 0.006818253 -0.21642601 -0.011127536 -0.06698465 -0.09104049 -0.05495647
-0.02988532 0.09456573 0.05498697 -0.1337996 0.017524667 0.032555286 0.06637793 -0.16105565
-0.1255791 0.101092145 -0.058982305 -0.04038704 -0.19055139 0.049303606 0.03466383 0.066512264
0.006367294 0.18739428 0.047421318 0.17184769 -0.052458458 0.12275892 0.015616125 0.082929306
0.08805352 0.046750065 -0.03206312 -0.07728691 0.029597186 0.0044364845 0.15494083 0.097355224
-0.16490315 0.026437998 -0.13745983 -0.10164832 -0.1283241 -0.018700318 0.11309037 0.083766624
-0.006203423 -0.060725436 -0.1721207 -0.12817702 -0.17247683 -0.043157972 0.10188386 -0.018218355
-0.1599885 -0.22430646 0.023004547 0.040834922 -0.018237473 0.033785168 0.106066994 0.09138561
0.051133808 0.038254682 -0.05820813 -0.00868038 0.16055591 -0.028968668 0.057096466 0.050631016
0.03911894 0.04297993 -0.083977774 -0.03509251 0.079022944 0.06877757 0.025839709 0.02046928
-0.002959733 -0.14811671 0.016172325 -0.040407132 -0.042109326 0.093301885 -0.0023374502 0.13154036
-0.009236883 -0.033738986 -0.023508092 -0.15667614 -0.21373656 -0.115927346 -0.15219805 0.0632878
-0.40062338 -0.11613073 0.060776338 0.1679751 -0.02910628 -0.19018185 0.057943087 -0.010792783
-0.16507244 -0.04585369 -0.07404389 -0.18724641 -0.089946695 -0.15754528 -0.09777889 0.0058438587
-0.10789564 -0.13546193 0.00821973 0.06799124 -0.16070169 -0.12859215 -0.07291042 0.0058708065
0.059963223 0.027420128 0.057525795 0.06494701 0.12168456 0.12032143 0.0066933054 0.15298851
-0.08501516 -0.12349479 0.07429287 0.113717206 -0.070324525 -0.05639969 -0.059885137 -0.069309235
-0.02600447 0.031193996 0.0009871175 -0.014233695 -0.077700496 -0.044129148 0.060894404 -0.15476389
-0.079138294 -0.061687186 -0.15228172 0.1216316 0.17517337 -0.08759495 -0.07507318 0.064553656
0.14203297 -0.035134178 0.044723112 -0.0876501 -0.04879267 -0.17848223 0.042514734 -0.015500794
-0.0717677 -0.13284679 -0.13967422 -0.22653101 -0.06997363 -0.21624634 -0.16552526 0.18360965
0.069684245 -0.08769416 0.035360843 0.012057229 -0.007706876 -0.13162583 -0.06580556 0.13448434
0.08808087 0.048595738 0.06930819 -0.054354012 -0.11500923 -0.010017595 -0.00065158505 -0.054555483
-0.049462028 -0.024254775 0.0446712 0.15325922 0.100415826 0.14291775 0.19956675 0.066559
0.09094366 -0.06524311 -0.1045868 -0.12113933 0.15542407 0.13375875 0.26767042 0.053079102
-0.091671154 -0.1161753 -0.06826079 -0.10570734 0.11138575 0.04263523 0.06896616 -0.08118299
-0.025484266 0.035033036 0.16719754 0.012071362 -0.1241275 -0.123470455 -0.077825926 0.024897704
0.0025675853 0.006574958 0.06972356 0.06311495 -0.19062911 -0.16725838 -0.05051537 0.059109952
00000000: 67dd 64be 2386 15be 53a8 48be 4588 20be
00000010: 4380 b5bd 4b46 9d3c 3d92 8abe a3af 27be
00000020: 1d34 c6bd 557d 53bd 332f 11bd d854 ddbc
00000030: f3c7 afbb 0575 ab3d 8501 d1bd a1cf 853c
00000040: 4135 38bd 5247 18be e477 0cbd 420e 5abc
00000050: 0997 99bd ee6f dcbd 5da3 bbbb 1fe8 a0bb
00000060: fedf 2c3d d79c a9bd 9862 033d 54bf fbbd
00000070: 91d7 44be a77f aabd ab5f 00be 5133 a53d
00000080: 223c a03a 17ff ca3d a76b df3b c89e 5dbe
00000090: 4550 36bc 402f 89bd 7073 babd 091a 61bd
000000a0: 0fd2 f4bc adab c13d 043a 613d c302 09be
000000b0: e48f 8f3c b158 053d 27f1 873d c6eb 24be
000000c0: cf97 00be 6609 cf3d 6e97 71bd e16c 25bd
000000d0: e71f 43be 94f2 493d a9fb 0d3d 9537 883d
000000e0: bca4 d03b 49e4 3f3e db3c 423d d7f8 2f3e
000000f0: aede 56bd 0769 fb3d c7da 7f3c d7d6 a93d
00000100: 6755 b43d ff7c 3f3d 9e54 03bd 9948 9ebd
00000110: cc75 f23c ee5f 913b cfa8 1e3e 2d62 c73d
00000120: 5fdc 28be 8094 d83c 45c2 0cbe ff2c d0bd
00000130: 6567 03be 6931 99bc ed9b e73d d68d ab3d
00000140: 1546 cbbb 3cbb 78bd 6940 30be d640 03be
00000150: c49d 30be 6ac6 30bd 7ca8 d03d a93e 95bc
00000160: 06d4 23be 98b0 65be 0874 bc3c 8542 273d
00000170: c166 95bc 5162 0a3d a739 d93d 6128 bb3d
00000180: af71 513d f1b0 1c3d a66b 6ebd 2738 0ebc
00000190: c568 243e b34f edbc fcdd 693d 7862 4f3d
000001a0: 2e3b 203d b90b 303d 8afc abbd 2abd 0fbd
000001b0: c8d6 a13d 41db 8c3d ccad d33c 31af a73c
000001c0: 14f8 41bb e8ab 17be d37b 843c f381 25bd
000001d0: d47a 2cbd 0f15 bf3d e82f 19bb 84b2 063e
000001e0: 4c56 17bc e431 0abd 0b94 c0bc b66f 20be
000001f0: c2dd 5abe 516b edbd ced9 1bbe 099d 813d
00000200: 821e cdbe f3d5 edbd 9cf0 783d aa01 2c3e
00000210: 4b70 eebc 08bf 42be bb55 6d3d 37d4 30bc
00000220: c008 29be 14d1 3bbd 53a4 97bd 86bd 3fbe
00000230: f935 b8bd 8d53 21be 4c40 c8bd d77d bf3b
00000240: 64f8 dcbd 88b6 0abe 0cac 063c fe3e 8b3d
00000250: fc8e 24be a9ad 03be 0f52 95bd e55f c03b
00000260: ff9b 753d 2da0 e03c 2ba0 6b3d f002 853d
00000270: c135 f93d 156b f63d 8453 db3b 05a9 1c3e
00000280: 6e1c aebd d6ea fcbd dc26 983d 91e4 e83d
00000290: 4e06 90bd 5d03 67bd 1e4a 75bd 00f2 8dbd
000002a0: 5407 d5bc 8d8a ff3c 2b62 813a 7234 69bc
000002b0: 7021 9fbd c4c0 34bd 696c 793d 6d7a 1ebe
000002c0: 4213 a2bd b4ab 7cbd bdef 1bbe fd19 f93d
000002d0: a660 333e fb64 b3bd f8bf 99bd b534 843d
000002e0: 1771 113e dbe8 0fbd 952f 373d e581 b3bd
000002f0: d3da 47bd 0cc4 36be ee23 2e3d 0bf7 7dbc
00000300: f2fa 92bd fd08 08be c206 0fbe bff7 67be
00000310: 564e 8fbd ae6f 5dbe 747f 29be 2b04 3c3e
00000320: 9db6 8e3d ff98 b3bd 88d6 103d af8b 453c
00000330: f689 fcbb ecc8 06be 11c5 86bd 43b6 093e
00000340: be63 b43d 530c 473d 74f1 8d3d 50a2 5ebd
00000350: f689 ebbd d720 24bc 22cf 2aba 9275 5fbd
00000360: b298 4abd f3b1 c6bc 26f9 363d fcef 1c3e
00000370: d0a6 cd3d 0859 123e 3a5b 4c3e 1650 883d
00000380: ab40 ba3d 2e9e 85bd 9b31 d6bd e617 f8bd
00000390: 7d27 1f3e 0ef8 083e 190c 893e 7969 593d
000003a0: 16be bbbd 51ed edbd 50cc 8bbd 177d d8bd
000003b0: 361e e43d 47a2 2e3d 213e 8d3d 4443 a6bd
000003c0: 61c4 d0bc cd7e 0f3d d535 2b3e f6c6 453c
000003d0: 8f36 febd 14de fcbd 3363 9fbd 45f6 cb3c
000003e0: ef44 283b bf72 d73b 3acb 8e3d 6942 813d
000003f0: 4734 43be c845 2bbe 34e9 4ebd 471d 723d

conv1_2_1.bias f4 [5]
-0.10122408 0.07106768 0.0859105 0.026070725 0.038623042
00000000: 924e cfbd ef8b 913d d8f1 af3d 4692 d53c
00000010: 3233 1e3d

conv1_2_2.weight f4 [5, 20, 5]
-0.053049076 0.020042393 -0.019733662 -0.032419253 0.09884103 -0.065346844 -0.10585293 -0.014693578
0.07234042 -0.071511604 0.0055401595 -0.05001997 0.0651127 0.07566163 0.11409968 0.0012958498
-0.13713576 -0.10078753 0.09827843 0.03710282 0.08118457 -0.05102152 -0.027967056 -0.02640505
-0.09154955 0.021278411 -0.027574925 -0.121266276 0.082773216 0.079275005 0.051564626 -0.0391993
-0.040026877 -0.10784008 -0.06141643 0.07794327 0.004452201 -0.04608014 0.01763717 0.03490337
-0.010720452 -0.05048805 0.048510116 -0.08739486 0.05231388 0.024712361 0.008922213 0.0060879244
-0.082831345 -0.008912308 0.034328002 -0.022512738 -0.1099305 -0.05689871 -0.020381896 -0.038656656
0.07852085 0.101211056 -0.0580899 0.060321163 0.082732 0.06680622 0.026932718 -0.06277257
0.078175254 0.0718079 -0.052120645 -0.08729238 0.08246905 -0.043005798 0.0012009393 -0.011466751
0.11380621 -0.04243935 0.020658897 -0.08939243 0.07194174 0.0851367 -0.041202392 -0.0859458
0.015594489 -0.0023718597 0.00867869 -0.036167756 0.017713826 -0.08417875 -0.032199655 0.05730015
0.0027982332 -0.019500878 -0.094457135 0.02141605 -0.13559666 0.018859994 0.07340382 -0.071545035
-0.10118726 -0.0059077414 -0.0931959 -0.055723134 0.12562494 -0.0950347 0.11809715 -0.11141655
-0.024200967 -0.06705745 0.05159757 0.13357921 -0.14118621 -0.047056254 0.17308858 -0.08636092
-0.061278053 -0.22472352 -0.003978544 -0.086905874 -0.025315713 0.015175785 0.112889014 -0.05272587
-0.06339856 0.07461603 -0.023823936 -0.04414678 -0.07125426 -0.01960208 0.06890086 0.015371476
-0.029684858 -0.121219106 -0.071385615 0.025007032 0.108338 0.15056106 -0.033864073 -0.121696964
0.04454686 0.02552493 0.014906598 -0.12273836 -0.082947046 -0.12448999 -0.062774345 -0.119285144
-0.0060550724 -0.09443067 0.070684016 0.0076128137 -0.0529126 0.07557436 -0.09345504 0.07069982
-0.004646696 -0.08904917 0.020323712 0.1180399 0.11965751 -0.014248723 0.01631741 0.09387711
0.018448211 0.06269592 0.007702279 0.021582445 0.07813762 0.12302605 -0.09784608 0.039742757
0.17347157 0.15393072 0.1106715 0.037936077 0.13974918 -0.044591736 -0.0760002 0.073380455
-0.06243233 0.08302228 0.06713981 0.034883957 0.20738006 0.15733267 -0.096057266 -0.07979946
0.13453837 0.011740989 -0.10499807 0.07155064 -0.07103127 0.07353809 0.09498364 -0.053564217
0.11551986 0.036131963 0.09410126 -0.12739033 0.075358 -0.00581641 0.1632293 -0.066714585
0.009738912 -0.12080726 -0.11116229 0.07259938 -0.029527582 -0.14002533 -0.12805551 -0.038462505
-0.13154097 0.16335404 -0.09484689 0.098431736 0.10321218 0.1037679 0.11701193 -0.009167147
0.02611706 -0.024427194 -0.046056785 0.011116079 0.039943606 -0.063448034 0.07648197 0.04702086
0.09616402 -0.06444219 0.07943495 -0.084898666 -0.018309243 -0.1875247 -0.04139086 0.058833174
0.018090907 0.038323775 0.08019307 -0.014043804 0.018152146 0.07546909 -0.08770346 0.026544958
0.06683255 -0.007843108 -0.0365137 0.0048810323 -0.07934171 -0.007006709 -0.02800102 0.09751881
0.10974755 0.18863793 0.03400269 -0.036021076 -0.066504225 0.0018442328 -0.02738762 0.050313044
00000000: fd49 59bd f22f a43c 7da8 a1bc 0dca 04bd
00000010: 2a6d ca3d 91d4 85bd 6cc9 d8bd 55bd 70bc
00000020: 3727 943d ad74 92bd 3a8a b53b bde1 4cbd
00000030: cf59 853d 7cf4 9a3d 18ad e93d 81d9 a93a
00000040: 516d 0cbe b169 cebd 3446 c93d 20f9 173d
00000050: 1944 a63d f1fb 50bd 2b1b e5bc 674f d8bc
00000060: 557e bbbd 1050 ae3c cfe4 e1bc 745a f8bd
00000070: 0185 a93d ef5a a23d 6e35 533d 728f 20bd
00000080: 39f3 23bd 43db dcbd cb8f 7bbd b9a0 9f3d
00000090: c5e3 913b 87be 3cbd d47b 903c d6f6 0e3d
000000a0: d6a4 2fbc 8fcc 4ebd 8bb2 463d 14fc b2bd
000000b0: 1447 563d 9471 ca3c 792e 123c 367d c73b
000000c0: 7ba3 a9bd ee04 12bc 859b 0c3d a26c b8bc
000000d0: 3e23 e1bd 9f0e 69bd eff7 a6bc 7156 1ebd
000000e0: 8acf a03d be47 cf3d adef 6dbd 5313 773d
000000f0: 656f a93d b3d1 883d 01a2 dc3c e88e 80bd
00000100: 591a a03d 0510 933d 757c 55bd 59c6 b2bd
00000110: 89e5 a83d d926 30bd d668 9d3a 0adf 3bbc
00000120: 3b13 e93d e2d4 2dbd d93c a93c 6113 b7bd
00000130: 3156 933d 265c ae3d d7c3 28bd 5a04 b0bd
00000140: 0780 7f3c 3471 1bbb 1031 0e3c a424 14bd
00000150: 961c 913c e965 acbd c9e3 03bd 90b3 6a3d
00000160: 9062 373b 4ec0 9fbc be72 c1bd b670 af3c
00000170: dad9 0abe 4680 9a3c be54 963d 3486 92bd
00000180: 443b cfbd ba95 c1bb 7edd bebd f13d 64bd
00000190: d3a3 003e 8ea1 c2bd ebdc f13d 5c2e e4bd
000001a0: 1b41 c6bc 6b55 89bd f957 533d fdc8 083e
000001b0: 1e93 10be 0fbe 40bd 223e 313e fedd b0bd
000001c0: b2fe 7abd ec1d 66be 725e 82bb b5fb b1bd
000001d0: e662 cfbc dba3 783c 5b32 e73d 15f7 57bd
000001e0: 1bd7 81bd 4ad0 983d 6a2a c3bc 41d3 34bd
000001f0: c1ed 91bd 8b94 a0bc e51b 8d3d a5d8 7b3c
00000200: a92d f3bc b941 f8bd 9f32 92bd 8cdb cc3c
00000210: 50e0 dd3d ae2c 1a3e 0eb5 0abd 423c f9bd
00000220: c576 363d a819 d13c ce3a 743c 405e fbbd
00000230: 24e0 a9bd 9cf4 febd d68f 80bd c54b f4bd
00000240: a169 c6bb de64 c1bd c8c2 903d e974 f93b
00000250: e2ba 58bd bbc6 9a3d 5b65 bfbd 11cb 903d
00000260: 5043 98bb 695f b6bd ea7d a63c e7be f13d
00000270: ff0e f53d 7a73 69bc 17ac 853c a442 c03d
00000280: b420 973c b866 803d 6663 fc3b abcd b03c
00000290: 9e06 a03d 15f5 fb3d 8763 c8bd 4dc9 223d
000002a0: 88a2 313e 04a0 1d3e bda7 e23d dc62 1b3d
000002b0: 691a 0f3e d3a5 36bd fea5 9bbd 7e48 963d
000002c0: 0bb9 7fbd 9607 aa3d 9980 893d 7be2 0e3d
000002d0: 705b 543e d11b 213e acb9 c4bd e66d a3bd
000002e0: 6dc4 093e 475d 403c 3a09 d7bd 2489 923d
000002f0: d878 91bd 239b 963d c886 c23d 2766 5bbd
00000300: ad95 ec3d 1cff 133d 29b8 c03d 9c72 02be
00000310: 4c55 9a3d 9597 bebb 9525 273e a8a1 88bd
00000320: f58f 1f3c cc69 f7bd 0ea9 e3bd fcae 943d
00000330: d4e3 f1bc cd62 0fbe fc20 03be dc8a 1dbd
00000340: adb2 06be 4846 273e 163f c2bd 9496 c93d
00000350: e860 d33d 4484 d43d f3a3 ef3d cd31 16bc
00000360: 72f3 d53c 8a1b c8bc 0aa6 3cbd 3720 363c
00000370: e89b 233d 0bf1 81bd 94a2 9c3d f298 403d
00000380: a4f1 c43d 44fa 83bd cbae a23d 5adf adbd
00000390: 44fd 95bc 7a06 40be 7689 29bd 0efb 703d
000003a0: 6233 943c 64f9 1c3d 443c a43d fc17 66bc
000003b0: cfb3 943c 8a8f 9a3d df9d b3bd d074 d93c
000003c0: 81df 883d 6180 00bc 648f 15bd 11f1 9f3b
000003d0: e87d a2bd 8998 e5bb 6562 e5bc f1b7 c73d
000003e0: 53c3 e03d 4d2a 413e 6846 0b3d d68a 13bd
000003f0: 5e33 88bd 2fba f13a 015c e0bc 0d15 4e3d

conv1_2_2.bias f4 [5]
0.08584583 0.08369648 0.07912822 -0.05669167 0.05171513
00000000: f0cf af3d 0f69 ab3d fa0d a23d 8635 68bd
00000010: 3fd3 533d

conv1_2_3.weight f4 [5, 20, 11]
-0.072089456 -0.16652161 -0.21835499 -0.12790112 -0.1432619 -0.14765672 0.014905405 0.017392455
0.059633136 0.09505289 0.13659023 -0.08920168 -0.027281366 -0.050398763 -0.13297746 -0.1439248
-0.07829229 -0.032803345 0.07739063 0.011318951 -0.07265093 -0.015801534 -0.017158411 -0.08168751
-0.10097996 -0.12587123 0.011513292 0.15534356 0.082216874 0.025615314 -0.01151468 -0.0018800795
-0.099428214 -0.06591095 0.045821775 0.13447422 0.05026487 -0.049303465 -0.096794374 -0.11261644
-0.14982864 0.016846847 -0.020557279 -0.021505684 -0.038299683 -0.056547377 0.009661913 0.021450747
0.028721036 -0.024669781 -0.023924077 -0.045118004 0.01670771 -0.03462204 -0.08652359 -0.07118833
-0.10947012 -0.027795838 0.06366995 -0.048339102 -0.037901573 -0.21111049 -0.15567176 -0.03414017
-0.031234495 -0.10041294 -0.23956065 -0.16212517 -0.12099384 -0.2101367 -0.15224168 -0.1323089
-0.10129695 -0.0610579 -0.0397784 -0.04902093 0.024322186 -0.07497321 -0.01313797 -0.07030997
-0.054844245 0.04400929 -0.012450784 -0.053559855 -0.09666562 -0.111533776 -0.06340939 -0.06127345
0.020057246 -0.034800734 0.002306992 0.04604182 0.07170921 0.047012925 -0.07698767 -0.0861234
-0.06402784 0.026506076 -0.01576545 0.033753734 0.0015478446 -0.031773902 -0.05919618 0.029523758
0.16871388 0.06613249 0.03357771 0.11395567 -0.017671827 -0.05719205 -0.17770468 -0.051704194
-0.121405736 -0.03888401 -0.068814285 0.024994304 -0.051590033 0.003493567 -0.002785288 -0.0006436199
-0.037238155 -0.10904817 -0.17476754 -0.16691633 -0.17385332 -0.12140608 -0.04281069 -0.058180008
0.02734787 0.0647596 -3.0480309e-05 0.0637601 -0.10951457 -0.054298088 -0.16608502 -0.11364085
-0.06420499 -0.105834484 -0.087903194 -0.08411533 -0.005581161 0.036332507 0.024359925 -0.089650385
-0.05556229 -0.064415164 -0.13077022 -0.053408258 -0.105733976 0.019798785 -0.019869352 0.077087656
0.049506966 0.06906013 -0.098697975 -0.06691574 -0.062306996 -0.025907848 -0.06600165 -0.033404272
0.016562544 0.09841424 0.11582357 0.13806938 0.058866728 -0.27039412 -0.18588693 -0.123898186
-0.019679524 -0.022381863 0.046313006 0.044990722 0.010193164 -0.02908577 -0.008720945 -0.03587787
-0.19217128 -0.0750442 -0.104308926 -0.117003925 -0.040382393 0.059339162 0.10480809 0.1614787
0.14967148 0.11343911 0.1270589 -0.07562479 -0.015172605 -0.033558536 -0.11066988 0.00375789
-0.037013095 0.0025523796 -0.04700391 0.07208801 -0.034573436 -0.04944529 -0.07654598 -0.070220076
-0.09232634 0.014114202 0.0057501933 -0.080618024 -0.09714194 -0.051378194 -0.06391156 -0.1064795
-0.12062273 0.07821335 -0.02861494 -0.022315776 0.10779536 0.049656462 0.06616778 -0.01903663
-0.04518715 -0.13346513 -0.17688088 -0.17044836 -0.010159923 -0.033394866 -0.09895062 0.019677203
0.0403339 -0.014056278 0.021421777 -0.16098014 -0.06887832 -0.038478807 0.04283481 -0.016799957
0.0066296672 0.14331025 -0.19582754 -0.032018457 -0.07563179 -0.114399984 0.176692 -0.03129209
-0.079017155 -0.20162149 -0.11801961 -0.086352475 -0.2340454 -0.21432927 0.015883954 0.006530425
-0.03209892 -0.103667 -0.17272198 -0.1152563 -0.21463417 0.061342143 0.0014215704 0.08511674
00000000: a3a3 93bd a484 2abe 7398 5fbe 83f8 02be
00000010: 3fb3 12be 5333 17be cd35 743c 9f7a 8e3c
00000020: e041 743d 17ab c23d 4fde 0b3e 5faf b6bd
00000030: 2c7d dfbc ef6e 4ebd 3e2b 08be 0661 13be
00000040: b557 a0bd cd5c 06bd fb7e 9e3d 1f73 393c
00000050: 03ca 94bd 3872 81bc cc8f 8cbc c84b a7bd
00000060: 95ce cebd 63e4 00be 3fa2 3c3c 6212 1f3e
00000070: 5261 a83d 35d7 d13c 12a8 3cbc 006d f6ba
00000080: 05a1 cbbd 52fc 86bd 9daf 3b3d 9cb3 093e
00000090: 89e2 4d3d 6ef2 49bd 213c c6bd 73a3 e6bd
000000a0: ae6c 19be 6602 8a3c bd67 a8bc b02c b0bc
000000b0: 21e0 1cbd 399e 67bd 004d 1e3c 7ab9 af3c
000000c0: 6148 eb3c 4818 cabc 6dfc c3bc a8cd 38bd
000000d0: 9cde 883c d7cf 0dbd 4833 b1bd 30cb 91bd
000000e0: df31 e0bd 19b4 e3bc 6465 823d 39ff 45bd
000000f0: ae3e 1bbd 592d 58be 6b68 1fbe 90d6 0bbd
00000100: 7cdf ffbc 4da5 cdbd 634f 75be 2404 26be
00000110: 9ecb f7bd 132e 57be 3ee5 1bbe fc7b 07be
00000120: c674 cfbd d917 7abd adee 22bd 2cca 48bd
00000130: 523f c73c 8e8b 99bd a440 57bc acfe 8fbd
00000140: 5ca4 60bd 1643 343d 60fe 4bbc 9461 5bbd
00000150: a0f8 c5bd d26b e4bd c8dc 81bd def9 7abd
00000160: 184f a43c 378b 0ebd e730 173b 5996 3c3d
00000170: 47dc 923d a090 403d b6ab 9dbd 7761 b0bd
00000180: 0721 83bd 4523 d93c 8c26 81bc 5b41 0a3d
00000190: 0ce1 ca3a 5a25 02bd b277 72bd cfdb f13c
000001a0: 55c3 2c3e 7970 873d c888 093d 9761 e93d
000001b0: 82c4 90bc 3642 6abd 37f8 35be c7c7 53bd
000001c0: 92a3 f8bd d744 1fbd 81ee 8cbd dbc0 cc3c
000001d0: 1250 53bd 54f4 643b 6189 36bb 9ab8 28ba
000001e0: 0987 18bd a654 dfbd 43f6 32be 1dec 2abe
000001f0: 9b06 32be c0a3 f8bd 435a 2fbd 294e 6ebd
00000200: a408 e03c aea0 843d f7af ffb7 a894 823d
00000210: 2d49 e0bd ac67 5ebd 3112 2abe 89bc e8bd
00000220: e87d 83bd c0bf d8bd 9706 b4bd a844 acbd
00000230: 2ce2 b6bb 65d1 143d 778e c73c 9f9a b7bd
00000240: 4995 63bd 19ec 83bd a1e8 05be 9ec2 5abd
00000250: 0e8b d8bd 1031 a23c 0dc5 a2bc 22e0 9d3d
00000260: d1c7 4a3d 666f 8d3d 2a22 cabd 1f0b 89bd
00000270: 9f35 7fbd b23c d4bc e02b 87bd ebd2 08bd
00000280: 2cae 873c 688d c93d e834 ed3d 0f62 0d3e
00000290: 3d1e 713d 1971 8abe 2559 3ebe 55be fdbd
000002a0: f436 a1bc 2b5a b7bc b5b2 3d3d 3148 383d
000002b0: 3b01 273c 4845 eebc 4be2 0ebc acf4 12bd
000002c0: 8cc8 44be c6b0 99bd eb9f d5bd c19f efbd
000002d0: 0268 25bd 9f0d 733d a0a5 d63d ac5a 253e
000002e0: 7b43 193e c452 e83d ba1b 023e 2be1 9abd
000002f0: 8596 78bc ad74 09bd e4a6 e2bd ef46 763b
00000300: 0b9b 17bd d345 273b 2c87 40bd e1a2 933d
00000310: e09c 0dbd 2587 4abd 24c4 9cbd 8bcf 8fbd
00000320: 9815 bdbd 413f 673c 1e6c bc3b 101b a5bd
00000330: 5af2 c6bd f171 52bd 10e4 82bd ed11 dabd
00000340: 0d09 f7bd 522e a03d e169 eabc 93cf b6bc
00000350: d0c3 dc3d 9364 4b3d f982 873d b5f2 9bbc
00000360: 2916 39bd 15ab 08be 4320 35be 048a 2ebe
00000370: ce75 26bc 0ec9 08bd 9fa6 cabd 1632 a13c
00000380: 2935 253d 4e4c 66bc b97c af3c fad7 24be
00000390: 1410 8dbd f49b 1dbd 8e73 2f3d 10a0 89bc
000003a0: ae3d d93b ecbf 123e 0487 48be c925 03bd
000003b0: d7e4 9abd 8a4a eabd bfee 343e 222c 00bd
000003c0: bfd3 a1bd dd75 4ebe 44b4 f1bd 91d9 b0bd
000003d0: 99a9 6fbe 2279 5bbe 111f 823c 2dfd d53b
000003e0: 287a 03bd 5d4f d4bd 08de 30be 7f0b ecbd
000003f0: 0fc9 5bbe e641 7b3d fd53 ba3a af51 ae3d

conv1_2_3.bias f4 [5]
0.0040863757 0.033663947 0.058938112 0.07206674 0.04660696
00000000: 01e7 853b 35e3 093d 1769 713d ba97 933d
00000010: f1e6 3e3d

conv1_2_4.weight f4 [5, 20, 15]
-0.007212975 0.046844732 0.044150524 -0.02059258 -0.05135954 -0.01566241 0.047449015 -0.038134266
-0.025673848 -0.00044973902 -0.03147929 0.023700869 0.030112818 0.00094392314 -0.07614217 -0.063161954
-0.06872821 0.040520065 -0.027961375 -0.028774064 0.021866193 -0.08363782 -0.013626037 0.0424443
0.015681405 0.013667727 -0.07600621 -0.10260176 -0.07479967 -0.15717126 0.29615924 0.1280629
0.20425765 0.15481909 0.176871 0.22314139 0.26659992 0.20314851 0.18649915 0.152393
0.28702652 0.16252425 0.085643396 0.30116355 0.26982573 0.023816912 0.043757614 -0.013738198
0.024640398 0.032731716 0.05468383 0.008840749 0.0073924153 -0.088537514 0.00821237 0.060840365
0.066596724 0.0033565238 0.09918406 0.021844028 0.0074158222 -0.029058639 0.0048555476 0.05585268
0.044130452 -0.022728223 -0.03100922 0.0050383597 0.04600542 0.07606949 0.06946932 0.054271456
0.16188508 0.15761884 0.10051333 -0.043980766 -0.02733991 -0.026201757 0.01085491 0.1316585
0.13030109 0.2135625 0.14063749 0.04992473 0.016280755 0.11210403 -0.045912538 -0.023518443
0.060733024 0.15600084 0.011947019 0.027934847 0.026507426 -0.010914875 0.0054850597 -0.044902727
-0.103809 0.041024044 0.046777558 -0.05562758 -0.16030301 -0.08602761 -0.069309466 -0.22443172
-0.24155238 0.12076489 0.069713496 -0.01775228 0.030397044 -0.024548242 -0.013680624 0.019891888
0.15044661 0.0786851 0.15667886 0.07245855 0.20049119 0.15544382 0.12474926 0.05709304
0.026669966 0.05004503 0.005317903 -0.02559588 -0.004981745 0.063257456 -0.003257758 0.107811175
0.096512266 0.07840634 0.15384226 0.21359596 0.23740342 0.19427824 0.2045878 0.035625063
0.015532968 0.026015203 0.044601664 0.030846465 0.03177175 0.001839011 0.03128144 -0.022561543
-0.04488456 -0.07790175 -0.09956241 -0.10954177 -0.14809586 -0.12682919 0.024989342 0.033697672
0.022851387 0.014386934 0.04275318 0.03060694 0.005363001 -0.021796353 -0.0407225 -0.03897535
-0.15126176 -0.100811206 -0.18280786 -0.30449647 -0.2936624 0.046436153 0.08826912 -0.013216502
-0.041380994 0.037590913 -0.020215925 -0.0057500484 0.0037805252 -0.024260573 0.010963293 0.08913173
0.06747497 0.024456492 -0.009498178 -0.1468322 -0.031219818 0.06291008 0.041381717 0.025827548
0.0011772633 -0.03318404 0.024614103 0.06979042 -0.03380577 0.015034242 0.13039345 0.08769115
0.02947651 0.020588115 -0.039161682 0.028196143 0.018628864 0.02737895 -0.024529766 0.013444865
-0.056310643 -0.07021468 -0.040163964 0.03588606 0.03454309 0.003069219 -0.08279372 -0.062398568
-0.15132613 -0.22588253 0.015030484 -0.010389347 -0.03532412 0.0116673615 -0.0079148 0.04238128
0.025691345 0.0662448 -0.022294788 -0.017448463 -0.059787832 -0.07164738 -0.13418362 -0.17673287
-0.20142926 0.07913262 0.16681519 0.043786637 0.14776969 0.19423312 0.14513536 0.19079705
0.099617824 0.10837383 0.05879926 -0.024642818 -0.03766684 0.029623209 0.005447906 0.065248966
-0.0037637209 -0.095522106 -0.050482124 -0.018773621 -0.021103727 -0.07763506 -0.045274295 -0.07519983
0.0123990355 0.035319924 0.099329256 0.024356088 -0.07263814 0.040619876 -0.020807596 0.04473992
00000000: d25a ecbb 43e0 3f3d 2ed7 343d c5b1 a8bc
00000010: 625e 52bd 744e 80bc e659 423d ad32 1cbd
00000020: f651 d2bc f3ca ebb9 6ef0 00bd 5328 c23c
00000030: 28af f63c 9c71 773a 6df0 9bbd 0e5b 81bd
00000040: 60c1 8cbd 5ef8 253d 410f e5bc 96b7 ebbc
00000050: bb20 b33c 4e4a abbd be3f 5fbc 13da 2d3d
00000060: 4a76 803c 9aee 5f3c 25a9 9bbd df20 d2bd
00000070: 9230 99bd 81f1 20be 2fa2 973e ec22 033e
00000080: eb28 513e e588 1e3e ac1d 353e 2d7f 643e
00000090: c97f 883e 2a06 503e a2f9 3e3e e90c 1c3e
000000a0: 24f5 923e c26c 263e ce65 af3d 1c32 9a3e
000000b0: 9926 8a3e af1b c33c 2f3b 333d 2e16 61bc
000000c0: a9da c93c b111 063d 27fc 5f3d cad8 103c
000000d0: 133c f23b 2853 b5bd 2d8d 063c bf33 793d
000000e0: dd63 883d 20f9 5b3b 0321 cb3d 3ff2 b23c
000000f0: 6d00 f33b 620c eebc 491b 9f3b c8c5 643d
00000100: 22c2 343d 8a30 babc 0c07 febc d318 a53b
00000110: 2e70 3c3d 52ca 9b3d ee45 8e3d bf4b 5e3d
00000120: 34c5 253e d566 213e efd9 cd3d 2d25 34bd
00000130: f2f7 dfbc 11a5 d6bc cbd8 313c 7cd1 063e
00000140: a66d 053e 21b0 5a3e 4603 103e e07d 4c3d
00000150: 385f 853c cc96 e53d c90e 3cbd c0a9 c0bc
00000160: 31c3 783d afbe 1f3e 6ebd 433c 9fd7 e43c
00000170: 1a26 d93c 4ed4 32bc 04bc b33b eceb 37bd
00000180: d099 d4bd d408 283d d399 3f3d bfd9 63bd
00000190: 7926 24be 3e2f b0bd 1ff2 8dbd 6ed1 65be
000001a0: 8259 77be 9553 f73d f3c5 8e3d 3b6d 91bc
000001b0: 3903 f93c 6519 c9bc b224 60bc 50f4 a23c
000001c0: ad0e 1a3e a725 a13d 6c70 203e 2665 943d
000001d0: 904d 4d3e aa2c 1f3e 8a7c ff3d 64da 693d
000001e0: f97a da3c 04fc 4c3d ce41 ae3b 73ae d1bc
000001f0: e83d a3bb 208d 813d 1c80 55bb 1bcc dc3d
00000200: 39a8 c53d 8193 a03d d388 1d3e e6b8 5a3e
00000210: e219 733e e0f0 463e 777f 513e 96eb 113d
00000220: fd7d 7e3c d61d d53c 3cb0 363d bab1 fc3c
00000230: 1823 023d f80a f13a f820 003d fcd2 b8bc
00000240: dfd8 37bd f48a 9fbd 60e7 cbbd 6f57 e0bd
00000250: 71a6 17be 83df 01be 73b6 cc3c 9206 0a3d
00000260: d532 bb3c 2db7 6b3c f51d 2f3d 68bb fa3c
00000270: 1dbc af3b 448e b2bc a3cc 26bd 9ea4 1fbd
00000280: 5de4 1abe 1b76 cebd fc31 3bbe f6e6 9bbe
00000290: eb5a 96be d633 3e3d 71c6 b43d 078a 58bc
000002a0: 1e7f 29bd eef8 193d de9b a5bc e76a bcbb
000002b0: b0c2 773b 1cbe c6bc 629f 333c b28a b63d
000002c0: 5130 8a3d fb58 c83c 3f9e 1bbc 2e5b 16be
000002d0: b4c0 ffbc 00d7 803d e07f 293d 4b94 d33c
000002e0: 674e 9a3a fdeb 07bd 84a3 c93c 48ee 8e3d
000002f0: eb77 0abd 2e52 763c dc85 053e 6b97 b33d
00000300: b978 f13c 68a8 a83c 0068 20bd 99fb e63c
00000310: 8f9b 983c d249 e03c a6f2 c8bc da47 5c3c
00000320: fda5 66bd b7cc 8fbd f882 24bd 43fd 123d
00000330: 0e7d 0d3d f324 493b c18f a9bd a495 7fbd
00000340: 3df5 1abe c04d 67be 6b42 763c 1438 2abc
00000350: 06b0 10bd 7628 3f3c 14ad 01bc fe97 2d3d
00000360: a876 d23c 5bab 873d 8fa3 b6bc 14f0 8ebc
00000370: 16e4 74bd ddbb 92bd 6e67 09be 76f9 34be
00000380: 7943 4ebe 4810 a23d 9ad1 2a3e 9e59 333d
00000390: f050 173e 0ce5 463e 5d9e 143e 4d60 433e
000003a0: 6e04 cc3d 19f3 dd3d 7ed7 703d bcdf c9bc
000003b0: 8b48 1abd 5fac f23c 5984 b23b 40a1 853d
000003c0: c2a8 76bb 18a1 c3bd 58c6 4ebd 23cb 99bc
000003d0: b9e1 acbc 21ff 9ebd 8a71 39bd 5e02 9abd
000003e0: 5325 4b3c a0ab 103d 236d cb3d 6b86 c73c
000003f0: 4ec3 94bd 0761 263d b174 aabc 3541 373d

conv1_2_4.bias f4 [5]
-0.054928936 -0.05668896 -0.004605779 -0.05059555 -0.06197797
00000000: 2afd 60bd af32 68bd 13ec 96bb 483d 4fbd
00000010: 9ddc 7dbd

conv1_3_1.weight f4 [5, 20, 3]
0.016400233 -0.06244265 0.13227606 -0.088931866 -0.01318284 -0.07710272 0.1343691 -0.038497563
0.011941758 -0.074519984 0.06714676 -0.07617531 0.077414066 -0.091220565 0.1071995 0.09307231
0.049362633 0.106743954 -0.004573983 -0.020936301 0.09042154 -0.049602833 -0.11276731 -0.11041275
0.12615198 0.050998274 -0.051698357 0.10903474 0.08593862 0.042250123 -0.13243687 -0.14306451
-0.09480297 -0.14582434 -0.12642753 -0.1525724 -0.17100808 0.08882541 0.13366663 -0.051936228
-0.0348587 -0.17964661 -0.0086741205 -0.15366273 -0.06311444 -0.114422746 0.04222148 -0.115511194
-0.08974259 -0.04232931 -0.082270145 0.14839716 -0.00559631 -0.13433337 -0.031349275 -0.11332208
-0.11942014 0.11770911 -0.027330656 0.07236995 0.09801181 0.072264746 -0.02886861 -0.020426735
-0.06915537 0.10079491 0.12685096 0.08309378 -0.06409664 0.048722092 0.07317981 -0.030862292
-0.0614075 0.010068218 0.04556658 -0.0018430621 -0.056709494 0.081302635 0.013298756 0.043197665
0.054314725 0.038622156 -0.11524544 0.024810417 0.1304516 0.16777982 -0.016499327 -0.024695616
0.09570234 0.14350982 0.10054667 0.0015186338 0.019887343 0.17890047 -0.08252689 -0.15335087
-0.08914214 0.07629263 -0.02037223 -0.03187671 0.05411485 -0.05267803 -0.017416136 -0.14127107
-0.019881763 0.0036627015 0.14293183 0.0064040786 0.046738915 0.06354483 -0.075875886 -0.032957148
-0.014919152 0.09378372 -0.08617956 -0.02646955 -0.2178837 -0.060909502 0.15169214 -0.0573091
-0.029337283 8.511986e-06 0.01202192 0.0720351 -0.10816614 0.04095882 -0.038203552 -0.06110623
-0.1108878 -0.030990709 -0.08849844 -0.013838253 -0.08485945 -0.009883514 -0.048318755 -0.13853051
0.083830565 -0.037395313 -0.0811813 0.038788296 -0.090078674 0.107593656 -0.0060152016 -0.15145537
-0.069644324 -0.07632217 -0.029336322 0.06275433 0.03439111 -0.18600558 0.021378014 -0.12980735
-0.037672307 0.1213233 0.11131369 -0.14055903 0.045288153 -0.07672497 -0.16579041 0.038669005
-0.044183973 -0.05164022 0.16684036 0.041582555 -0.0120924795 0.051245775 0.14429565 -0.034235936
0.050056797 0.1463124 0.07621974 0.068302825 0.109517634 0.119930044 0.05709595 0.110748455
0.021631382 0.20697688 0.13911855 0.25446168 0.11282866 -0.06821527 0.07653689 0.10354887
0.083399385 -0.043792155 0.061776772 -0.019322673 0.0072173486 0.14717004 0.09965422 -0.06060469
-0.026693584 0.13275993 0.02732536 0.015251147 -0.09148145 -0.14849667 0.20363866 0.05085602
-0.074001834 -0.06168596 -0.08400642 -0.009771455 0.11201209 0.036058415 -0.13339114 0.26910043
0.08335351 -0.18993814 -0.15527734 -0.08985732 -0.01100853 0.0749904 -0.021213448 0.055529196
0.072600454 0.11567712 -0.07638197 -0.17027353 -0.083998166 0.149524 0.0545139 -0.00031087396
0.13366503 -0.11688299 -0.040817596 -0.0004895508 0.08960169 -0.047233745 -0.043361507 -0.10433269
0.109183155 0.088488236 -0.016529892 -0.12298336 0.08250047 -0.015488711 -0.044888183 0.03754126
0.1428777 -0.107259855 0.0058218683 -0.06818214 0.06794309 -0.09861477 0.11030103 -0.045535572
0.11415126 -0.078646 0.022168767 0.07277249 -0.067776956 -0.023739599 0.10212754 -0.013688561
00000000: c859 863c ddc3 7fbd 6073 073e e921 b6bd
00000010: d7fc 57bc 08e8 9dbd 0e98 093e 9faf 1dbd
00000020: 5da7 433c ef9d 98bd 3e84 893d cd01 9cbd
00000030: 448b 9e3d d9d1 babd 698b db3d b29c be3d
00000040: 7930 4a3d 939c da3d 5ae1 95bb 9b82 abbc
00000050: ee2e b93d 572c 4bbd 8cf2 e6bd 1420 e2bd
00000060: fc2d 013e 91e3 503d a8c1 53bd 9b4d df3d
00000070: 9600 b03d 770e 2d3d 889d 07be 817f 12be
00000080: 0f28 c2bd fa52 15be 3876 01be f03b 1cbe
00000090: be1c 2fbe 19ea b53d e8df 083e 15bb 54bd
000000a0: ffc7 0ebd 48f5 37be e61d 0ebc c359 1dbe
000000b0: 2542 81bd 7956 eabd 6ef0 2c3d 2291 ecbd
000000c0: f7ca b7bd 8061 2dbd 407d a8bd 6df5 173e
000000d0: 4061 b7bb b08e 09be 1968 00bd 6815 e8bd
000000e0: 8c92 f4bd 7911 f13d 8ae4 dfbc b236 943d
000000f0: 6aba c83d 8aff 933d dd7d ecbc f855 a7bc
00000100: 55a1 8dbd 906d ce3d 38e5 013e 122d aa3d
00000110: 1945 83bd d190 473d 4cdf 953d ebd2 fcbc
00000120: 6e86 7bbd 2bf5 243c 06a4 3a3d e792 f1ba
00000130: 3748 68bd ff81 a63d 07e3 593c 09f0 303d
00000140: 1e79 5e3d 4432 1e3d cd05 ecbd 373f cb3c
00000150: 1b95 053e 79ce 2b3e 9929 87bc 764e cabc
00000160: 97ff c33d 3df4 123e 6aeb cd3d e50c c73a
00000170: c8ea a23c af31 373e dc03 a9bd 0308 1dbe
00000180: 2790 b6bd 4f3f 9c3d aae3 a6bc 2791 02bd
00000190: 88a7 5d3d ebc4 57bd 49ac 8ebc 5da9 10be
000001a0: 14df a2bc ef09 703b b95c 123e 4ed9 d13b
000001b0: 4e71 3f3d cb23 823d d164 9bbd 13fe 06bd
000001c0: 756f 74bc ae11 c03d e97e b0bd abd6 d8bc
000001d0: e81c 5fbe 3e7c 79bd 2f55 1b3e f2bc 6abd
000001e0: be54 f0bc b4ce 0e37 96f7 443c 2387 933d
000001f0: 3686 ddbd 70c4 273d 547b 1cbd 874a 7abd
00000200: 2519 e3bd 3ae0 fdbc ac3e b5bd d7b9 62bc
00000210: cbca adbd 76ee 21bc e3e9 45bd f1da 0dbe
00000220: 5caf ab3d d42b 19bd 6242 a6bd 7ae0 1e3d
00000230: 2b7b b8bd 105a dc3d 2b1b c5bb 1e17 1bbe
00000240: afa1 8ebd cc4e 9cbd ba52 f0bc 5885 803d
00000250: b1dd 0c3d 3f78 3ebe f220 af3c 38ec 04be
00000260: 474e 1abd 5a78 f83d 6ff8 e33d b5ee 0fbe
00000270: 1280 393d fb21 9dbd f6c4 29be 6463 1e3d
00000280: 41fa 34bd b284 53bd 33d8 2a3e 7852 2a3d
00000290: 891f 46bc 17e7 513d 3dc2 133e fb3a 0cbd
000002a0: 5b08 4d3d ebd2 153e 1819 9c3d 5ae2 8b3d
000002b0: c84a e03d e29d f53d 71dd 693d 16d0 e23d
000002c0: 4c34 b13c bff1 533e 1875 0e3e cd48 823e
000002d0: b612 e73d 73b4 8bbd 5fbf 9c3d 6e11 d43d
000002e0: 4ccd aa3d 675f 33bd a409 7d3d 954a 9ebc
000002f0: 827f ec3b beb3 163e 8317 cc3d a03c 78bd
00000300: 81ac dabc 38f2 073e 6fd9 df3c f2df 793c
00000310: a05a bbbd 830f 18be a786 503e 674e 503d
00000320: 468e 97bd 6baa 7cbd 8f0b acbd 7418 20bc
00000330: 9866 e53d fdb1 133d b097 08be 88c7 893e
00000340: 3fb5 aa3d 257f 42be 0601 1fbe 1d07 b8bd
00000350: 1f5d 34bc 9194 993d d3c7 adbc 9572 633d
00000360: 8caf 943d 20e8 ec3d 266e 9cbd 2f5c 2ebe
00000370: 3b07 acbd d21c 193e f849 5f3d ccfc a2b9
00000380: 7cdf 083e 5960 efbd 5a30 27bd 3355 00ba
00000390: 1781 b73d 2c78 41bd d69b 31bd 61ac d5bd
000003a0: 6b9b df3d 5239 b53d b269 87bc b3de fbbd
000003b0: 02f6 a83d 5dc4 7dbc acdc 37bd ddc4 193d
000003c0: 884e 123e 0eab dbbd 5fc5 be3b 14a3 8bbd
000003d0: bf25 8b3d 8af6 c9bd 82e5 e13d 8283 3abd
000003e0: 23c8 e93d 2711 a1bd 469b b53c be09 953d
000003f0: a5ce 8abd 8c79 c2bc 3e28 d13d fc45 60bc

conv1_3_1.bias f4 [5]
0.1062921 -0.08536412 -0.027624996 -0.049446695 0.086029455
00000000: acaf d93d 62d3 aebd d14d e2bc 9e88 4abd
00000010: 3630 b03d

conv1_3_2.weight f4 [5, 20, 5]
0.029740348 0.21104823 0.12257015 -0.05923252 0.020636601 -0.06413812 0.014911274 0.13294476
0.07755616 0.0516898 0.07589921 -0.10252127 0.029436372 -0.08398163 -0.05513835 0.081378646
0.08792036 -0.07713046 0.07825675 -0.11458207 -0.10678479 0.04050108 0.102203794 0.05057529
-0.015008013 -0.035551127 0.11038307 0.08170245 0.057168927 -0.0364313 0.05297064 0.05978368
0.07972795 -0.04535596 0.111178905 -0.10378647 0.04161022 0.0021380393 -0.018647425 0.08601346
0.12743856 0.17342305 -0.05574733 -0.111961 -0.047539573 0.23957087 0.19847615 0.047445145
-0.10239219 -0.14941232 -0.10559349 -0.08030006 -0.033715803 0.22763383 0.23809484 -0.21969523
-0.07033939 -0.0892184 -0.04797179 0.19820674 -0.10871192 -0.03273878 -0.13537513 -0.017515631
0.030611547 -0.17443238 -0.26706132 -0.22192818 -0.11579353 0.12309675 0.0001560844 0.12512723
-0.021407861 0.13113916 0.1356828 -0.08089035 0.053004343 0.041833222 -0.121122025 -0.054154932
-0.06713008 0.0886129 -0.07920439 -0.017507885 0.0018496576 0.12235299 -0.054208282 -0.080962695
-0.15228891 -0.084646195 -0.10846189 -0.109372534 -0.055568483 0.028607566 0.032510895 -0.05494217
0.035439197 -0.073529184 -0.17240912 -0.17998947 0.024890298 -0.034683574 -0.0663031 -0.11088782
0.07677341 -0.08266871 -0.09079237 0.04188667 0.05385879 -0.08676227 -0.053885594 -0.11036195
0.076094165 -0.0019202597 -0.029360509 -0.07307101 0.06061466 0.08058418 0.053723555 -0.096826166
-0.09869498 0.07881068 0.034501676 0.058953125 0.0044793147 -0.117198706 0.026172776 0.060763113
0.038411286 -0.03620542 -0.0023053952 -0.102838874 -0.058421806 0.09119994 0.008873204 -0.0901945
0.08121443 0.07912741 -0.07904476 0.017726092 -0.034807026 -0.058646258 0.09111588 0.10671066
0.031384364 0.04704151 -0.023003628 -0.10209181 0.04395821 0.13540116 -0.1096286 0.003850999
-0.12729022 -0.095468946 -0.051774453 -0.036901135 0.05093168 -0.045512352 -0.07432942 -0.08810846
-0.07054131 0.017353138 -0.14539218 -0.04874959 -0.034715027 -0.09752258 -0.17274827 -0.06215551
-0.17365879 -0.22112592 -0.102995045 -0.05028167 0.0528584 -0.078220405 0.06486534 -0.10603859
-0.05083934 -0.000466148 0.0075447583 -0.18451099 -0.015198816 0.10362511 0.06950909 0.11884348
-0.09185626 0.024350999 0.023634952 0.049618095 0.08424451 0.0940176 0.025832726 0.05446751
-0.02786768 0.037292175 0.033895258 -0.11762648 -0.014256243 -0.010909588 0.027216384 -0.09691599
-0.064469725 0.04802711 0.08704424 -0.04618192 -0.042719953 0.05633406 0.0028564325 -0.046401493
-0.04089034 -0.057931345 -0.017730718 0.09568477 0.09917791 0.070509516 -0.07307216 0.007351184
0.048970845 -0.0043250276 -0.087163866 0.09795999 0.052564707 0.03397535 0.042064227 0.023134856
0.030027397 0.056855828 0.06647273 0.06634163 0.094209276 0.1037627 0.09399775 0.06213833
0.002378657 0.010424854 0.08086864 0.04424774 -0.04841589 0.0843398 -0.030038603 0.048192065
-0.05507926 0.08412673 0.05651017 -0.050183143 0.05896328 0.02524513 -0.020060439 -0.089332275
-0.066453226 -0.011177401 0.06490585 -0.005859652 0.083144836 0.1968288 0.019722268 -0.014593808
00000000: 08a2 f33c 071d 583e 0f06 fb3d cd9d 72bd
00000010: 170e a93c d95a 83bd 6b4e 743c ac22 083e
00000020: c4d5 9e3d afb8 533d 0c71 9b3d acf6 d1bd
00000030: 8c24 f13c 90fe abbd c0d8 61bd d9a9 a63d
00000040: 970f b43d 93f6 9dbd 1345 a03d 01aa eabd
00000050: fcb1 dabd 76e4 253d 3950 d13d 0928 4f3d
00000060: 2be4 75bc 0f9e 11bd 8510 e23d 9d53 a73d
00000070: f729 6a3d fd38 15bd bef7 583d bbdf 743d
00000080: 6848 a33d 2cc7 39bd c4b1 e33d 008e d4bd
00000090: 7a6f 2a3d 591e 0c3b 7cc2 98bc d327 b03d
000000a0: 417f 023e d095 313e 5057 64bd cf4b e5bd
000000b0: dbb8 42bd 1152 753e 553d 4b3e d755 423d
000000c0: ffb2 d1bd 8bff 18be 6641 d8bd 5c74 a4bd
000000d0: 9519 0abd d818 693e 22cf 733e c9f7 60be
000000e0: 190e 90bd 23b8 b6bd 117e 44bd b5f6 4a3e
000000f0: 5ba4 debd 1919 06bd c79f 0abe f17c 8fbc
00000100: 11c5 fa3c 679e 32be 43bc 88be 2441 63be
00000110: 2925 edbd 261a fc3d 96aa 2339 5a21 003e
00000120: 8a5f afbc 5849 063e 6ff0 0a3e d7a9 a5bd
00000130: 151b 593d 5059 2b3d d30e f8bd 90d1 5dbd
00000140: 7f7b 89bd ae7a b53d e935 a2bd b26c 8fbc
00000150: 3670 f23a 3494 fa3d 8109 5ebd c5cf a5bd
00000160: a0f1 1bbe fc5a adbd 4421 debd b5fe dfbd
00000170: c79b 63bd 6a5a ea3c 252a 053d 0a0b 61bd
00000180: b128 113d 7896 96bd 048c 30be 294f 38be
00000190: bde6 cb3c 5d10 0ebd ebc9 87bd 2719 e3bd
000001a0: 613b 9d3d 364e a9bd 5af1 b9bd 5b91 2b3d
000001b0: 099b 5c3d 6bb0 b1bd 24b7 5cbd 7205 e2bd
000001c0: 42d7 9b3d 39b1 fbba 7385 f0bc 41a6 95bd
000001d0: 1447 783d 5209 a53d 3b0d 5c3d cc4c c6bd
000001e0: 9820 cabd 7e67 a13d a151 0d3d d578 713d
000001f0: 37c7 923b e005 f0bd 4a68 d63c bee2 783d
00000200: 2755 1d3d 224c 14bd 1d16 17bb 309d d2bd
00000210: b44b 6fbd 09c7 ba3d ea60 113c e5b7 b8bd
00000220: c053 a63d 8d0d a23d 38e2 a1bd 4f36 913c
00000230: d091 0ebd 0f37 70bd f69a ba3d 1e8b da3d
00000240: e48c 003d 99ae 403d 1b72 bcbc 8315 d1bd
00000250: 860d 343d 9aa6 0a3e f684 e0bd 0b61 7c3b
00000260: 5e58 02be 3985 c3bd 7311 54bd a525 17bd
00000270: bd9d 503d 296b 3abd 063a 98bd 3572 b4bd
00000280: f677 90bd 2b28 8e3c b0e1 14be a6ad 47bd
00000290: 5831 0ebd ebb9 c7bd ece4 30be c796 7ebd
000002a0: 9cd3 31be d56e 62be 11ef d2bd 27f4 4dbd
000002b0: 0d82 583d 0532 a0bd 1fd8 843d c32a d9bd
000002c0: e93c 50bd 5365 f4b9 053a f73b 73f0 3cbe
000002d0: 7404 79bc 6739 d43d c85a 8e3d 3664 f33d
000002e0: 231f bcbd bf7b c73c 169e c13c 583c 4b3d
000002f0: 6388 ac3d 4d8c c03d 279f d33c 5319 5f3d
00000300: c34a e4bc aebf 183d c1d5 0a3d 27e6 f0bd
00000310: 0493 69bc 21be 32bc e5f4 de3c e47b c6bd
00000320: b408 84bd 13b8 443d 4044 b23d 4129 3dbd
00000330: 1efb 2ebd 8bbe 663d fc32 3b3b 7e0f 3ebd
00000340: a17c 27bd 6b49 6dbd 0340 91bc 60f6 c33d
00000350: ca1d cb3d 4b67 903d dba6 95bd 33e2 f03b
00000360: a795 483d f6b8 8dbb f882 b2bd 3f9f c83d
00000370: 174e 573d bd29 0b3d 8a4b 2c3d 4f85 bd3c
00000380: 04fc f53c a8e1 683d db22 883d 1fde 873d
00000390: cbf0 c03d 8a81 d43d e481 c03d c384 7e3d
000003a0: 3ee3 1b3b 02cd 2a3c 759e a53d 1e3d 353d
000003b0: be4f 46bd 58ba ac3d 8413 f6bc 0b65 453d
000003c0: ca9a 61bd a34a ac3d 3577 673d d78c 4dbd
000003d0: 7b83 713d e0ce ce3c ca55 a4bc d7f3 b6bd
000003e0: a118 88bd 6b21 37bc 5ced 843d 5302 c0bb
000003f0: d747 aa3d 7d8d 493e 9890 a13c de1a 6fbc

conv1_3_2.bias f4 [5]
0.018318657 0.08064695 0.09832608 -0.022646492 0.074499145
00000000: 0211 963c 3a2a a53d 2f5f c93d 2385 b9bc
00000010: 0293 983d

conv1_3_3.weight f4 [5, 20, 11]
0.0076499037 -0.053448804 -0.030492049 0.06000373 -0.04751771 -0.052051377 0.04758157 0.042025182
0.03744249 0.0226811 -0.062246144 -0.05635493 -0.012082134 -0.056595676 -0.029720657 0.02696948
0.008682108 -0.0027706132 -0.026853679 -0.0667771 0.055230662 -0.014227665 0.014982591 -0.051860955
-0.05879554 -0.04768094 -0.045880616 0.023121407 -0.058083255 -0.043964725 -0.029315628 -0.022452168
0.0052068527 0.0123356385 0.03180661 0.037516553 -0.03873735 -0.025815086 0.035277355 0.038461532
-0.06596727 0.016807465 -0.00920687 0.03296171 0.026712323 -0.07907684 -0.041187137 -0.027729282
0.018592669 0.041305766 0.036976963 -0.08645531 -0.05953921 0.00999977 -0.04639506 -0.08397255
0.017207041 -0.06641509 -0.029408718 0.0019797666 -0.072229035 0.018233739 -0.08295791 -0.019004952
0.05572299 0.028003834 -0.040385026 -0.023246488 -0.061815817 0.03548347 0.02141682 0.040577177
0.005557827 0.025652165 0.05800797 0.0042080437 -0.007686805 -0.0072440165 -0.03361813 -0.04902039
0.016340205 0.0009952912 -0.0024664055 -0.018052712 -0.0064693782 -0.06125708 -0.0188936 -0.06379971
0.023878707 -0.05528296 -0.08438145 -0.019548504 0.0388522 -0.0109277405 0.00093359477 0.023603896
0.042138103 0.05200441 0.07157024 -0.0015814722 -0.077090584 -0.08422962 0.024266908 0.045623776
0.06693873 -0.020239474 0.010890079 -0.06340171 0.017779717 0.0071032527 -0.10624382 -0.13326344
-0.09340613 -0.06312024 -0.13687669 -0.04762165 -0.06957267 -0.08131593 -0.113536485 -0.09747091
-0.13802782 0.04788216 0.07015261 0.06638305 -0.0046982984 -0.07238779 -0.08110536 0.032934476
-0.03986137 0.05639629 -0.01852532 -0.014691741 0.005271832 0.01881181 -0.020042375 -0.10057662
-0.06448579 0.01669666 -0.101583205 -0.057818204 -0.108826734 -0.07373406 -0.01810943 -0.057516653
0.03568878 -0.02887781 -0.08753332 -0.0077063954 -0.10663581 -0.08627347 -0.016544417 -0.08740622
-0.029205464 -0.14161794 -0.02404407 -0.014389526 -0.014576833 -0.06286086 -0.005339595 0.022455731
0.0325384 0.031066185 0.012554751 -0.014751938 0.03419786 0.0014220955 0.027873492 -0.0022094757
-0.07072777 -0.08437223 -0.01740315 -0.030213509 -0.13482468 -0.026708873 -0.08830461 -0.16261353
-0.008092283 0.07906791 0.11166479 0.08419468 -0.006862983 0.008455498 -0.036970537 0.061856188
0.046611954 0.013100447 0.0027284035 0.0034419987 0.0044261697 -0.0037986431 0.021365212 0.07606684
0.036484636 0.05888433 0.09324929 -0.015675317 0.084423415 -0.00904585 0.018697929 0.032416176
0.075944334 -0.017110905 -0.0053142603 0.055782877 -0.029848794 0.08758063 -0.013785436 0.077613235
0.039065577 0.09262677 0.08292184 -0.0009583355 0.052233156 0.02966087 -0.02496148 -0.0541418
-0.068524025 -0.0034942061 -0.017741378 -0.04932878 -0.0047285613 -0.078564085 -0.04466783 0.035436977
-0.033271592 -0.035256974 0.022081846 0.04984911 -0.033010628 0.060307115 -0.0106934225 -0.04082856
-0.063117415 -0.059853863 -0.01523027 0.04204634 -0.037141453 0.028861357 0.0058046407 -0.021357376
0.035347864 0.054637793 -0.08478588 -0.07390475 0.002566688 0.02590798 -0.051434863 0.060330555
0.034168288 0.042967867 -0.041470233 0.0476709 0.023648752 -0.009089391 0.0075875265 -0.005679179
00000000: 0bac fa3b 22ed 5abd 76ca f9bc 79c6 753d
00000010: eea1 42bd d333 55bd e4e4 423d 9922 2c3d
00000020: 4c5d 193d b7cd b93c d0f5 7ebd 6dd4 66bd
00000030: 25f4 45bc ded0 67bd bc78 f3bc 19ef dc3c
00000040: 663f 0e3c 2d93 35bb 3ffc dbbc 6fc2 88bd
00000050: 8c39 623d 271b 69bc 8b79 753c 276c 54bd
00000060: 98d3 70bd 174d 43bd 50ed 3bbd 1b69 bd3c
00000070: b5e8 6dbd 5b14 34bd 5427 f0bc 9ced b7bc
00000080: 3f9e aa3b 6b1b 4a3c a647 023d f5aa 193d
00000090: 0eab 1ebd 297a d3bc fd7e 103d d789 1d3d
000000a0: d919 87bd cfaf 893c 69d8 16bc dc02 073d
000000b0: cdd3 da3c 0af3 a1bd d8b3 28bd 8528 e3bc
000000c0: a74f 983c 3c30 293d 2875 173d 7b0f b1bd
000000d0: 63df 73bd 13d6 233c bf08 3ebd cdf9 abbd
000000e0: c8f5 8c3c a204 88bd 8dea f0bc f9be 013b
000000f0: d1ec 93bd ec5e 953c d6e5 a9bd 46b0 9bbc
00000100: ca3d 643d 4c68 e53c c56a 25bd 6b6f bebc
00000110: 9532 7dbd 1d57 113d 5472 af3c 4134 263d
00000120: 6f1e b63b 7d24 d23c c499 6d3d a1e3 893b
00000130: 98e1 fbbb 375f edbb 2ab3 09bd 9bc9 48bd
00000140: e5db 853c 6e74 823a 6ba3 21bb 48e3 93bc
00000150: 14fd d3bb b4e8 7abd c0c6 9abc 6ca9 82bd
00000160: 479d c33c 6370 62bd 2fd0 acbd 2f24 a0bc
00000170: 7c23 1f3d 440a 33bc 7cbc 743a f55c c13c
00000180: 0199 2c3d 9402 553d 6b93 923d 6749 cfba
00000190: abe1 9dbd 9480 acbd 65cb c63c ffdf 3a3d
000001a0: 2c17 893d 41cd a5bc 4d6c 323c c1d8 81bd
000001b0: c5a6 913c 67c2 e83b 5c96 d9bd 3676 08be
000001c0: b74b bfbd 2f45 81bd 6729 0cbe eb0e 43bd
000001d0: 1e7c 8ebd f788 a6bd d185 e8bd d49e c7bd
000001e0: 2a57 0dbe 1520 443d 2cac 8f3d d6f3 873d
000001f0: 2ff4 99bb 0d40 94bd 911a a6bd 4de6 063d
00000200: ad45 23bd ccff 663d 69c2 97bc a1b5 70bc
00000210: 55bf ac3b 3a1b 9a3c e82f a4bc 1dfb cdbd
00000220: 2011 84bd 6fc7 883c db0a d0bd c8d2 6cbd
00000230: 8de0 debd e201 97bd 3a5a 94bc 9596 6bbd
00000240: 662e 123d 2891 ecbc ab44 b3bd ee85 fcbb
00000250: e063 dabd 25b0 b0bd 2888 87bc 0802 b3bd
00000260: 4c40 efbc 4b04 11be 12f8 c4bc 0cc2 6bbc
00000270: abd3 6ebc 32bd 80bd c5f7 aebb 15f5 b73c
00000280: fc46 053d 837e fe3c 71b2 4d3c 1db2 71bc
00000290: 0e13 0c3d 9b65 ba3a f356 e43c dacc 10bb
000002a0: b9d9 90bd 59cb acbd 0d91 8ebc 5282 f7bc
000002b0: 7b0f 0abe 91cc dabc 0cd9 b4bd 2984 26be
000002c0: 7f95 04bc 5bee a13d 82b0 e43d 436e ac3d
000002d0: e0e2 e0bb ee88 0a3c 6b6e 17bd ea5c 7d3d
000002e0: 2dec 3e3d 42a3 563c 04cf 323b 2893 613b
000002f0: 6709 913b a8f2 78bb 1906 af3c eec8 9b3d
00000300: ea70 153d b230 713d 7cf9 be3d 8669 80bc
00000310: 2fe6 ac3d 0b35 14bc 662c 993c d3c6 043d
00000320: b488 9b3d 2b2c 8cbc 3f23 aebb 967c 643d
00000330: 7585 f4bc 795d b33d 4fdc 61bc b0f3 9e3d
00000340: 3a03 203d 1bb3 bd3d edd2 a93d cf38 7bba
00000350: 6ff2 553d 5afb f23c 057c ccbc cbc3 5dbd
00000360: 5356 8cbd 0dff 64bb 5e56 91bc fa0c 4abd
00000370: 0cf2 9abb 35e6 a0bd 9df5 36bd 5d26 113d
00000380: cb47 08bd 9e69 10bd fde4 b43c 952e 4c3d
00000390: 2736 07bd 9804 773d 7733 2fbc d93b 27bd
000003a0: b443 81bd 5329 75bd 6288 79bc c838 2c3d
000003b0: a321 18bd a76e ec3c db34 be3b aaf5 aebc
000003c0: ecc8 103d e1cb 5f3d 38a4 adbd 605b 97bd
000003d0: e135 283b f93c d43c 5dad 52bd 2c1d 773d
000003e0: 0cf4 0b3d 13ff 2f3d b1dc 29bd 9042 433d
000003f0: 07bb c13c abeb 14bc c9a0 f83b 6818 babb

conv1_3_3.bias f4 [5]
0.0560562 0.022607474 0.014866104 -0.015123697 0.018253902
00000000: 309b 653d 4f33 b93c f690 733c 62c9 77bc
00000010: 3589 953c
