EEGDenoisenetTraining/checkpoints/deepseparator/checkpoint_epoch_70.pth (torch, 503337 bytes, 301 tensors)

conv1_1_1.weight f4 [5, 1, 3]
0.58615816 0.0047777304 0.5113439 -0.41673693 0.54699653 -0.12466557 -0.15171091 0.50518763
-0.5800262 0.24317083 0.29767388 -0.5246155 -0.5716226 0.21168157 -0.04536613
00000000: 760e 163f 828e 9c3b 6fe7 023f 8b5e d5be
00000010: f707 0c3f aa50 ffbd 1b5a 1bbe fa53 013f
00000020: 997c 14bf c601 793e b668 983e 344d 06bf
00000030: dc55 12bf 0ec3 583e d6d1 39bd

conv1_1_1.bias f4 [5]
-0.20522834 0.14527117 -0.55911326 0.22638428 0.3361144
00000000: 6127 52be f7c1 143e 0c22 0fbf 48d1 673e
00000010: 3017 ac3e

conv1_1_2.weight f4 [5, 1, 5]
0.3104767 -0.10563394 -0.015836257 -0.46696562 -0.19681418 0.42553678 -0.5542748 -0.20862591
0.43267018 0.20087269 -0.3428407 -0.18270037 -0.42151284 -0.13993478 0.03736942 -0.1795061
-0.34914 0.08262199 -0.3755591 -0.23460445 -0.11681049 -0.2541898 0.12466542 -0.24259529
0.5215538
00000000: cdf6 9e3e 9b56 d8bd 0abb 81bc 1e16 efbe
00000010: a889 49be f5df d93e f4e4 0dbf 08a2 55be
00000020: f286 dd3e 92b1 4d3e d188 afbe ce15 3bbe
00000030: 88d0 d7be 104b 0fbe ad10 193d 72d0 37be
00000040: 7ac2 b2be b835 a93d 4849 c0be 263c 70be
00000050: 573a efbd 2a25 82be 9550 ff3d e66a 78be
00000060: 8d84 053f

conv1_1_2.bias f4 [5]
0.04414464 0.07325657 -0.23830888 0.16707705 0.33112887
00000000: 03d1 343d 8a07 963d 3e07 74be 3f16 2b3e
00000010: b989 a93e

conv1_1_3.weight f4 [5, 1, 11]
0.0151150515 -0.0039378204 -0.10749686 0.20848787 0.27731416 -0.0034698732 -0.24772169 0.26455688
-0.19555262 0.24489103 0.31513894 -0.16276498 0.03346999 0.27520204 0.23044533 0.04302726
0.20571655 -0.067628 -0.13010891 0.22359668 0.102814384 -0.079830885 -0.06697219 0.31042603
0.03603268 0.11237888 0.27639452 0.15835196 0.08718494 -0.0449904 0.3368166 -0.29432076
-0.04089081 0.14003827 0.28654665 0.34305164 -0.18457818 0.11408804 0.270554 0.11433507
0.09129185 -0.36031547 0.3675275 0.19806053 -0.008380505 0.17559119 -0.20017415 0.25956312
0.33343172 0.09959638 0.25601313 0.26384744 0.2883925 0.3161423 -0.06317692
00000000: 1fa5 773c d508 81bb 5027 dcbd d87d 553e
00000010: 1ffc 8d3e d066 63bb c1aa 7dbe 0074 873e
00000020: f23e 48be b7c4 7a3e e459 a13e ddab 26be
00000030: d417 093d 48e7 8c3e dcf9 6b3e 5a3d 303d
00000040: 5ca7 523e 8d80 8abd 453b 05be 87f6 643e
00000050: 5990 d23d 607e a3bd b728 89bd 29f0 9e3e
00000060: 0197 133d e626 e63d 9583 8d3e 0427 223e
00000070: 058e b23d db47 38bd 3a73 ac3e 36b1 96be
00000080: 1f7d 27bd 3166 0f3e 3eb6 923e 77a4 af3e
00000090: 1002 3dbe fea6 e93d 0e86 8a3e 8128 ea3d
000000a0: 39f7 ba3d 457b b8be 912c bc3e 61d0 4a3e
000000b0: 634e 09bc 2dce 333e 74fa 4cbe 75e5 843e
000000c0: 90b7 aa3e 30f9 cb3d 2714 833e 0317 873e
000000d0: 2fa8 933e 67dd a13e e762 81bd

conv1_1_3.bias f4 [5]
0.2056309 0.06493459 0.20899649 -0.12769182 -0.09043474
00000000: e890 523e 6dfc 843d 2d03 563e a5c1 02be
00000010: d935 b9bd

conv1_1_4.weight f4 [5, 1, 15]
-0.24368843 -0.03949242 -0.11295995 -0.29821065 0.12926218 -0.25468493 0.032230653 -0.22514582
0.17162539 -0.044950668 -0.041971236 0.038302127 0.14008059 -0.14602517 -0.23018993 -0.0035587156
0.20685856 0.058118105 -0.1390034 -0.060782146 -0.036940347 0.17990956 0.15095071 -0.04964826
-0.11851892 0.2418574 0.25352755 -0.05404183 0.24889925 0.13308437 -0.059068426 -0.038953025
0.1877481 -0.21858227 -0.07538359 0.039582103 0.16611306 0.16469702 0.09987961 0.03708655
0.07455927 0.011918076 -0.2579059 -0.09765563 -0.17692062 0.18633614 -0.263108 0.11394767
-0.14182095 0.051118508 -0.036951933 0.20027414 0.13846491 -0.44347584 -0.17900702 0.24786276
0.13121499 -0.0017240612 -0.22659573 0.16107073 0.1962625 -0.2608513 0.29187623 -0.099346295
-0.10605325 0.2075385 -0.22793841 -0.23779301 -0.23876809 0.19157006 0.092115454 0.20279522
-0.05555781 0.0113863675 0.06280188
00000000: 7689 79be cec2 21bd 8c57 e7bd 11af 98be
00000010: 4e5d 043e 1066 82be 4a04 043d a08c 66be
00000020: 91be 2f3e 311e 38bd 08ea 2bbd b1e2 1c3d
00000030: 4971 0f3e 9f87 15be e9b6 6bbe 5739 69bb
00000040: bbd2 533e 400d 6e3d e856 0ebe b3f6 78bd
00000050: c34e 17bd 363a 383e d392 1a3e f95b 4bbd
00000060: 0cba f2bd 77a9 773e 5dce 813e f75a 5dbd
00000070: 72df 7e3e 4547 083e bcf1 71bd 358d 1fbd
00000080: 0a41 403e 08d4 5fbe b662 9abd d820 223d
00000090: 8b19 2a3e 56a6 283e ae8d cc3d 11e8 173d
000000a0: 88b2 983d 0944 433c 3e0c 84be adff c7bd
000000b0: ae2a 35be e7ce 3e3e 17b6 86be 655d e93d
000000c0: 8339 11be a461 513d e95a 17bd aa14 4d3e
000000d0: bfc9 0d3e 440f e3be 9e4d 37be bccf 7d3e
000000e0: 395d 063e e5f9 e1ba b608 68be baef 243e
000000f0: 09f9 483e 4d8e 85be cd70 953e 1276 cbbd
00000100: 7232 d9bd f984 543e b068 69be 0380 73be
00000110: 9f7f 74be f12a 443e 07a7 bc3d 8da9 4f3e
00000120: 9690 63bd e38d 3a3c 469e 803d

conv1_1_4.bias f4 [5]
-0.28195918 -0.25954217 0.2243384 0.23663841 0.1457791
00000000: f45c 90be b6e2 84be f7b8 653e 5751 723e
00000010: 1e47 153e

conv1_2_1.weight f4 [5, 20, 3]
-0.23891553 -0.14885409 -0.18764664 -0.1819398 -0.11098712 0.041919753 -0.2850801 -0.08607435
-0.04049037 -0.039308157 -0.022187551 -0.024220623 -0.008127747 0.08429521 -0.09936427 0.029299239
-0.03787534 -0.15054134 -0.007667147 0.03250959 -0.022020552 -0.10300529 0.0039187763 0.0019293352
0.04664872 -0.07618185 0.036437806 -0.109247595 -0.17069991 -0.05664167 -0.104879215 0.09433443
0.0145192435 0.10409481 0.0020596397 -0.23098506 -0.012138926 -0.07214801 -0.09240409 -0.04351065
-0.026059708 0.09582798 0.06634078 -0.11399876 0.036885824 0.018702881 0.053279344 -0.16732621
-0.11112885 0.1494896 -0.002968125 -0.04455964 -0.19085915 0.04797252 0.06357318 0.08615174
0.0054674153 0.24815482 0.107054785 0.20239295 -0.04561608 0.12214758 0.026771134 0.0772399
0.0911295 0.03838688 0.0025212567 -0.08346695 0.057682253 -0.0006471742 0.16068548 0.09372289
-0.16692811 0.02414188 -0.13964699 -0.097244665 -0.12698135 -0.024552513 0.13724844 0.08747084
0.006299052 -0.061266866 -0.17025794 -0.12677304 -0.17342904 -0.04377462 0.10029628 -0.020618904
-0.15208413 -0.22060417 0.030065872 0.04808768 -0.017595889 0.051411297 0.12518628 0.09764759
0.061783634 0.048436794 -0.04482944 0.0006346611 0.1760277 -0.02222962 0.06499365 0.057569906
0.04947825 0.045971483 -0.08235807 -0.034045707 0.08652679 0.08716881 0.044491824 0.020687737
-0.003912393 -0.15082155 0.029391581 -0.029290695 -0.036763392 0.09843911 -0.002510209 0.13607149
-0.0006691794 -0.025108155 -0.021502474 -0.17410815 -0.23731673 -0.10518844 -0.18673323 0.11320935
-0.48069182 -0.11875738 0.05281052 0.16287872 -0.032824248 -0.19898713 0.054667678 -0.009190798
-0.16236731 -0.046018254 -0.07612572 -0.1906193 -0.07914021 -0.16145498 -0.1006045 0.004332169
-0.10842143 -0.13715348 0.005417983 0.07250992 -0.16392864 -0.12002541 -0.058930986 0.013244021
0.06958727 0.045444395 0.071780555 0.06952563 0.13391827 0.13663538 0.011304468 0.17231143
-0.07912999 -0.113756105 0.084363826 0.123576224 -0.061566535 -0.053232588 -0.059415378 -0.068407215
-0.00064823305 0.0516761 0.010513528 -0.019908395 -0.08412486 -0.052224502 0.066808805 -0.14952241
-0.082570575 -0.06891369 -0.15344897 0.13421871 0.18335845 -0.0974184 -0.07438619 0.050007425
0.14522314 -0.03724743 0.03103544 -0.092673555 -0.04463629 -0.18357775 0.038171448 -0.015548806
-0.07541332 -0.132771 -0.1402462 -0.2245519 -0.06709767 -0.22119686 -0.17422815 0.20047703
0.061176647 -0.08651709 0.03666414 0.0149759045 -0.00850338 -0.13229491 -0.066830255 0.13337205
0.09123739 0.052247047 0.07107796 -0.055123396 -0.121251985 -0.007938943 0.0083781015 -0.04870409
-0.043805372 -0.021696834 0.04770631 0.15724237 0.098053046 0.14585878 0.19805162 0.06475162
0.08290884 -0.06259694 -0.10548716 -0.12016825 0.15088186 0.13019972 0.2717549 0.049940106
-0.094050154 -0.118564874 -0.05951749 -0.09950329 0.12069478 0.0388202 0.079419024 -0.08165718
-0.019792115 0.034680404 0.16348721 0.008111788 -0.13933726 -0.13693888 -0.096785754 0.010308433
0.01586988 0.005773862 0.06441677 0.05639852 -0.19771643 -0.1734025 -0.05410897 0.05691856
00000000: 46a6 74be 356d 18be 7126 40be 6d4e 3abe
00000010: 374d e3bd 0cb4 2b3d 05f6 91be c047 b0bd
00000020: 3bd9 25bd 9701 21bd abc2 b5bc 546a c6bc
00000030: 3e2a 05bc f8a2 ac3d 7f7f cbbd f504 f03c
00000040: 2c23 1bbd 8227 1abe b13c fbbb c728 053d
00000050: 7264 b4bc 70f4 d2bd 1469 803b bfe1 fc3a
00000060: ba12 3f3d 3b05 9cbd cf3f 153d 34bd dfbd
00000070: f5cb 2ebe 1901 68bd eaca d6bd 6932 c13d
00000080: 1fe2 6d3c a92f d53d 05fb 063b 5987 6cbe
00000090: 59e2 46bc 56c2 93bd 5b3e bdbd 3938 32bd
000000a0: 2b7b d5bc 7641 c43d addd 873d 2f78 e9bd
000000b0: 9715 173d c936 993c 713b 5a3d 9057 2bbe
000000c0: 8697 e3bd cd13 193e e084 42bb 2b84 36bd
000000d0: 9570 43be d57e 443d a832 823d 5370 b03d
000000e0: 0128 b33b 4c1c 7e3e 8a3f db3d 1940 4f3e
000000f0: edd7 3abd 8328 fa3d 234f db3c f42f 9e3d
00000100: 1aa2 ba3d 903b 1d3d ab3b 253b b8f0 aabd
00000110: 3a44 6c3d 20a7 29ba bc8a 243e c9f1 bf3d
00000120: 34ef 2abe 31c5 c53c 9fff 0ebe 3628 c7bd
00000130: 6607 02be 5a22 c9bc db8a 0c3e e923 b33d
00000140: 4768 ce3b f7f2 7abd 1958 2ebe cbd0 01be
00000150: 6297 31be 044d 33bd 2368 cd3d fae8 a8bc
00000160: f1bb 1bbe 0fe6 61be b44c f63c 96f7 443d
00000170: 4125 90bc a794 523d d530 003e 76fb c73d
00000180: d610 7d3d a965 463d 139f 37bd 635f 263a
00000190: 9b40 343e e41a b6bc 641b 853d 6cce 6b3d
000001a0: b5a9 4a3d 984c 3c3d 59ab a8bd 8373 0bbd
000001b0: f534 b13d 9085 b23d 0f3d 363d 5479 a93c
000001c0: 8833 80bb f770 1abe 9dc6 f03c 0af3 efbc
000001d0: 3695 16bd 729a c93d 5282 24bb 5356 0b3e
000001e0: df6b 2fba 9eaf cdbc f525 b0bc 6849 32be
000001f0: 2803 73be 096d d7bd ff36 3fbe 4eda e73d
00000200: 3d1d f6be 1237 f3bd d84f 583d aec9 263e
00000210: b872 06bd 48c3 4bbe 37eb 5f3d 0095 16bc
00000220: 9e43 26be a37d 3cbd cde7 9bbd b531 43be
00000230: 4314 a2bd 7454 25be bb09 cebd def4 8d3b
00000240: 0e0c debd f671 0cbe 5689 b13b 1580 943d
00000250: e9dc 27be e2cf f5bd 9e61 71bd 73fd 583c
00000260: c583 8e3d e723 3a3d af01 933d 7463 8e3d
00000270: df21 093e 25ea 0b3e 6036 393c 6872 303e
00000280: e70e a2bd f6f8 e8bd f1c6 ac3d 8815 fd3d
00000290: 312d 7cbd 6a0a 5abd 8a5d 73bd 1519 8cbd
000002a0: 2fee 29ba 51aa 533d ef40 2c3c ee16 a3bc
000002b0: a849 acbd 5ce9 55bd 0ed3 883d 671c 19be
000002c0: c31a a9bd 9f22 8dbd ba21 1dbe a170 093e
000002d0: 51c2 3b3e 4c83 c7bd c957 98bd 96d4 4c3d
000002e0: 60b5 143e c390 18bd 093e fe3c a2cb bdbd
000002f0: 8bd4 36bd cefb 3bbe aa59 1c3d 6bc0 7ebc
00000300: 4c72 9abd 1ff5 07be b39c 0fbe eff0 65be
00000310: 816a 89bd 6e81 62be dd68 32be da49 4d3e
00000320: 5d94 7a3d df2f b1bd 232d 163d 7f5d 753c
00000330: c351 0bbc 5178 07be 4dde 88bd af92 083e
00000340: abda ba3d 0001 563d 5291 913d 12c9 61bd
00000350: f652 f8bd 5712 02bc 4e44 093c f17d 47bd
00000360: 436d 33bd 8fbd b1bc b167 433d 2504 213e
00000370: 09d0 c83d 015c 153e 0bce 4a3e 7f9c 843d
00000380: 1ccc a93d d332 80bd a709 d8bd c51a f6bd
00000390: c680 1a3e 1353 053e 7523 8b3e ff8d 4c3d
000003a0: 5e9d c0bd 24d2 f2bd 9dc8 73bd 62c8 cbbd
000003b0: d32e f73d ee01 1f3d 71a6 a23d e13b a7bd
000003c0: 1323 a2bc 0a0d 0e3d 3169 273e 4ee7 043c
000003d0: 6dae 0ebe b539 0cbe 9c37 c6bd b4e4 283c
000003e0: 8d01 823c aa32 bd3b f1ec 833d 2202 673d
000003f0: 2d76 4abe 6d90 31be 5ea1 5dbd 7023 693d

conv1_2_1.bias f4 [5]
-0.098557115 0.070237614 0.086716235 0.025404537 0.03582484
00000000: 50d8 c9bd bdd8 8f3d 4898 b13d 2d1d d03c
00000010: 11bd 123d

conv1_2_2.weight f4 [5, 20, 5]
-0.038862668 0.027107835 -0.008626495 -0.02972376 0.10792437 -0.07490174 -0.114701465 -0.024613205
0.07047111 -0.09428639 0.0017048693 -0.021737518 0.053303435 0.043832373 0.09084246 -0.0035787898
-0.13979341 -0.11530187 0.09275302 0.028596064 0.075702764 -0.05817698 -0.034845944 -0.031956255
-0.09909126 0.019027498 -0.028827002 -0.12369828 0.078913786 0.06811136 0.06639754 -0.039386753
-0.02635884 -0.09781868 -0.07028983 0.07223269 -0.0009622101 -0.051494658 0.01277707 0.029772034
-0.013991234 -0.053803567 0.044955984 -0.0911027 0.047252856 0.020728894 0.009092526 0.000703422
-0.08440883 -0.010354844 0.041012365 -0.012372831 -0.102824196 -0.052650683 -0.016942777 -0.019433955
0.09310396 0.10728672 -0.047863893 0.06900578 0.100219436 0.07998492 0.03792661 -0.058520935
0.08492727 0.0893645 -0.03414069 -0.07664716 0.093203336 -0.029309418 0.011584016 -0.002606243
0.12454621 -0.03757892 0.025790486 -0.088192515 0.07234776 0.08450241 -0.041908555 -0.087267034
0.03534694 0.01919195 0.021212304 -0.021703484 0.031260703 -0.08749199 -0.03989012 0.050382536
-0.0048517818 -0.030337773 -0.08981469 0.023048237 -0.14162125 0.01636761 0.06939964 -0.09071624
-0.119275846 -0.0124121625 -0.09583034 -0.06528367 0.140693 -0.14213978 0.11169929 -0.15262549
-0.039767455 -0.09526118 0.06907013 0.120001145 -0.1529533 -0.108502276 0.35084966 -0.011540348
-0.14243177 -0.32603276 0.15823692 -0.10075838 -0.025249384 0.002235121 0.103327125 -0.054510854
-0.06504109 0.068402044 -0.028941747 -0.03857898 -0.075562246 -0.0099451 0.08447594 0.011496952
-0.044857543 -0.13893932 -0.10705549 0.0013069266 0.13969217 0.1842732 -0.07656764 -0.13133456
0.04241629 0.03224133 0.02112989 -0.12448723 -0.077592 -0.12569515 -0.069170676 -0.1208381
-0.006688155 -0.11556592 0.07962142 0.0073810997 -0.03286817 0.07571879 -0.11279605 0.07085143
-0.014035571 -0.10716492 0.0054060053 0.15816498 0.14563775 -0.032638196 0.021646576 0.089656174
0.040508565 0.090040624 0.015717188 0.016955072 0.085539594 0.146115 -0.12182501 0.016081477
0.17217767 0.15126702 0.10416745 0.024825897 0.12156867 -0.07046416 -0.102334194 0.085182406
-0.060953256 0.09538668 0.07988078 0.037477586 0.21752082 0.15015358 -0.15756379 -0.11141142
0.14656381 0.01110696 -0.10442432 0.06462417 -0.08006841 0.07512908 0.12509285 -0.041187186
0.12078652 0.037279975 0.110526875 -0.17692886 0.051019277 0.0024966672 0.16820094 -0.10767796
0.016625106 -0.11395164 -0.11454475 0.090933405 -0.025855348 -0.14888245 -0.13672678 -0.033013366
-0.1460851 0.18041873 -0.12735581 0.10004464 0.1620251 0.101733014 0.15322027 -0.005635932
0.021064017 -0.021566005 -0.05552722 0.008507461 0.032791935 -0.066649586 0.073004656 0.039723508
0.09167592 -0.06752078 0.0769706 -0.08608606 -0.022203054 -0.18683612 -0.032565657 0.09374608
0.026641013 0.050603 0.1068195 -0.01743656 0.013222591 0.07046813 -0.09422499 0.019731319
0.062585145 -0.010526186 -0.03770479 0.0014911841 -0.08296635 -0.000850597 -0.03058528 0.106836975
0.104943216 0.18921891 0.050241534 -0.033411708 -0.056618232 0.008331185 -0.019420596 0.053850375
00000000: 762e 1fbd 4011 de3c 2456 0dbc 3e7f f3bc
00000010: 7407 dd3d 1566 99bd 9ae8 eabd a2a1 c9bc
00000020: 2853 903d 3919 c1bd ec75 df3a e112 b2bc
00000030: b454 5a3d 9389 333d 9d0b ba3d 218a 6abb
00000040: 0126 0fbe 6323 ecbd 4cf5 bd3d 4b42 ea3c
00000050: 0d0a 9b3d fc4a 6ebd 9fba 0ebd 90e4 02bd
00000060: 5cf0 cabd 8edf 9b3c 9b26 ecbc 8655 fdbd
00000070: 8d9d a13d f87d 8b3d 6ffb 873d 0154 21bd
00000080: 7eee d7bc 2955 c8bd 1df4 8fbd bcee 933d
00000090: d43c 7cba 10ec 52bd ea56 513c 7be4 f33c
000000a0: 7d3b 65bc 2161 5cbd c423 383d 0d94 babd
000000b0: 368c 413d a4cf a93c d1f8 143c da65 383a
000000c0: 89de acbd 5da7 29bc 95fc 273d 6ab7 4abc
000000d0: 7e95 d2bd 3ea8 57bd 94cb 8abc f533 9fbc
000000e0: 4aad be3d 24b9 db3d ee0c 44bd e752 8d3d
000000f0: d93f cd3d 22cf a33d ef58 1b3d a6b3 6fbd
00000100: 59ee ad3d bc04 b73d 1cd7 0bbd 30f9 9cbd
00000110: 64e1 be3d 4e1a f0bc e2ca 3d3c 80cd 2abb
00000120: 1512 ff3d 5bec 19bd 9246 d33c 479e b4bd
00000130: 102b 943d 990f ad3d 4ea8 2bbd 0fb9 b2bd
00000140: f4c7 103d 7038 9d3c 6dc5 ad3c 81cb b1bc
00000150: 390b 003d 002f b3bd d363 23bd eb5d 4e3d
00000160: b2fb 9ebb ec86 f8bc c4f0 b7bd a8cf bc3c
00000170: 2905 11be 5e15 863c 6621 8e3d 70c9 b9bd
00000180: e546 f4bd 625c 4bbc b342 c4bd 72b3 85bd
00000190: d311 103e 178d 11be 99c2 e43d db49 1cbe
000001a0: 33e3 22bd 4b18 c3bd a474 8d3d 29c3 f53d
000001b0: ca9f 1cbe 7136 debd 91a2 b33e ba13 3dbc
000001c0: a2d9 11be c4ed a6be dc08 223e 695a cebd
000001d0: ccd7 cebc 1c7b 123b 2c9d d33d c646 5fbd
000001e0: 4334 85bd 5f16 8c3d 3e17 edbc fe04 1ebd
000001f0: 61c0 9abd c6f0 22bc b901 ad3d b65d 3c3c
00000200: 8bbc 37bd 1c46 0ebe e93f dbbd 2e4d ab3a
00000210: 770b 0f3e 1db2 3c3e 7fcf 9cbd 917c 06be
00000220: b4bc 2d3d 7c0f 043d 9718 ad3c 29f3 febd
00000230: 8ee8 9ebd 3bb6 00be 5ba9 8dbd f779 f7bd
00000240: 4f28 dbbb d3ad ecbd 8e10 a33d 27dd f13b
00000250: c6a0 06bd 7412 9b3d 9e01 e7bd 8e1a 913d
00000260: 74f5 65bc 4879 dbbd dc24 b13b 00f6 213e
00000270: 1022 153e a1af 05bd 2954 b13c a89d b73d
00000280: 4fec 253d 3867 b83d 55c1 803c 5de5 8a3c
00000290: 622f af3d 2c9f 153e 647f f9bd 4dbd 833c
000002a0: 584f 303e bee5 1a3e be55 d53d ae5f cb3c
000002b0: fff8 f83d 834f 90bd 9794 d1bd 1d74 ae3d
000002c0: 1faa 79bd 175a c33d 8998 a33d 1982 193d
000002d0: c7bd 5e3e dcc1 193e 6758 21be ac2b e4bd
000002e0: d314 163e f7f9 353c 6bdc d5bd ad59 843d
000002f0: e8fa a3bd 46dd 993d 5718 003e e5b3 28bd
00000300: ec5e f73d e3b2 183d ea5b e23d d72c 35be
00000310: 97f9 503d 209f 233b de3c 2c3e 4386 dcbd
00000320: 6031 883c 7a5f e9bd 7096 eabd 4b3b ba3d
00000330: 98ce d3bc a474 18be 1b02 0cbe 0639 07bd
00000340: 5597 15be b0bf 383e 9069 02be 34e4 cc3d
00000350: e8e9 253e 6659 d03d c6e5 1c3e a0ad b8bb
00000360: 728e ac3c 31ab b0bc 8370 63bd e162 0b3c
00000370: d650 063d 947f 88bd 7783 953d 1eb5 223d
00000380: 96c0 bb3d 5648 8abd c3a2 9d3d e34d b0bd
00000390: 2ee3 b5bc f851 3fbe 9163 05bd f2fd bf3d
000003a0: 413e da3c 1745 4f3d 2fc4 da3d 1ed7 8ebc
000003b0: 91a3 583c 9851 903d 08f9 c0bd 93a3 a13c
000003c0: a42c 803d 0676 2cbc 5670 1abd d673 c33a
000003d0: 43ea a9bd 99fa 5eba fb8d fabc 58cd da3d
000003e0: 78ec d63d 9ac2 413e 11ca 4d3d b7da 08bd
000003f0: 85e8 67bd 867f 083c f117 9fbc 3692 5c3d

conv1_2_2.bias f4 [5]
0.08457525 0.08080692 0.078829534 -0.054133043 0.040531978
00000000: ca35 ad3d 197e a53d 6171 a13d 9cba 5dbd
00000010: dc04 263d

conv1_2_3.weight f4 [5, 20, 11]
-0.04759814 -0.14892638 -0.20886153 -0.11944688 -0.13729611 -0.13974479 0.02972959 0.031304177
0.07842429 0.11364143 0.15409096 -0.09705089 -0.037468284 -0.053852342 -0.14478481 -0.16530038
-0.089038886 -0.03924374 0.07373906 -0.002394877 -0.086009555 -0.032880504 0.015014939 -0.027975611
-0.07210519 -0.14008532 0.051902834 0.27363864 0.19942757 0.06699007 0.020132754 0.0032183046
-0.19397844 -0.07979666 0.029893916 0.12456884 0.046423748 -0.059442654 -0.11545105 -0.13293454
-0.16105159 0.010672306 -0.025259163 -0.02222223 -0.035521924 -0.056089286 0.008813521 0.017713524
0.025023127 -0.02670109 -0.02885456 -0.051685087 0.008116234 -0.042180687 -0.09258241 -0.08162144
-0.119731165 -0.03534995 0.05645115 -0.05641733 -0.046732247 -0.2197806 -0.15947911 -0.035982188
-0.031451445 -0.09880821 -0.29187906 -0.20432112 -0.17243768 -0.26605505 -0.18252097 -0.139173
-0.11197676 -0.07768191 -0.065281615 -0.07634305 -0.0069473274 -0.059359413 -0.003982825 -0.06650971
-0.05407179 0.041118328 -0.018478151 -0.061684895 -0.106511295 -0.12061176 -0.07135813 -0.067002736
0.025484363 -0.032273076 0.0038862224 0.045745745 0.07006712 0.045332935 -0.08007067 -0.08998907
-0.06850533 0.0229033 -0.017623084 0.045761093 0.008377507 -0.029427087 -0.05806143 0.02967561
0.17230253 0.06605168 0.031220302 0.10596388 -0.031116966 -0.07351189 -0.19091041 -0.059028942
-0.1223102 -0.034015413 -0.06352442 0.024666857 -0.058640007 -0.0034865732 -0.00934229 -0.0073563415
-0.046857465 -0.107156456 -0.18828234 -0.17739499 -0.17938451 -0.12878317 -0.049814932 -0.06412707
0.0226723 0.06754694 0.010618432 0.074992195 -0.08943602 -0.044324692 -0.16874695 -0.118060924
-0.07470273 -0.121450126 -0.09688547 -0.09099371 -0.01114592 0.035031322 0.024753923 -0.07635412
-0.044444576 -0.05504484 -0.12891528 -0.055319857 -0.104016796 0.024186146 -0.01062195 0.08952665
0.063105635 0.08171785 -0.07778474 -0.056901984 -0.05594308 -0.017364664 -0.057518255 -0.024306461
0.02660448 0.10780401 0.123891525 0.14662501 0.063357525 -0.26208827 -0.17040038 -0.103880055
0.0012907961 -0.0042233844 0.059759427 0.052757673 0.011988752 -0.03030261 -0.015929403 -0.04545891
-0.1770224 -0.057372633 -0.08107556 -0.08966829 -0.009916381 0.09233319 0.13024202 0.18014148
0.16448095 0.11733154 0.124407515 -0.084126785 -0.01992545 -0.034740616 -0.10984349 0.006510767
-0.034760073 0.0046035605 -0.04496458 0.07051854 -0.041469857 -0.060865704 -0.07645967 -0.07733759
-0.09413362 0.015944472 0.0031361596 -0.09179022 -0.11036981 -0.06427829 -0.07432657 -0.11313003
-0.12460593 0.07606549 -0.03353863 -0.03217519 0.10218187 0.04980077 0.062520556 -0.027761985
-0.052364033 -0.14463757 -0.18642958 -0.17783195 -0.03191806 -0.03908284 -0.10069176 0.0713041
0.07430798 0.013381713 0.06067756 -0.18279354 -0.058435254 -0.07865183 0.019898273 -0.05266156
-0.011459873 0.17398287 -0.2454005 -0.01214294 -0.054051887 -0.14088087 0.20256318 -0.07206929
-0.090587854 -0.26640517 -0.06692404 -0.045216743 -0.22942986 -0.25983244 0.15018302 0.20800473
-0.0003359993 -0.1320636 -0.23547159 -0.0560877 -0.3198724 0.05289375 -0.024365427 0.09454167
00000000: 44f6 42bd 2880 18be ccdf 55be 91a0 f4bd
00000010: 5a97 0cbe 4219 0fbe 788b f33c cf38 003d
00000020: ea9c a03d d7bc e83d 05ca 1d3e 9ec2 c6bd
00000030: 5878 19bd 4694 5cbd 7842 14be 8144 29be
00000040: 055a b6bd 0bbe 20bd 8104 973d 5ef3 1cbb
00000050: c725 b0bd b5ad 06bd 3801 763c 1c2d e5bc
00000060: e3ab 93bd 8772 0fbe 1198 543d 5d1a 8c3e
00000070: be36 4c3e 1732 893d 72ed a43c 31ea 523b
00000080: 49a2 46be 6e6c a3bd 16e4 f43c f31d ff3d
00000090: d426 3e3d 247a 73bd 9a71 ecbd fe1f 08be
000000a0: b5ea 24be e5da 2e3c 4eec cebc 650b b6bc
000000b0: 707f 11bd e1bd 65bd 9666 103c f41b 913c
000000c0: 4dfd cc3c 3fbc dabc 6660 ecbc beb3 53bd
000000d0: f4f9 043c a8c5 2cbd d99b bdbd 2429 a7bd
000000e0: 9d35 f5bd 1ccb 10bd 5239 673d dc15 67bd
000000f0: 506a 3fbd 2a0e 61be 7e4e 23be 0f62 13bd
00000100: 3bd3 00bd f55b cabd 2c71 95be 8e39 51be
00000110: 8193 30be 5e38 88be c7e6 3abe 5e83 0ebe
00000120: 1254 e5bd b117 9fbd 5eb2 85bd bf59 9cbd
00000130: 68a6 e3bb db22 73bd 5c82 82bb 3e36 88bd
00000140: 627a 5dbd b16b 283d 7e5f 97bc 4da9 7cbd
00000150: 9822 dabd 4c03 f7bd 3624 92bd bb38 89bd
00000160: 95c4 d03c c630 04bd feaf 7e3b e45f 3b3d
00000170: 5a7f 8f3d 07af 393d 17fc a3bd 314c b8bd
00000180: 864c 8cbd b49f bb3c 495e 90bc fc6f 3b3d
00000190: d041 093c 1311 f1bc d2d1 6dbd 441a f33c
000001a0: 1370 303e 1a46 873d b8c1 ff3c 9703 d93d
000001b0: 02e9 febc 678d 96bd 057e 43be 55c8 71bd
000001c0: c57d fabd bf53 0bbd 1719 82bd 2612 ca3c
000001d0: 8130 70bd fe7e 64bb 6810 19bc 770d f1bb
000001e0: 9ded 3fbd d874 dbbd 16cd 40be 08a7 35be
000001f0: 93b0 37be bcdf 03be be0a 4cbd 0e55 83bd
00000200: 42bb b93c 0d56 8a3d eff8 2d3c 8295 993d
00000210: 3b2a b7bd cf8d 35bd 00cc 2cbe edc9 f1bd
00000220: bffd 98bd d8ba f8bd e46b c6bd e95a babd
00000230: 609d 36bc 017d 0f3d bdc8 ca3c 8d5f 9cbd
00000240: 840b 36bd b376 61bd 5e02 04be 1397 62bd
00000250: c206 d5bd 0622 c63c b007 2ebc c059 b73d
00000260: 873d 813d b05b a73d 9b4d 9fbd 0e12 69bd
00000270: 9224 65bd 5740 8ebc 4398 6bbd 581e c7bc
00000280: a3f1 d93c 59c8 dc3d d7ba fd3d de24 163e
00000290: 97c1 813d 6f30 86be 707d 2ebe 11bf d4bd
000002a0: ee2f a93a 5164 8abb 4dc6 743d 6e18 583d
000002b0: 786c 443c 2e3d f8bc 617e 82bc 1f33 3abd
000002c0: 5c45 35be 91ff 6abd f10a a6bd 02a4 b7bd
000002d0: 5178 22bc 2f19 bd3d 2a5e 053e 0277 383e
000002e0: b26d 283e 854b f03d 5ec9 fe3d aa4a acbd
000002f0: b33a a3bc 2d4c 0ebd a0f5 e0bd 4658 d53b
00000300: 9460 0ebd 77d9 963b c82c 38bd 066c 903d
00000310: 4cdc 29bd 514e 79bd e396 9cbd 2c63 9ebd
00000320: 21c9 c0bd fb9d 823c 0788 4d3b 83fc bbbd
00000330: 9109 e2bd 56a4 83bd 8738 98bd b8b0 e7bd
00000340: 6531 ffbd 39c8 9b3d cd5f 09bd 22ca 03bd
00000350: ba44 d13d e4fb 4b3d c70a 803d 1a6d e3bc
00000360: ab7b 56bd df1b 14be 65e7 3ebe 9419 36be
00000370: 83bc 02bd 5415 20bd 7b37 cebd e207 923d
00000380: c82e 983d f93e 5b3c 0889 783d 3b2e 3bbe
00000390: ce59 6fbd 3614 a1bd b401 a33c a6b3 57bd
000003a0: 31c2 3bbc 9128 323e 454a 7bbe 2ff3 46bc
000003b0: 8365 5dbd 1343 10be b96c 4f3e 1099 93bd
000003c0: 2086 b9bd 4266 88be 790f 89bd 3135 39bd
000003d0: a9ef 6abe c208 85be 94c9 193e 31ff 543e
000003e0: 1029 b0b9 ae3b 07be 771f 71be 37bc 65bd
000003f0: 51c6 a3be 1ea7 583d 019a c7bc 109f c13d

conv1_2_3.bias f4 [5]
0.0013070855 0.0453856 0.059274454 0.078119434 0.045761712
00000000: 8352 ab3a 40e6 393d c5c9 723d 15fd 9f3d
00000010: a270 3b3d

conv1_2_4.weight f4 [5, 20, 15]
-0.014261776 0.039928287 0.032284115 -0.030214753 -0.05771521 -0.02090479 0.04696986 -0.0350292
-0.021185853 0.0070500476 -0.026455509 0.031545244 0.041747943 0.013960618 -0.05528442 -0.061007734
-0.07679037 0.04250431 -0.026068654 -0.027520686 0.030064879 -0.081076056 -0.0080976365 0.053663798
0.020517668 0.021709148 -0.07409797 -0.09830594 -0.06941679 -0.16014896 0.38690236 0.15726149
0.26820335 0.22781594 0.2453271 0.2953736 0.3162044 0.25116733 0.23346877 0.1787418
0.32247117 0.17844294 0.0752385 0.332956 0.28874636 0.02261583 0.039099555 -0.016391858
0.025104534 0.029735256 0.05227291 0.005913063 -0.00055016624 -0.09673318 0.0012029046 0.057615407
0.06219905 -0.008760108 0.09397744 0.015423724 -0.00060110615 -0.03851367 0.00013523582 0.050976537
0.04072486 -0.023322187 -0.033061847 0.0046506664 0.046211746 0.073574595 0.065646425 0.047760207
0.15834153 0.15313236 0.0907898 -0.039461583 -0.022171227 -0.015862074 0.021434415 0.1453984
0.14664224 0.22673716 0.14765249 0.04711354 0.008515339 0.10792364 -0.060851872 -0.047464866
0.037674878 0.14176728 0.0063041085 0.026403392 0.032363337 -0.014630393 0.009623765 -0.04195768
-0.10309693 0.047417354 0.050212838 -0.055595282 -0.16592184 -0.09160831 -0.0777418 -0.24477449
-0.27329248 0.12149503 0.07435177 -0.012228587 0.038823042 -0.01564025 -0.0037064997 0.03205718
0.1624962 0.08863211 0.16337478 0.07582536 0.20580244 0.15651049 0.11708409 0.04081841
0.020171238 0.04447884 0.0042396253 -0.023895673 -0.0014850422 0.06993074 0.0029313157 0.11243466
0.0991227 0.07746961 0.14876202 0.20029074 0.22075926 0.17874177 0.18677036 0.034740087
0.01210943 0.024387037 0.045142666 0.027738981 0.030513795 0.0036024505 0.03243979 -0.020071814
-0.047395453 -0.079868995 -0.10058661 -0.11322619 -0.1516497 -0.1356942 0.027427236 0.03419174
0.018105425 0.010926544 0.038812805 0.02763868 0.005023207 -0.022990748 -0.039964 -0.0384239
-0.1521611 -0.10280181 -0.19097027 -0.31993613 -0.32304302 0.05444516 0.092127405 -0.011791875
-0.04645099 0.02929323 -0.027618792 -0.012322185 -0.0012839867 -0.027336065 0.011382113 0.0915547
0.0698285 0.028007135 -0.003817374 -0.14351867 -0.020418715 0.06834843 0.04286414 0.020814734
-0.008203779 -0.046668142 0.009941105 0.055249818 -0.049926363 0.0014717458 0.120902315 0.07872373
0.022543915 0.012493089 -0.043421768 0.01255075 0.00267446 0.010341228 -0.03854473 -0.0035581265
-0.07174171 -0.0791211 -0.045930333 0.0354625 0.037687805 0.012343505 -0.0653203 -0.043292806
-0.12831475 -0.19929117 0.004677151 -0.021755772 -0.047835972 -0.00046415994 -0.016324194 0.034081653
0.019631436 0.061993394 -0.026278835 -0.018347604 -0.060620442 -0.07031145 -0.12906785 -0.1658728
-0.18589023 0.09096105 0.17818817 0.049422555 0.15853071 0.20793311 0.16064249 0.20315853
0.11203383 0.124209866 0.07070204 -0.020898012 -0.033017915 0.03314868 0.004254412 0.059787575
-0.007150231 -0.10133716 -0.056254353 -0.021066822 -0.016291719 -0.07188851 -0.041167237 -0.069925494
0.030113101 0.06341029 0.12752996 0.073862456 -0.014512423 0.095052645 0.020969467 0.047882766
00000000: 39aa 69bc d88b 233d 593c 043d ee84 f7bc
00000010: c966 6cbd 8640 abbc 7863 403d c77a 0fbd
00000020: f48d adbc 1604 e73b 39b9 d8bc 9635 013d
00000030: e4ff 2a3d 13bb 643c ea71 62bd 3fe3 79bd
00000040: 4544 9dbd 0019 2e3d ee8d d5bc 1073 e1bc
00000050: 9f4a f63c 340b a6bd f3ab 04bc 92ce 5b3d
00000060: ab14 a83c 62d7 b13c adc0 97bd a054 c9bd
00000070: 642a 8ebd 17fe 23be 1118 c63e 2809 213e
00000080: f351 893e 9548 693e 0737 7b3e 353b 973e
00000090: 8be5 a13e 0199 803e 7012 6f3e 1708 373e
000000a0: f11a a53e bfb9 363e a516 9a3d 3579 aa3e
000000b0: 90d6 933e d544 b93c db26 203d 3848 86bc
000000c0: 06a8 cd3c 5a97 f33c 1e1c 563d 5ec2 c13b
000000d0: 0839 10ba 0c1c c6bd c8aa 9d3a 22fe 6b3d
000000e0: 6ec4 7e3d 8e86 0fbc 3e77 c03d cab3 7c3c
000000f0: 8d93 1dba 83c0 1dbd 17ce 0d39 c6cc 503d
00000100: 1ccf 263d 2c0e bfbc dc6b 07bd 9e64 983b
00000110: 8748 3d3d 47ae 963d a271 863d 35a0 433d
00000120: 4824 223e bbce 1c3e 01f0 b93d 78a2 21bd
00000130: 6fa0 b5bc 2ef1 81bc 3a97 af3c 51e3 143e
00000140: 6229 163e c92d 683e 3732 173e 21fa 403d
00000150: ec83 0b3c 1207 dd3d d03f 79bd 856a 42bd
00000160: f950 1a3d 712b 113e b292 ce3b ed4b d83c
00000170: 6b8f 043d 51b4 6fbc ffac 1d3c d1db 2bbd
00000180: 7c24 d3bd b338 423d faab 4d3d e1b7 63bd
00000190: 6ae7 29be 239d bbbd 1837 9fbd 2aa6 7abe
000001a0: feec 8bbe 63d2 f83d be45 983d 695a 48bc
000001b0: e904 1f3d fb1f 80bc bfe8 72bb 644e 033d
000001c0: 6765 263e c084 b53d b84b 273e 544a 9b3d
000001d0: e0bd 523e 4944 203e c9c9 ef3d 3531 273d
000001e0: 273e a53c 722f 363d 8eec 8a3b dcc0 c3bc
000001f0: bfa5 c2ba d937 8f3d 511b 403b 2544 e63d
00000200: d800 cb3d 63a8 9e3d 1255 183e 0419 4d3e
00000210: b70e 623e 1508 373e bb40 3f3e 9f4b 0e3d
00000220: a166 463c 53c7 c73c 84e7 383d dc3c e33c
00000230: 11f8 f93c 1717 6c3b 96df 043d a56d a4bc
00000240: bc21 42bd 5b92 a3bd 5a00 cebd 22e3 e7bd
00000250: 0f4a 1bbe 6cf3 0abe 15af e03c a30c 0c3d
00000260: d451 943c 3f05 333c 2dfa 1e3d 836a e23c
00000270: b799 a43b 1857 bcbc 4bb1 23bd 6162 1dbd
00000280: 1fd0 1bbe c189 d2bd b68d 43be abce a3be
00000290: e565 a5be e301 5f3d 4bad bc3d b532 41bc
000002a0: 6543 3ebd 5bf8 ef3c ce40 e2bc fde2 49bc
000002b0: 724b a8ba e2ef dfbc 0b7c 3a3c 0881 bb3d
000002c0: 3f02 8f3d 386f e53c e82c 7abb 8ff6 12be
000002d0: 2645 a7bc 43fa 8b3d 4f92 2f3d a983 aa3c
000002e0: 2569 06bc 1827 3fbd 04e0 223c a24d 623d
000002f0: 967f 4cbd 98e7 c03a a29b f73d e839 a13d
00000300: 04ae b83c d0af 4c3c 06db 31bd a9a1 4d3c
00000310: fe45 2f3b 416e 293c 14e1 1dbd 752f 69bb
00000320: 51ed 92bd 3e0a a2bd 7221 3cbd 2041 113d
00000330: 875e 1a3d 6a3c 4a3c a6c6 85bd cc53 31bd
00000340: f164 03be fc12 4cbe c942 993b 2939 b2bc
00000350: a7ef 43bd 7e5a f3b9 51ba 85bc 3499 0b3d
00000360: 1bd2 a03c c9ec 7d3d b646 d7bc b74d 96bc
00000370: 244d 78bd 73ff 8fbd 5d2a 04be 8fda 29be
00000380: 025a 3ebe c949 ba3d f676 363e 4e6f 4a3d
00000390: e055 223e 6bec 543e 777f 243e ca08 503e
000003a0: fe71 e53d be61 fe3d 3bcc 903d 4f32 abbc
000003b0: cb3d 07bd e9c6 073d 9868 8b3b d1e3 743d
000003c0: 7c4c eabb db89 cfbd f76a 66bd 5494 acbc
000003d0: 3676 85bc 483a 93bd fa9e 28bd 1935 8fbd
000003e0: c0af f63c 41dd 813d 3797 023e 3345 973d
000003f0: 84c5 6dbc f6aa c23d 29c8 ab3c b820 443d

conv1_2_4.bias f4 [5]
-0.06498849 -0.0546109 -0.00784179 -0.042874333 -0.08116014
00000000: af18 85bd aeaf 5fbd da7a 00bc ff9c 2fbd
00000010: 4a37 a6bd

conv1_3_1.weight f4 [5, 20, 3]
0.02174838 -0.057203498 0.140218 -0.09369716 -0.018117137 -0.08267448 0.14100353 -0.04148548
0.015190535 -0.08085023 0.06853789 -0.07976015 0.07835713 -0.09390098 0.101034105 0.09647417
0.048111863 0.10445702 0.0028615007 -0.026067145 0.092612766 -0.051734846 -0.109943315 -0.10937449
0.11886454 0.04647297 -0.05400293 0.11791235 0.086526185 0.04343099 -0.1576593 -0.13770965
-0.06889866 -0.1687242 -0.15470822 -0.1897051 -0.1706083 0.09438125 0.13775806 -0.08326005
-0.093967915 -0.24374151 -0.04960288 -0.16660945 -0.083147444 -0.11805101 0.03848682 -0.114307135
-0.08603136 -0.043264516 -0.0871861 0.1610371 0.00059055624 -0.13498612 -0.025263868 -0.12980236
-0.14410058 0.12684378 -0.02114973 0.07647518 0.08185247 0.071085095 -0.012844635 -0.017673418
-0.08465847 0.089205004 0.14455886 0.1071898 -0.0825305 0.045683127 0.06144367 -0.014373466
-0.06319792 0.01427357 0.05144582 -0.0025361814 -0.06366012 0.07604929 -0.018629018 0.09899606
0.08464707 0.04291727 -0.12751222 0.024276411 0.1399074 0.17634177 -0.032441963 -0.037921976
0.13205466 0.16268954 0.09071545 -0.09761439 -0.032706168 0.25509244 -0.071076855 -0.20287108
-0.07696184 0.074759126 -0.025004325 0.025459213 0.04995145 -0.17678742 0.030059565 -0.20088364
-0.049608193 -0.019560955 0.14432786 0.015352004 0.05889744 0.075592026 -0.08358579 -0.03792758
-0.0036046738 0.11535466 -0.09331022 -0.0026111393 -0.2283713 -0.041213103 0.1708481 -0.064907566
-0.036631178 -0.0066873822 0.011325418 0.0743852 -0.11638621 0.036481004 -0.040559806 -0.03845784
-0.13017406 -0.034170974 -0.107465215 -0.012310504 -0.08412749 -0.0069165784 -0.052260075 -0.15634744
0.085695125 -0.04406795 -0.087996945 0.06861388 -0.11878245 0.10844395 -0.027340334 -0.15486577
-0.06688998 -0.09172992 -0.05302011 0.05060825 0.0642607 -0.20272855 -0.017621547 -0.19359045
-0.075282045 0.20501879 0.119873166 -0.12285346 0.06360338 -0.09437469 -0.16837724 0.11908914
0.0011826439 -0.031670526 0.18709981 -0.042451963 -0.0062077646 0.026809033 0.13153958 -0.05277983
0.063527435 0.14295305 0.053019 0.07603571 0.14099376 0.14596015 0.11256762 0.1747356
0.041522857 0.23176219 0.15782468 0.28598216 0.117510654 -0.0639581 0.08041185 0.10077556
0.08474837 -0.03711572 0.06599711 -0.02406925 0.006292031 0.14932549 0.10856686 -0.05804878
-0.02413371 0.13532479 0.026395194 0.012510305 -0.09092924 -0.14767599 0.22299077 0.060533717
-0.08244004 -0.057471585 -0.08132079 -0.0077198856 0.11813191 0.035149306 -0.13633035 0.27990392
0.086331986 -0.2019923 -0.15703538 -0.07413255 0.023644684 0.067972355 -0.038823217 0.051924508
0.07987765 0.11575136 -0.07538105 -0.19152991 -0.12260161 0.15786925 0.041018516 0.0033116876
0.16191585 -0.11230225 -0.03512813 0.00032358445 0.08752294 -0.053596042 -0.0516676 -0.105768524
0.10872666 0.081385605 -0.019185867 -0.1302808 0.076210864 -0.007616397 -0.042636663 0.0352814
0.14087114 -0.10819917 0.0041956617 -0.0633617 0.072377734 -0.094645396 0.11267219 -0.03894889
0.117075354 -0.07468094 0.02428589 0.07745975 -0.065104626 -0.02003783 0.107481286 -0.01232551
00000000: a929 b23c 374e 6abd 4f95 0f3e 4ce4 bfbd
00000010: 646a 94bc 3d51 a9bd 3b63 103e aeec 29bd
00000020: b9e1 783c ce94 a5bd 985d 8c3d 4a59 a3bd
00000030: b479 a03d 284f c0bd f8ea ce3d 4094 c53d
00000040: f210 453d 90ed d53d 0488 3b3b c48a d5bc
00000050: c3ab bd3d ebe7 53bd f629 e1bd bcff dfbd
00000060: 406f f33d 715a 3e3d 2d32 5dbd 087c f13d
00000070: a434 b13d b2e4 313d 7171 21be c203 0dbe
00000080: be1a 8dbd 09c6 2cbe d56b 1ebe 0e42 42be
00000090: f1b3 2ebe f54a c13d 7310 0d3e 3f84 aabd
000000a0: 4072 c0bd 6097 79be 642c 4bbd ab9b 2abe
000000b0: 3549 aabd bac4 f1bd 5ba4 1d3d dc19 eabd
000000c0: 3631 b0bd 2236 31bd a08e b2bd e9e6 243e
000000d0: 8fcf 1a3a cd39 0abe 2cf6 cebc e9ea 04be
000000e0: 1a8f 13be 56e3 013e 3342 adbc 059f 9c3d
000000f0: 45a2 a73d 1095 913d 4e72 52bc d8c7 90bc
00000100: 6b61 adbd 1db1 b63d 3d07 143e 5386 db3d
00000110: c005 a9bd 3b1e 3b3d 5cac 7b3d b07e 6bbc
00000120: e96d 81bd b1db 693c dab8 523d 1036 26bb
00000130: 3d60 82bd bbbf 9b3d e29b 98bc 72be ca3d
00000140: 715b ad3d 05ca 2f3d 9092 02be 53df c63c
00000150: e343 0f3e f092 343e dde1 04bd 1354 1bbd
00000160: 5639 073e 1698 263e 06c9 b93d 0eea c7bd
00000170: e7f6 05bd 7a9b 823e be90 91bd 70bd 4fbe
00000180: 2b9e 9dbd 501b 993d dfd5 ccbc d78f d03c
00000190: e499 4c3d c307 35be 7a3f f63c 71b4 4dbe
000001a0: f631 4bbd 4c3e a0bc afca 133e f986 7b3c
000001b0: 713e 713d fecf 9a3d 072f abbd f359 1bbd
000001c0: 643c 6cbb 103f ec3d 6e19 bfbd a61f 2bbb
000001d0: 2bda 69be 12cf 28bd cef2 2e3e 42ee 84bd
000001e0: 930a 16bd d421 dbbb 3f8e 393c 4557 983d
000001f0: e55b eebd 1b6d 153d 0a22 26bd f885 1dbd
00000200: 594c 05be ddf6 0bbd b916 dcbd ffb1 49bc
00000210: 094b acbd 77a4 e2bb a90e 56bd 8b19 20be
00000220: ed80 af3d 9880 34bd be37 b4bd 6f85 8c3d
00000230: 3744 f3bd dd17 de3d d6f8 dfbc 2295 1ebe
00000240: 9dfd 88bd e5dc bbbd 9d2b 59bd 994a 4f3d
00000250: 1d9b 833d 1398 4fbe 105b 90bc 933c 46be
00000260: 792d 9abd 72f0 513e 1080 f53d 989a fbbd
00000270: 7d42 823d 8447 c1bd 156b 2cbe 02e5 f33d
00000280: f202 9b3a f4b8 01bd 1897 3f3e 1ce2 2dbd
00000290: 816a cbbb 9e9e db3c 50b2 063e aa2f 58bd
000002a0: ac1a 823d 4962 123e 732a 593d 9cb8 9b3d
000002b0: ab60 103e 9476 153e da89 e63d e4ed 323e
000002c0: df13 2a3d 1153 6d3e cb9c 213e 416c 923e
000002d0: 6da9 f03d 77fc 82bd f8ae a43d 6b63 ce3d
000002e0: 8e90 ad3d a706 18bd 7e29 873d e02c c5bc
000002f0: 622d ce3b c8e8 183e 4d58 de3d 8fc4 6dbd
00000300: 0fb4 c5bc 9592 0a3e bc3a d83c 06f8 4c3c
00000310: 1c39 babd 6038 17be b157 643e 34f2 773d
00000320: 53d6 a8bd 5367 6bbd 848b a6bd 18f7 fcbb
00000330: 25ef f13d b8f8 0f3d 2f9a 0bbe 914f 8f3e
00000340: d3ce b03d 12d7 4ebe e2cd 20be ced2 97bd
00000350: 7fb2 c13c 1735 8b3d 1805 1fbd cbae 543d
00000360: e596 a33d 0d0f ed3d 6161 9abd 6b20 44be
00000370: 8e16 fbbd 7aa8 213e 0803 283d e608 593b
00000380: 45cd 253e b9fe e5bd 84e2 0fbd c5a6 a939
00000390: 3a3f b33d 8687 5bbd 68a1 53bd 2b9d d8bd
000003a0: 15ac de3d 7fad a63d ae2b 9dbc 5468 05be
000003b0: 7114 9c3d f892 f9bb c8a3 2ebd 3b83 103d
000003c0: 8640 103e 8797 ddbd c37b 893b c7c3 81bd
000003d0: c73a 943d 72d5 c1bd adc0 e63d df88 1fbd
000003e0: 34c5 ef3d 52f2 98bd 34f3 c63c 38a3 9e3d
000003f0: 9355 85bd 6026 a4bc 261f dc3d f0f0 49bc

conv1_3_1.bias f4 [5]
0.10638509 -0.08912452 -0.035356876 -0.048436183 0.08681373
00000000: 6de0 d93d eb86 b6bd 5fd2 10bd 0565 46bd
00000010: 66cb b13d

conv1_3_2.weight f4 [5, 20, 5]
0.06959359 0.24282688 0.17067291 -0.106212065 -0.0140367225 -0.08578726 0.016397975 0.16422762
0.10027157 0.07248069 0.113484934 -0.13979718 0.050350744 -0.119835414 -0.05023668 0.06601534
0.15695012 -0.07347169 0.10466284 -0.112599365 -0.101176575 0.05092407 0.104932114 0.05593213
-0.012957949 -0.018264042 0.10613197 0.09263857 0.08513741 -0.036922462 0.13994943 0.08521455
0.12629811 -0.13257708 0.13101965 -0.09240872 0.082907535 0.0037418548 0.00041932473 0.08629599
0.14938712 0.21431068 -0.048306465 -0.093999274 -0.013457614 0.2993299 0.18611719 0.022769662
-0.16205364 -0.17788897 -0.07428653 -0.020615818 0.03617773 0.322303 0.30461493 -0.2868193
-0.11412065 -0.14213938 -0.10527952 0.29065913 -0.085850626 0.00044217362 -0.14405367 -0.013779868
0.028599922 -0.24507925 -0.3453208 -0.2730707 -0.12682521 0.18666638 -0.093807235 0.23974372
0.021076465 0.20488806 0.21253851 -0.044191625 0.103010684 0.09230443 -0.092728086 -0.023828208
-0.081051804 0.081740916 -0.08536614 -0.020827878 0.013349773 0.09458028 -0.12583418 -0.15991141
-0.2584432 -0.16981421 -0.15716153 -0.17847267 -0.08824264 -0.0448487 0.0117879985 -0.0735681
0.013570072 -0.14373897 -0.25856507 -0.25162777 0.026621602 -0.034653634 -0.06538524 -0.109854855
0.080542184 -0.08374857 -0.09140546 0.039716993 0.04968821 -0.0900442 -0.054735195 -0.11262972
0.07686944 -0.0035237912 -0.03457176 -0.0751426 0.059619546 0.07614565 0.052204005 -0.09685327
-0.099840924 0.07783233 0.032107797 0.0578265 0.0024534836 -0.11431549 0.028710827 0.060223293
0.037129432 -0.037430815 -0.0014071715 -0.10937956 -0.06195471 0.09164411 0.012122956 -0.09143194
0.08064297 0.078465 -0.07801679 0.019207107 -0.0374604 -0.061030183 0.09122566 0.108564034
0.031861115 0.04766625 -0.02434342 -0.101764716 0.047529444 0.13788627 -0.114065364 0.0069377385
-0.12283658 -0.09088512 -0.042240147 -0.04537051 0.03962359 -0.053234346 -0.08773335 -0.10522319
-0.07768665 0.013777266 -0.14607543 -0.04773838 -0.036281638 -0.106937684 -0.19161196 -0.08483032
-0.20826904 -0.26615858 -0.11575344 -0.05464317 0.04588671 -0.09071739 0.058594726 -0.10593704
-0.051193878 -0.00059258397 0.010188156 -0.18013944 -0.011469634 0.10691715 0.07252342 0.12245813
-0.089805365 0.028433511 0.026360398 0.050617684 0.08494697 0.09448643 0.028080035 0.048268873
-0.03518121 0.027123874 0.023043182 -0.11854885 -0.017696196 -0.014776751 0.02279726 -0.104899615
-0.065604925 0.04639717 0.08399639 -0.04821929 -0.045549862 0.057734743 0.004873775 -0.04412887
-0.03797407 -0.055671208 -0.019333348 0.09674163 0.09887657 0.0727577 -0.070624754 0.011026386
0.049467884 -0.0017617662 -0.086441875 0.09894771 0.05292673 0.034427825 0.043489438 0.024844378
0.033477608 0.055363767 0.065817185 0.06667012 0.094234556 0.10428563 0.09596321 0.06376563
0.001423349 0.0133035015 0.08323313 0.04533818 -0.049103208 0.08445749 -0.031075498 0.04716658
-0.052380655 0.08566071 0.058007564 -0.04916993 0.059035555 0.024046814 -0.0206009 -0.0912216
-0.06732376 -0.009934823 0.08329569 0.0029982657 0.0882118 0.19157192 0.0037736448 -0.017141584
00000000: 1687 8e3d 9ca7 783e e1c4 2e3e b685 d9bd
00000010: 48fa 65bc 3bb1 afbd 0c55 863c 492b 283e
00000020: 2e5b cd3d c270 943d ca6a e83d fe26 0fbe
00000030: 953c 4e3d 456c f5bd fac4 4dbd 0d33 873d
00000040: 88b7 203e 5378 96bd 7959 d63d 7f9a e6bd
00000050: aa35 cfbd c295 503d a6e6 d63d 1719 653d
00000060: 944d 54bc 799e 95bc b85b d93d 4ab9 bd3d
00000070: 865c ae3d 023c 17bd e74e 0f3e f784 ae3d
00000080: 4b54 013e 49c2 07be 042a 063e c840 bdbd
00000090: 6dcb a93d e839 753b d0d8 db39 f4bb b03d
000000a0: f0f8 183e 4274 5b3e 00dd 45bd b182 c0bd
000000b0: 537d 5cbc c541 993e 8195 3e3e 7187 ba3c
000000c0: 64f1 25be 8728 36be 8923 98bd 81e2 a8bc
000000d0: 192f 143d e604 a53e 7df6 9b3e fbd9 92be
000000e0: 16b8 e9bd fc8c 11be ca9c d7bd 46d1 943e
000000f0: 74d2 afbd 8ad3 e739 ce82 13be f5c4 61bc
00000100: 624a ea3c 0ef6 7abe e3cd b0be eccf 8bbe
00000110: 78de 01be 7925 3f3e 021e c0bd 617f 753e
00000120: 8da8 ac3c 2dce 513e b2a3 593e 4702 35bd
00000130: 44f7 d23d 1b0a bd3d 39e8 bdbd 6033 c3bc
00000140: 7dfe a5bd c867 a73d 71d4 aebd 3a9f aabc
00000150: 02b9 5a3c 4eb3 c13d adda 00be d1bf 23be
00000160: ab52 84be c7e3 2dbe f4ee 20be 8ac1 36be
00000170: 8fb8 b4bd 45b3 37bd 7322 413c dfaa 96bd
00000180: 0255 5e3c 4f30 13be a462 84be 5bd5 80be
00000190: 8c15 da3c f8f0 0dbd b2e8 85bd 95fb e0bd
000001a0: 4df3 a43d 5f84 abbd c932 bbbd 49ae 223d
000001b0: dd85 4b3d 1869 b8bd 0332 60bd 69aa e6bd
000001c0: ba6d 9d3d 68ef 66bb 1e9b 0dbd 5de4 99bd
000001d0: a033 743d 40f2 9b3d ded3 553d 025b c6bd
000001e0: 6679 ccbd 8e66 9f3d 7783 033d 7bdb 6c3d
000001f0: a0ca 203b 3d1e eabd f832 eb3c b3ac 763d
00000200: 0815 183d 0e51 19bd d770 b8ba 6402 e0bd
00000210: 39c4 7dbd e8af bb3d 5d9f 463c ab40 bbbd
00000220: 2428 a53d 42b2 a03d 44c7 9fbd 3958 9d3c
00000230: 1470 19bd c9fa 79bd 85d4 ba3d d256 de3d
00000240: cd80 023d b03d 433d da6b c7bc 056a d0bd
00000250: 3cae 423d 0f32 0d3e 1a9b e9bd f855 e33b
00000260: bf91 fbbd fa21 babd 0104 2dbd 6ed6 39bd
00000270: 584c 223d 420c 5abd 8bad b3bd 417f d7bd
00000280: 2e1a 9fbd 0bba 613c cc94 15be 5289 43bd
00000290: 0e9c 14bd 2502 dbbd ed35 44be 85bb adbd
000002a0: 7b44 55be f045 88be 2410 edbd 84d1 5fbd
000002b0: b4f3 3b3d 0aca b9bd 0601 703d 85f5 d8bd
000002c0: acb0 51bd a357 1bba 39ec 263c 7976 38be
000002d0: 22eb 3bbc 61f7 da3d 2987 943d 54cb fa3d
000002e0: e0eb b7bd 65ed e83c c3f1 d73c 7d54 4f3d
000002f0: adf8 ad3d 1a82 c13d 1a08 e63c 95b5 453d
00000300: 2c1a 10bd e332 de3c 0ec5 bc3c bdc9 f2bd
00000310: 9df7 90bc 301a 72bc 52c1 ba3c 9cd5 d6bd
00000320: e05b 86bd f50a 3e3d 4d06 ac3d 9781 45bd
00000330: 7e92 3abd 447b 6c3d 30b4 9f3b 79c0 34bd
00000340: b38a 1bbd 7e07 64bd f860 9ebc 7a20 c63d
00000350: cd7f ca3d fd01 953d b6a3 90bd 04a8 343c
00000360: d69e 4a3d 10eb e6ba 7008 b1bd 19a5 ca3d
00000370: b3c9 583d 3104 0d3d fb21 323d 7086 cb3c
00000380: d11f 093d 1ec5 623d 29cb 863d 588a 883d
00000390: 0cfe c03d b493 d53d 5c88 c43d 8e97 823d
000003a0: ab8f ba3a eef6 593c 2276 aa3d 87b4 393d
000003b0: 7220 49bd 0cf8 ac3d 0b92 febc be31 413d
000003c0: 198d 56bd e26e af3d 5799 6d3d 6966 49bd
000003d0: 44cf 713d d3fd c43c 38c3 a8bc 64d2 babd
000003e0: 0ae1 89bd abc5 22bc ee96 aa3d 8d7e 443b
000003f0: 63a8 b43d 6e2b 443e 414f 773b 826c 8cbc

conv1_3_2.bias f4 [5]
0.039951053 0.081064016 0.097846046 -0.021472605 0.07275459
00000000: b7a3 233d e404 a63d 8263 c83d 51e7 afbc
00000010: 5c00 953d

conv1_3_3.weight f4 [5, 20, 11]
0.009967362 -0.05249726 -0.029544143 0.060971722 -0.04636 -0.05048572 0.048320584 0.041736394
0.036734127 0.023028562 -0.06065083 -0.061887596 -0.016487835 -0.060697995 -0.033808835 0.023304401
0.005635413 -0.0051284777 -0.027718086 -0.06748577 0.05346755 -0.016478814 0.0073252814 -0.057680495
-0.06384455 -0.052619394 -0.049800765 0.020095177 -0.061902482 -0.04716738 -0.03141845 -0.023430567
0.001708732 0.0056666527 0.026500763 0.032877475 -0.043247484 -0.029015392 0.033841636 0.037399635
-0.06743246 0.014692713 -0.011621632 0.032496348 0.018316837 -0.08517361 -0.045665596 -0.031571884
0.015267381 0.038584452 0.03450934 -0.08841888 -0.060885612 0.009273131 -0.046777304 -0.09006281
0.0128752105 -0.06953479 -0.032462724 -0.0007475114 -0.07350527 0.018312044 -0.08175896 -0.019049376
0.0550706 0.027517777 -0.05043047 -0.03182894 -0.06790318 0.030707194 0.017537305 0.037972942
0.003395404 0.021441963 0.052385665 0.00312069 -0.0064742947 -0.010779725 -0.03685117 -0.051301103
0.01572708 0.0016005663 -0.001662695 -0.018231463 -0.007481002 -0.061514232 -0.01867382 -0.06262452
0.018232666 -0.05946316 -0.08738669 -0.022353586 0.036916878 -0.011445631 0.00015216344 0.022694897
0.042028744 0.05283675 0.07218426 -0.0080116615 -0.081035994 -0.08668078 0.022222156 0.044535473
0.06619873 -0.021476477 0.009454881 -0.0650547 0.018544385 0.009115393 -0.101034895 -0.13042352
-0.0939629 -0.06728671 -0.14131084 -0.048563953 -0.06846011 -0.07856504 -0.11017793 -0.09740312
-0.13991989 0.051692996 0.07066233 0.06416759 -0.008992661 -0.07598028 -0.08396426 0.027182175
-0.046372205 0.055794317 -0.018115986 -0.016730757 0.0031019598 0.017297387 -0.02048001 -0.09951806
-0.06484525 0.013258042 -0.10776552 -0.06388254 -0.11174421 -0.07533359 -0.020034187 -0.06020964
0.03205772 -0.03454055 -0.09837808 -0.021622865 -0.12009945 -0.1006027 -0.03265528 -0.101301245
-0.04225482 -0.15876727 -0.03271519 -0.02464649 -0.024634147 -0.07446754 -0.016736805 0.01374695
0.024943398 0.02598574 0.010232057 -0.021831954 0.02712334 -0.0004020527 0.027920213 -0.0010115956
-0.070454165 -0.08423651 -0.016202616 -0.02848432 -0.13368881 -0.025837384 -0.08635756 -0.16045398
-0.002966964 0.082086444 0.11311706 0.08494188 -0.0064236782 0.009871523 -0.035219934 0.06352482
0.04880283 0.017004184 0.0072585796 0.0040129884 0.0055754315 -0.0020782133 0.023491427 0.07872185
0.039160762 0.06031461 0.09418405 -0.015235038 0.08548526 -0.0072406554 0.02432768 0.03447118
0.07422086 -0.019360173 -0.0073406682 0.05372301 -0.033494193 0.08308245 -0.017906718 0.07675152
0.040887587 0.09651307 0.08277499 -0.0012258637 0.0518774 0.029856471 -0.024318919 -0.055418722
-0.072037384 -0.007830995 -0.023129111 -0.05725634 -0.002005593 -0.07540874 -0.040941857 0.038380615
-0.030414749 -0.033237986 0.024249732 0.05180157 -0.030564433 0.062413577 -0.009156003 -0.040980145
-0.06283433 -0.059891626 -0.015559647 0.04236444 -0.03654677 0.029397765 0.005850031 -0.02128966
0.035713766 0.054332793 -0.08486223 -0.07405183 0.0038477753 0.026536755 -0.051116813 0.059890706
0.034088075 0.040915295 -0.04428284 0.045092743 0.021444999 -0.010188278 0.008219079 -0.005633392
00000000: 254e 233c 5e07 57bd 8f06 f2bc 7cbd 793d
00000010: fce3 3dbd 1dca 4ebd ceeb 453d c8f3 2a3d
00000020: 8676 163d 65a6 bc3c 016d 78bd d97d 7dbd
00000030: 7f11 87bc 769e 78bd 227b 0abd dfe8 be3c
00000040: 45a9 b83b ca0c a8bb 0a11 e3bc fb35 8abd
00000050: ca00 5b3d 94fe 86bc ea08 f03b 6242 6cbd
00000060: eec0 82bd 6f87 57bd e3fb 4bbd a49e a43c
00000070: 758d 7dbd 9532 41bd a2b0 00bd 76f1 bfbc
00000080: 88f7 df3a 54af b93b 2118 d93c 88aa 063d
00000090: 4624 31bd b0b1 edbc 879d 0a3d 5c30 193d
000000a0: 081a 8abd b4b9 703c a868 3ebc e41a 053d
000000b0: 310d 963c 806f aebd d90b 3bbd 8551 01bd
000000c0: 0a24 7a3c bb0a 1e3d aa59 0d3d f514 b5bd
000000d0: 3163 79bd 55ee 173c 8f99 3fbd da72 b8bd
000000e0: 8cf2 523c 4268 8ebd a2f7 04bd a4f4 43ba
000000f0: ee89 96bd 2403 963c 3e71 a7bd 700d 9cbc
00000100: b691 613d f66c e13c 2e90 4ebd 105f 02bd
00000110: d310 8bbd a78d fb3c 65aa 8f3c 8489 1b3d
00000120: 6d85 5e3b 0ea7 af3c 5a92 563d 7d84 4c3b
00000130: 5226 d4bb 729d 30bc 41f1 16bd 1b21 52bd
00000140: 14d6 803c 18ca d13a c9ee d9ba 265a 95bc
00000150: 3123 f5bb 59f6 7bbd d7f9 98bc 4941 80bd
00000160: ac5c 953c a48f 73bd cbf7 b2bd de1e b7bc
00000170: 2736 173d 7586 3bbc 108e 1f39 a6ea b93c
00000180: 5526 2c3d 596b 583d 57d5 933d 5843 03bc
00000190: 33f6 a5bd b185 b1bd 3d0b b63c d46a 363d
000001a0: 3393 873d 70ef afbc a5e8 1a3c 663b 85bd
000001b0: 65ea 973c bb58 153c 62eb cebd be8d 05be
000001c0: 9f6f c0bd 9dcd 89bd cab3 10be ffea 46bd
000001d0: d034 8cbd b5e6 a0bd f7a4 e1bd 497b c7bd
000001e0: 2947 0fbe 09bc 533d 69b7 903d 4c6a 833d
000001f0: f455 13bc 8d9b 9bbd 74f5 abbd 27ad de3c
00000200: c8f0 3dbd 9588 643d fa67 94bc f10e 89bc
00000210: 404a 4b3b 40b3 8d3c b2c5 a7bc 20d0 cbbd
00000220: 96cd 84bd 4238 593c 2bb4 dcbd d9d4 82bd
00000230: 26da e4bd 7f48 9abd bc1e a4bc 629e 76bd
00000240: f54e 033d 647a 0dbd 727a c9bd 6f22 b1bc
00000250: b3f6 f5bd ca08 cebd 8bc1 05bd 0777 cfbd
00000260: 6413 2dbd e393 22be 5d00 06bd 70e7 c9bc
00000270: 8dcd c9bc 7082 98bd a01b 89bc e33a 613c
00000280: 1956 cc3c 0ce0 d43c 5ca4 273c edd8 b2bc
00000290: c431 de3c 9aca d2b9 eeb8 e43c 8497 84ba
000002a0: 464a 90bd 3184 acbd 59bb 84bc f357 e9bc
000002b0: b8e5 08be eca8 d3bc 3bdc b0bd 0c4e 24be
000002c0: 6571 42bb f01c a83d eba9 e73d 02f6 ad3d
000002d0: b87d d2bb 2bbc 213c c742 10bd 4d19 823d
000002e0: 7ae5 473d 5c4c 8b3c 61d9 ed3b 637f 833b
000002f0: 1cb2 b63b a232 08bb 1871 c03c ec38 a13d
00000300: 0967 203d 740c 773d 91e3 c03d 619c 79bc
00000310: e512 af3d 0543 edbb d84a c73c a731 0d3d
00000320: 1b01 983d 3a99 9ebc fd89 f0bb a90c 5c3d
00000330: 3531 09bd 2227 aa3d 1cb1 92bc e72f 9d3d
00000340: be79 273d a5a8 c53d ef85 a93d 29ad a0ba
00000350: 667d 543d 8f95 f43c 7838 c7bc befe 62bd
00000360: 5688 93bd 934d 00bc 4379 bdbc a085 6abd
00000370: 4470 03bb e66f 9abd a6b2 27bd fe34 1d3d
00000380: 5a28 f9bc 8e24 08bd 60a7 c63c e22d 543d
00000390: 4362 fabc 61a5 7f3d 0f03 16bc ccda 27bd
000003a0: 49af 80bd ec50 75bd e4ed 7ebc 5686 2d3d
000003b0: 11b2 15bd 95d3 f03c 9eb1 bf3b a767 aebc
000003c0: 9948 123d 108c 5e3d 40cc adbd 7ca8 97bd
000003d0: f52a 7c3b 9c63 d93c dd5f 51bd f54f 753d
000003e0: f09f 0b3d cc96 273d ec61 35bd 2bb3 383d
000003f0: 6cad af3c bcec 26bc 51a9 063c 5198 b8bb

conv1_3_3.bias f4 [5]
0.05634771 0.025107857 0.015060522 -0.010158176 0.019870562
00000000: dbcc 663d feae cd3c 68c0 763c 7a6e 26bc
00000010: 97c7 a23c
