EEGDenoisenetTraining/checkpoints/deepseparator/checkpoint_epoch_90.pth (torch, 503337 bytes, 301 tensors)

conv1_1_1.weight f4 [5, 1, 3]
00000000: 1ba5 173f 3668 11bd e809 043f ac5c d4be
00000010: bfaf 0e3f a034 0dbe 2346 36be f17d 0c3f
00000020: 01b6 25bf aec4 5c3e 8d13 aa3e 1950 08bf
00000030: c424 0ebf e2c8 793e 9d18 8dbc
0.59236306 -0.035499774 0.51577616 -0.41476953 0.5573692 -0.13789606 -0.17800193 0.5487967
-0.6473084 0.21559402 0.3321804 -0.5324722 -0.5552485 0.24393037 -0.01722365

conv1_1_1.bias f4 [5]
00000000: e7de 59be 787b 193e 0bd7 dfbe 46ed 613e
00000010: e3e1 ad3e
-0.21276437 0.14988506 -0.43718752 0.22063169 0.339614

conv1_1_2.weight f4 [5, 1, 5]
00000000: 01de 8f3e 29ce f6bd 16c8 7fbc ec7d d7be
00000010: 3a06 43be eb97 db3e 4238 11bf 21de 58be
00000020: 3e38 dc3e 4971 383e 4869 b1be fc09 3fbe
00000030: 696e d6be e78e 0dbe 2bd7 0e3d 8754 36be
00000040: 310c b3be 5b38 973d 6352 bfbe e140 6abe
00000050: 32a1 dbbd e75b 75be c3c1 013e 7961 81be
00000060: 7f7a 023f
0.28099063 -0.12051041 -0.015611669 -0.42088258 -0.19045344 0.42889342 -0.5672647 -0.21178485
0.4301166 0.18011965 -0.34650636 -0.18656152 -0.4188111 -0.13824044 0.03487317 -0.17805682
-0.3497024 0.07383796 -0.37367544 -0.22876312 -0.10724105 -0.23960839 0.1267157 -0.25269678
0.50968164

conv1_1_2.bias f4 [5]
00000000: 6403 b73d f65a 843d 363c 70be 98f4 293e
00000010: f7ef a83e
0.089361936 0.06462662 -0.23460469 0.16597211 0.3299558

conv1_1_3.weight f4 [5, 1, 11]
00000000: ef40 5d3b 6e3a 973b b29b ddbd 4d72 4a3e
00000010: 20d4 8a3e 7ed8 01bc 0dd1 82be bd09 8a3e
00000020: d5e0 61be a861 7e3e 9bda a33e 822e 23be
00000030: bc8d b43c f443 8d3e 56e4 653e a47b 113d
00000040: fde7 593e fa45 8abd 7d4c 05be 06b2 5e3e
00000050: 5a8a cd3d 0bb8 59bd 2a18 d1bd 46a9 a43e
00000060: fa46 083c 0be9 d03d c302 933e 8208 213e
00000070: 2883 ae3d d9bf 8bbd aea5 a53e 2e6a 92be
00000080: 40a7 f53b 1b4d 193e 26a5 923e 499f af3e
00000090: ca15 45be b440 e93d 8e59 893e 6848 d13d
000000a0: e124 b13d 458f bfbe e6f6 bb3e 9fa3 4a3e
000000b0: 800f a0bb 6f24 4b3e b7be 71be 73bb 873e
000000c0: ea1d a83e d957 9d3d 6687 813e a659 883e
000000d0: 02fa 8c3e 075f 9d3e 4306 afbd
0.0033760627 0.0046151197 -0.10820712 0.19770165 0.27114964 -0.007925151 -0.25550118 0.26960555
-0.22058423 0.2484194 0.3200272 -0.1593571 0.02204024 0.27590907 0.22450384 0.035518304
0.21279903 -0.06751628 -0.13017459 0.21747598 0.10036154 -0.053154033 -0.10209687 0.32160395
0.008317703 0.102006994 0.28713045 0.15725902 0.0852111 -0.068237014 0.32352966 -0.28596634
0.0074967444 0.1497082 0.28641623 0.34301212 -0.19246593 0.11389294 0.26826137 0.102188885
0.08649612 -0.37413993 0.36711806 0.19788979 -0.0048846602 0.19838117 -0.23607908 0.265102
0.32835323 0.07682771 0.25298613 0.26630896 0.2753449 0.30736563 -0.08546116

conv1_1_3.bias f4 [5]
00000000: b7a5 523e 86c1 873d f4e2 673e b5dd e3bd
00000010: c68a b7bd
0.20571028 0.066287085 0.2264517 -0.11126272 -0.08962016

conv1_1_4.weight f4 [5, 1, 15]
00000000: 6daf 71be 5ace f8bc 121f cbbd 6345 91be
00000010: 2010 103e f92d 82be 2d2b 203d a39c 67be
00000020: 1592 263e 94b9 58bd e13e 56bd dce8 d43c
00000030: 7ef1 023e 3ef4 21be 968e 6fbe 9723 1e3d
00000040: 4db9 583e 897d 923d cdb5 05be 5698 88bd
00000050: b840 2bbd 61d2 2f3e 9c51 113e 2aa0 6abd
00000060: 6d3a fbbd fbb3 793e 3611 883e 769f 5abd
00000070: 3b94 803e 8434 083e 2677 6bbd 5c01 0dbd
00000080: c6fd 463e f9a7 5bbe 5977 8ebd 6e08 333d
00000090: d6ca 293e f6ef 2a3e c221 ce3d 3073 0d3d
000000a0: 4474 993d 09ac 353c 4688 84be 1867 cbbd
000000b0: 6120 39be 9adf 383e 457f 89be 0672 ee3d
000000c0: c997 16be 0ba2 403d 565a 1dbd f7d4 4a3e
000000d0: acb4 0f3e 20a0 e2be b809 32be e25b 7d3e
000000e0: aace 043e 9a7b 5dbb b648 60be 6fc1 223e
000000f0: b9cd 503e 821f 84be 46ae 9b3e 4f6c c7bd
00000100: 1543 dabd b6a4 553e 47b0 6abe e6da 6fbe
00000110: 3993 71be 3508 413e d310 b03d 215c 453e
00000120: d0eb 84bd db0e 1eba 8757 5e3d
-0.23602076 -0.030371834 -0.099180356 -0.2837325 0.14068651 -0.254257 0.039103676 -0.22618346
0.16266663 -0.052911356 -0.05230606 0.025989942 0.12787434 -0.15815827 -0.23394236 0.03860816
0.21164437 0.0715285 -0.13057633 -0.06669681 -0.041809767 0.17170097 0.14191288 -0.05728165
-0.12267003 0.24385063 0.2657563 -0.05337473 0.2511309 0.13301283 -0.057486676 -0.034425125
0.19432744 -0.21450795 -0.069563575 0.04370921 0.16581282 0.166931 0.100650325 0.03453368
0.07492879 0.01108838 -0.25885218 -0.09931773 -0.18078758 0.18054047 -0.2685491 0.11642842
-0.14706339 0.047029536 -0.03841623 0.19807802 0.14033765 -0.4426279 -0.1738652 0.24742082
0.12969461 -0.0033795596 -0.21902737 0.15894102 0.20390977 -0.2580529 0.30406398 -0.09737455
-0.10657326 0.20863613 -0.22918807 -0.23423347 -0.23591317 0.18850787 0.08596959 0.19273426
-0.0649029 -0.00060294353 0.05428269

conv1_1_4.bias f4 [5]
00000000: 4284 9cbe 40b8 72be a69e 5e3e 16dd 703e
00000010: b49d 0d3e
-0.30569655 -0.23703098 0.21740207 0.23521838 0.1382969

conv1_2_1.weight f4 [5, 20, 3]
00000000: 81d7 84be 5b81 17be 6b0c 2fbe 97ca 6ebe
00000010: 4bb3 0fbe 57b2 583d 8167 6fbe 44f3 693d
00000020: ebca 2e3c d1ea 13bd a6fd 6dbc 6fac dcbc
00000030: 2bd4 56bc 8c4b b63d ee75 c1bd a315 4f3d
00000040: 734c f4bc 3195 1ebe 8b89 8b3c ca79 553d
00000050: 462f 5f3c 88f1 c2bd 2db8 c73c 732a 873c
00000060: 5c65 6f3d 1ecf 77bd 1e26 3e3d 3c39 cbbd
00000070: fbb8 14be e2cd 91bc ae9a c6bd 4fab bd3d
00000080: f504 9f3c 0602 aa3d d810 a1bc 6248 83be
00000090: ae78 1dbd 98a3 bdbd e63f c7bd 8945 79bd
000000a0: 2283 27bd 7f3c b23d 959f a13d 6472 bbbd
000000b0: d03e 7d3d cc4b 13bc 6b6f c03c b4cc 43be
000000c0: 5d6c d8bd 88da 383e 44e3 b03c 43d3 49bd
000000d0: 340b 47be d598 2f3d 03e0 d23d 8b20 dc3d
000000e0: 75ed c3bb a767 ae3e f289 403e 3c88 713e
000000f0: 446a 2abd 02ad fa3d c697 133d 1ef5 9c3d
00000100: 4d56 c03d 6470 0e3d cf12 8bbb a23a c1bd
00000110: 7c5f 283d 6ed7 9ebb ba28 263e 2937 b83d
00000120: b081 2bbe ef3a ba3c 8a9a 10be 00bf c3bd
00000130: 50e5 01be daad e5bc f609 233e 72c0 c13d
00000140: 5a73 993c df8b 79bd 4c14 2dbe 2a1c 01be
00000150: 038e 31be 996f 32bd 65c1 cb3d 82d6 a8bc
00000160: f4a2 16be 7d32 5fbe a652 013d c3e8 503d
00000170: 0aae 8cbc dc8a 6a3d d027 073e 9887 c93d
00000180: 0c65 853d 5574 553d 6666 21bd d46b 7f3b
00000190: 645e 393e 9d49 aabc eb5d 8e3d d5b4 803d
000001a0: e61e 683d c263 403d 9804 a9bd ab0c 0ebd
000001b0: 53bc be3d f070 cb3d 4a11 583d 2ad2 b33c
000001c0: 4ec3 65bb 5d70 1bbe af00 1d3d 7ed8 adbc
000001d0: d8ad 04bd a324 d03d 5daa e1ba 263a 0e3e
000001e0: 168b ec3a 6996 bfbc 32b3 bfbc 9ae6 3cbe
000001f0: 9bf7 7dbe cdee c6bd e97e 45be 6d78 183e
00000200: 267c 1ebf 70a4 fabd 232e 403d 56a8 243e
00000210: 8c67 10bd e333 51be 4ee2 533d e975 f3bb
00000220: 55e3 22be ede8 3abd 5287 a1bd 1a79 44be
00000230: 7ebc 94bd a411 28be da5d d2bd a977 853b
00000240: 1f37 ddbd 01da 0cbe 094f 7d3b 9624 973d
00000250: 5673 29be 4959 eabd ba01 58bd fdde 563c
00000260: 7549 923d 8357 593d 16f6 9c3d 068b 8b3d
00000270: 3378 0c3e 0b96 123e d1f6 133c 2515 383e
00000280: d9c9 aabd d273 e4bd 978f b23d c92d 013e
00000290: 7f8f 79bd 5368 4fbd cab8 70bd 01ce 89bd
000002a0: f294 6b3c 484b 733d 5cc2 e43b 8b1b a8bc
000002b0: 1ed5 b0bd 1cf6 66bd b74e 973d f617 10be
000002c0: 78bd a9bd a59f 99bd 8fc8 1bbe d284 0f3e
000002d0: 76eb 3e3e fdc3 d1bd e734 95bd afc6 2f3d
000002e0: a166 173e 43ad 12bd eaa0 20bc 0d3b 0fbe
000002f0: 9017 b7bd 0487 3ebe 4168 123d c290 83bc
00000300: f3da 9fbd 6962 08be c696 0fbe c754 64be
00000310: 2b0a 85bd c20d 65be eaf7 30be 0914 613e
00000320: 9df0 823d 5b85 afbd 544a 193d 22c7 8b3c
00000330: 5889 16bc 2beb 07be d759 89bd 631b 083e
00000340: a5c9 be3d 177c 5e3d 3259 943d 6c7b 62bd
00000350: 9a46 00be e0c7 02bc b117 303c 6acd 40bd
00000360: e584 21bd 4e11 aebc b8ce 483d a8e4 223e
00000370: ead2 c73d 8d94 173e 2445 4a3e 3c98 833d
00000380: ffee a23d d635 79bd 7a73 d8bd 9a1c f5bd
00000390: 0cbe 1a3e de5c 053e 59fa 8c3e 0910 4c3d
000003a0: 17eb c0bd 875d f4bd 80f3 4fbd befe bfbd
000003b0: 2bd8 023e 6781 1a3d 1f99 b03d 059f a6bd
000003c0: 8334 8cbc 4e15 103d 3c1c 253e 49c7 023c
000003d0: 4326 17be aff4 11be e221 02be fb44 0dbd
000003e0: 38fb c03c 49ac 9b3b a509 743d ab0e 4f3d
000003f0: 5dbe 4ebe 7372 35be 4839 66bd 7bd4 643d
-0.25945666 -0.14795439 -0.17094581 -0.2331947 -0.14033239 0.052904453 -0.23379327 0.05711676
0.010668497 -0.03611261 -0.0145258065 -0.026937691 -0.013112108 0.08901128 -0.094463214 0.050557744
-0.02982161 -0.154866 0.017033359 0.0521181 0.013622111 -0.09518725 0.024379814 0.016499734
0.058446273 -0.060500257 0.04642307 -0.09923026 -0.1452369 -0.017798368 -0.096974716 0.0926119
0.019411543 0.08301167 -0.019661352 -0.2564116 -0.038445167 -0.09259719 -0.097289845 -0.06085733
-0.040896542 0.08702945 0.07891766 -0.09152678 0.06182748 -0.008990239 0.023490628 -0.19121057
-0.10567544 0.18052113 0.021592744 -0.04927374 -0.19437867 0.04287036 0.10296633 0.107483946
-0.005979235 0.34063455 0.18802622 0.23587126 -0.04160525 0.1224003 0.036033414 0.0766394
0.093914606 0.034775153 -0.0042441855 -0.094350114 0.041106686 -0.0048474586 0.16226473 0.08994896
-0.1674869 0.02273318 -0.14121452 -0.09557915 -0.12685132 -0.028037 0.15921769 0.09460534
0.018731762 -0.060924407 -0.16902274 -0.126084 -0.1733933 -0.04356346 0.099489965 -0.020610098
-0.14710599 -0.21796604 0.03157296 0.05100323 -0.017172832 0.057261333 0.13198781 0.098403156
0.06513414 0.052112896 -0.039404295 0.0038974183 0.18102413 -0.020787055 0.06951507 0.06284491
0.056670092 0.046970136 -0.08252829 -0.03468005 0.09313264 0.099336505 0.052750863 0.0219508
-0.0035059038 -0.15179582 0.03833073 -0.021221396 -0.032392353 0.10163238 -0.001721691 0.1388937
0.0018046822 -0.02338715 -0.023400877 -0.18447343 -0.24801485 -0.097135164 -0.19286694 0.14889689
-0.61908185 -0.12238395 0.046919 0.1607984 -0.035255 -0.2042995 0.051729493 -0.0074298275
-0.15907033 -0.04563229 -0.078871384 -0.19186822 -0.072625145 -0.1641298 -0.10271807 0.0040731025
-0.10801529 -0.13755037 0.0038651845 0.07380025 -0.16547903 -0.11442811 -0.05273602 0.013114688
0.07142917 0.053061973 0.07664125 0.06813626 0.13717727 0.1431505 0.009031014 0.17976816
-0.08339281 -0.111549035 0.08718794 0.12615122 -0.060927864 -0.0506366 -0.05876998 -0.06728745
0.014378773 0.059397966 0.0069811773 -0.020520946 -0.08634399 -0.056387052 0.073880605 -0.1407164
-0.082880914 -0.07501153 -0.15213226 0.1401551 0.18644509 -0.1024246 -0.07285481 0.04291409
0.14785244 -0.035809767 -0.00980399 -0.1398737 -0.08940041 -0.18606192 0.035743956 -0.016060237
-0.07805433 -0.1331879 -0.14022359 -0.22297965 -0.0649608 -0.2236853 -0.17282072 0.21980299
0.063935496 -0.085703574 0.0374244 0.017062727 -0.009188019 -0.13273303 -0.06706589 0.13291697
0.093158044 0.05431756 0.07243575 -0.055293486 -0.12526932 -0.007982224 0.010747836 -0.047070898
-0.03943338 -0.021248486 0.049025267 0.15907538 0.097570255 0.14802761 0.19752938 0.06425521
0.07955741 -0.060842358 -0.105689004 -0.11968346 0.1511156 0.13023707 0.2753475 0.04981998
-0.0941984 -0.119319014 -0.05076933 -0.0937476 0.12777774 0.037721064 0.086229555 -0.08135799
-0.017114883 0.035176568 0.16124052 0.007982084 -0.1476069 -0.14253496 -0.12708238 -0.034489613
0.02355729 0.0047507626 0.05957951 0.050551098 -0.20189805 -0.1771944 -0.05620697 0.0558667

conv1_2_1.bias f4 [5]
00000000: 0287 c6bd f717 8f3d 64cc b23d b59b d03c
00000010: 7e86 0d3d
-0.096937194 0.06986993 0.08730391 0.025464872 0.03455209

conv1_2_2.weight f4 [5, 20, 5]
00000000: 661a eebc bb75 013d 0872 57bb f202 07bd
00000010: 7101 de3d e811 98bd 6dfd f2bd 708d f9bc
00000020: d0a3 913d df57 d8bd 7b2e c13b 7b31 1bbc
00000030: 6f1e fa3c f107 683c 2a5d 713d 392a cbbb
00000040: ddda 0fbe ef6d fcbd c81a bb3d 6804 d23c
00000050: 5898 953d d31e 81bd c696 23bd c569 15bd
00000060: 6914 d5bd 5c3b 863c b3a4 f7bc e580 febd
00000070: 4a01 a13d cfa5 813d 148f 9f3d 8f26 1cbd
00000080: a3a4 58bc 412a b8bd dfec 93bd c955 8e3d
00000090: e3db 84bb 09a0 62bd 2056 183c 2593 db3c
000000a0: af0a 7ebc 7a27 64bd d373 2e3d f9e8 bebd
000000b0: 10c5 353d ea7f 913c 0d6b 043c 6de0 87bb
000000c0: 91a5 b2bd c298 40bc 4d93 2b3d e6dd c9bb
000000d0: d15e cbbd c2d8 58bd c1a7 9cbc 9b78 f2bb
000000e0: 4c77 ce3d 8d93 e23d 4fdd 23bd ee99 963d
000000f0: 1722 e53d f0b0 b63d 7dfe 2e3d faa7 69bd
00000100: e7e5 b53d 3a4c ca3d 10c2 c8bc 073e 8fbd
00000110: d618 cd3d 4ca1 b8bc b0d0 8b3c ea09 0a3b
00000120: d17c 033e de74 19bd 89d4 d33c ff91 b2bd
00000130: 459c 963d 8e4f b03d dff8 26bd 2d67 b2bd
00000140: c27d 443d a353 053d 5af7 cb3c f3fe 90bc
00000150: cade 0c3d 156f aebd e72c 2cbd 5cd1 453d
00000160: 1437 f2bb 02d9 10bd 6ccb acbd a1e2 dc3c
00000170: 7569 0fbe 54eb a53c 36eb 953d 1574 dbbd
00000180: ff36 09be 6d95 9cbc cc11 cdbd 66f7 8ebd
00000190: cae8 0c3e 83fb 24be 4a6e d13d 0eb1 2ebe
000001a0: 074e 41bd e435 dfbd 5566 993d c059 f83d
000001b0: e698 29be e78e 14be 8e66 033f 7271 a63d
000001c0: 68bd 81be 9fa8 f0be 998f 9d3e bf45 e2bd
000001d0: fc81 f7bc 1c42 c1ba c548 c63d 8091 80bd
000001e0: 6de0 85bd d966 7e3d c742 00bd c1db 15bd
000001f0: 7860 9bbd 87c3 85bb 23bd be3d 3f37 483c
00000200: 504e 59bd 8280 19be 5789 f9bd 2d96 eabb
00000210: 8e8f 1b3e fdb5 513e ac70 abbd a8ca 0bbe
00000220: 6328 2c3d 2643 1d3d a38d e03c b68a fdbd
00000230: 94d2 98bd 5ff7 01be 7441 95bd a6dd f8bd
00000240: f0f5 c7bb 032b 01be 1bd8 a33d 1004 043c
00000250: 7113 b4bc 3bfc 913d b4ba eabd f4c6 883d
00000260: 5de3 a5bc 1ac0 e4bd cab2 6bbb 93d0 333e
00000270: 9e25 1d3e d293 2abd c69c 973c 28d4 b03d
00000280: 9ab5 593d 4373 d43d b2aa bd3c f904 4c3c
00000290: 635a ba3d e242 293e 9b65 09be 07c6 c43a
000002a0: 9d1d 2f3e 1d1e 153e 41b4 cb3d cf97 a53c
000002b0: 8bd1 e73d 0d0e a5bd ce1f e6bd f815 c03d
000002c0: 8eab 6fbd fedb d03d dd75 b13d e832 1e3d
000002d0: f568 6d3e 9572 2b3e 655e 37be 83b4 00be
000002e0: c81c 1e3e a37a 3d3c be79 d1bd 1b43 763d
000002f0: ba23 b0bd 44b5 963d df7c 163e 3aaa 09bd
00000300: 1372 023e fbb3 0e3d 537e f03d 44ac 51be
00000310: 2841 f03c fa9e a63b 0919 2c3e 8ad7 01be
00000320: 6feb c13c b3c6 e1bd 7f7b f1bd 0727 d23d
00000330: 0406 e8bc 4aba 19be 7682 09be 63f5 e7bc
00000340: ac2c 1dbe 1670 473e 310b 1ebe acf2 d23d
00000350: 59d4 5e3e 7c52 cf3d 64ee 1c3e 2d23 41bb
00000360: cd7d aa3c 7b57 8dbc 068d 72bd 2768 503c
00000370: 7f94 e43c 744a 8bbd 42d5 8f3d e9f0 0e3d
00000380: 23d9 b43d eb31 8ebd a9c1 9b3d 6fe9 b1bd
00000390: 47f6 c3bc 1077 3dbe 0784 80bc 8933 053e
000003a0: bdb9 133d 12cb 913d fd93 093e b83a a3bc
000003b0: db78 203c 111c 893d b8dd cabd 3ef1 6e3c
000003c0: 5bec 753d 579e 40bc c1c3 1bbd 8106 04ba
000003d0: 2b95 aebd ec94 343b 9c3f 06bd 861a e43d
000003e0: 49f3 ce3d aca8 413e 7c67 743d e406 0ebd
000003f0: 0a2a 50bd e54d 353c e627 8ebc 05a0 553d
-0.029065322 0.031606417 -0.0032874364 -0.032961793 0.10840119 -0.0742529 -0.118647434 -0.03046295
0.07111323 -0.10563635 0.0058954335 -0.009472246 0.03053209 0.01416205 0.05892674 -0.0062001017
-0.14048333 -0.12325656 0.091359675 0.025636867 0.07304448 -0.063047074 -0.03993871 -0.036477823
-0.104042836 0.016385727 -0.030229902 -0.124269284 0.07861574 0.063304536 0.07790962 -0.03812271
-0.013222846 -0.08992434 -0.07222914 0.06949956 -0.004054533 -0.055328403 0.009297878 0.026803562
-0.015505477 -0.05570171 0.042590927 -0.0932178 0.044377387 0.01776119 0.0080821635 -0.0041466267
-0.087229855 -0.01175517 0.041888524 -0.0061604856 -0.09930194 -0.05294109 -0.01912296 -0.007399631
0.10081348 0.11063299 -0.04000598 0.073535785 0.11188143 0.08920467 0.042723168 -0.05704496
0.08881741 0.0987782 -0.024506599 -0.06994253 0.10014503 -0.02253785 0.017067283 0.0021063038
0.12840582 -0.03746497 0.02585818 -0.08719253 0.07354025 0.08608924 -0.040764686 -0.087110855
0.047971494 0.032550465 0.02489822 -0.017699694 0.034392156 -0.08517281 -0.04203501 0.048295364
-0.0073918197 -0.035363205 -0.08437237 0.026963534 -0.14005072 0.020253815 0.073202536 -0.107155
-0.13399886 -0.01911422 -0.1001316 -0.06980781 0.13760677 -0.16111569 0.10226114 -0.17059729
-0.047193553 -0.10898951 0.074902214 0.121264935 -0.16562232 -0.14507638 0.5132836 0.08127107
-0.25339818 -0.47003648 0.3077362 -0.11048459 -0.030213349 -0.0014744434 0.096818484 -0.06277752
-0.065369464 0.062109802 -0.031313684 -0.036586527 -0.07586759 -0.0040821466 0.09313419 0.012220203
-0.0530532 -0.14990428 -0.121843986 -0.0071590156 0.1519148 0.2047958 -0.083711 -0.13651526
0.042030703 0.038394116 0.027411288 -0.12379973 -0.074620396 -0.12692021 -0.07287875 -0.12151651
-0.006102316 -0.12614064 0.08000203 0.008057609 -0.021981927 0.07128187 -0.11461392 0.06678572
-0.020250017 -0.11169453 -0.003596472 0.17560034 0.15346381 -0.04164488 0.018507373 0.086342156
0.053151704 0.10373547 0.023152683 0.012452357 0.09099271 0.1652942 -0.13417666 0.001501263
0.1710114 0.14562269 0.0994649 0.02021399 0.11319264 -0.080593206 -0.11236535 0.0937919
-0.058513217 0.1019821 0.08665059 0.038622767 0.23184569 0.16742928 -0.17907102 -0.1256886
0.15440667 0.011564883 -0.102282986 0.06012259 -0.08600564 0.073587924 0.14696072 -0.033609606
0.12738828 0.03483961 0.117428444 -0.2047587 0.029327944 0.0050848695 0.16806425 -0.12679878
0.023671834 -0.11024227 -0.11791133 0.1026135 -0.028323181 -0.1501247 -0.13428673 -0.028315252
-0.15349072 0.19476351 -0.15433957 0.10300192 0.21760692 0.101231545 0.15325314 -0.002947043
0.02081194 -0.017253628 -0.05921652 0.012720144 0.02790284 -0.0680131 0.070230976 0.03489772
0.08830478 -0.06943115 0.07605297 -0.08687102 -0.023921145 -0.1850245 -0.015687956 0.1300794
0.036065806 0.07118811 0.1343536 -0.01992546 0.009794439 0.06694806 -0.09905571 0.014583884
0.06003986 -0.011756501 -0.038028482 -0.00050363695 -0.08524545 0.0027554585 -0.032775506 0.111378714
0.10104997 0.18912 0.059669003 -0.03467454 -0.05082134 0.011065935 -0.01735301 0.05215456

conv1_2_2.bias f4 [5]
00000000: 67b9 aa3d b516 a23d 8aff 9f3d 55e9 55bd
00000010: e811 4f3c
0.08336144 0.07914487 0.07812412 -0.052224476 0.0126385465

conv1_2_3.weight f4 [5, 20, 11]
00000000: 31e0 24bc 2467 e5bd b841 36be 22e9 c4bd
00000010: b1da f7bd 2a0f fdbd 8b29 423d 8a32 473d
00000020: b49a c53d a64b 063e 11b3 2d3e 06b5 cabd
00000030: c4a4 37bd 9f6d 6abd 7d47 1bbe 1a26 3bbe
00000040: 9875 d0bd 338f 2dbd 7b06 953d 2e90 32bc
00000050: d6e6 bfbd c700 28bd 06de 11bd 821f f2bc
00000060: e5bb a5bd 6d46 64be 61da d43b 8c72 9c3e
00000070: 3ede 823e cc87 b33c 0be9 98bc a8b4 56bd
00000080: e567 acbe 05ef babd 80f1 8d3c 7ea2 ef3d
00000090: dd01 3c3d c400 82bd aab1 05be 4aa2 18be
000000a0: e524 29be ce0b 493c 862e b1bc 09aa 6ebc
000000b0: 01f4 13bd 9930 71bd 46cf a73b f945 493c
000000c0: 9e91 a13c daac f3bc 13e4 04bd 2a31 6abd
000000d0: e063 903a 52ef 43bd c3e7 c4bd 7e70 babd
000000e0: 9987 02be 4c33 22bd ea91 5e3d 856b 6ebd
000000f0: 2ff9 4abd 6d50 64be 7854 22be 6e9c ffbc
00000100: 0328 c5bc ebf3 b7bd 1463 a2be e854 66be
00000110: 29e6 4bbe 700f 9abe ba93 4cbe e9e7 07be
00000120: 70eb debd 4ebd aebd ce39 9fbd a1be b6bd
00000130: 6c78 aebc 8a8b 4bbd 63a5 a439 9480 86bd
00000140: 4764 5ebd 4661 213d 4899 b4bc 057a 89bd
00000150: 673f e8bd 2bd4 01be b5aa 9abd f3e9 8abd
00000160: 93e5 dc3c df24 06bd 2505 4f3b 1f07 373d
00000170: e4b3 8c3d 0578 353d c565 a6bd 3a0b bbbd
00000180: 3fef 8ebd 6788 be3c f403 72bc eb23 593d
00000190: 3bfa 323c e773 02bd 788e 7dbd 3ee5 e13c
000001a0: e707 313e bf4b 853d f3ee e43c 43b9 c83d
000001b0: 2c61 32bd 5ce7 b2bd a66a 45be 9e9e 67bd
000001c0: a318 edbd 9c34 d7bc e7e3 62bd 0713 d73c
000001d0: b31c 84bd 81a9 1fbc f27c 66bc 804c 64bc
000001e0: 1c4b 67bd 2942 c4bd 4e07 41be bd33 32be
000001f0: 4836 2ebe f8e4 fbbd f6b6 42bd 30df 80bd
00000200: 1525 bd3c 4226 933d ff49 a73c 8ece ac3d
00000210: ffdc 7dbd c928 bdbc 8a1d 22be 9cbb dbbd
00000220: 3e2b 8dbd 960d fabd 0a8d c6bd 8dc6 b8bd
00000230: 57fc 40bc 3b50 123d a2a1 de3c 649b 56bd
00000240: 88a3 c7bc 5445 15bd e49b f3bd bae7 3fbd
00000250: 8f25 c2bd 371e 0d3d 6ea3 c83a 7c05 d33d
00000260: 0244 9d3d 123f bd3d ed28 49bd 6849 1bbd
00000270: e3fd 29bd 05ad 76bb 5967 3cbd 6390 5fbc
00000280: 7dd1 133d 6b49 ec3d 7ed7 043e fb74 1b3e
00000290: 9601 863d 0cd5 82be 70ca 23be dff2 b9bd
000002a0: 35b5 683c 42ce e53b a1e1 8c3d 0bae 6f3d
000002b0: 0e21 703c 4437 edbc 682f 92bc f233 48bd
000002c0: 73de 0fbe 0af9 f3bc 351c 5fbd 8d0c 89bd
000002d0: c1be 103c 7c7c e33d 6ce0 143e e1a3 443e
000002e0: b392 313e 6e28 fc3d 37ad ff3d fa0e b0bd
000002f0: 8d06 9bbc f1ad ffbc ec96 d6bd 1972 5b3c
00000300: ded7 eabc 08a6 2c3c 1088 21bd 665b 943d
00000310: 9d03 39bd 7947 92bd 2094 9dbd 8628 abbd
00000320: 33e2 c7bd cc26 953c 491a 443b 6aa6 cebd
00000330: bcad f7bd 9874 94bd 9e5d a1bd 679c e7bd
00000340: e239 f8bd cc9d 8e3d 5409 32bd 392e 43bd
00000350: a443 bc3d 5e4d 473d 702d 743d d398 0ebd
00000360: c58d 74bd bacf 1abe 07c7 42be 4506 37be
00000370: 89dc 3dbd 2202 32bd 0105 9ebd 61ea eb3d
00000380: 3e9b e53d aa1b 4c3d 7a5b ca3d ed6a 31be
00000390: 4ec4 3cbd 5467 b6bd 9531 223c d38a aabd
000003a0: 1684 eabc 96b5 3a3e c617 87be ae81 48bc
000003b0: 3f05 51bd 7c6f 18be 05f2 503e 685a bbbd
000003c0: 1fb3 bebd 2e5f 94be ec06 1bbd 9aa4 ccbc
000003d0: 526b 6ebe 047e b7be 126e 7a3e bcdf ca3e
000003e0: a087 37bd c7ba 82be 97b2 91be bc42 6cbd
000003f0: 0683 e5be 09d9 183d 1b1c 4dbd dc9a ae3d
-0.010063217 -0.11201313 -0.17798507 -0.09614779 -0.12102259 -0.12356408 0.0474029 0.048632182
0.09648648 0.13114795 0.1696284 -0.09897809 -0.044834867 -0.05723345 -0.1516399 -0.18276253
-0.10178679 -0.042372894 0.07276627 -0.010898633 -0.093702 -0.041016366 -0.03561213 -0.02955604
-0.08092479 -0.2229249 0.0064957594 0.30556142 0.25560182 0.021915339 -0.018665811 -0.05241838
-0.33673015 -0.091276206 0.01732707 0.11700915 0.045900214 -0.06347802 -0.13056055 -0.14905658
-0.1651798 0.012270881 -0.02162863 -0.014566907 -0.036121372 -0.058884237 0.0051211445 0.012284749
0.019722756 -0.029745508 -0.03244407 -0.057175793 0.0011016093 -0.047835656 -0.096145175 -0.091034874
-0.12747039 -0.0395997 0.054338373 -0.058208007 -0.049554046 -0.22296305 -0.15852535 -0.031202521
-0.02406693 -0.089820705 -0.31716216 -0.22493327 -0.19912018 -0.30089903 -0.19978228 -0.1327206
-0.1088475 -0.08532201 -0.07774697 -0.08923078 -0.021297656 -0.04969362 0.0003140374 -0.06567493
-0.05429485 0.039399408 -0.022045746 -0.067127265 -0.11340218 -0.12678592 -0.07552091 -0.067829035
0.026964938 -0.032750007 0.003158876 0.044684526 0.06870249 0.044303913 -0.0812488 -0.09133001
-0.06979226 0.023258401 -0.01477145 0.05301277 0.010923917 -0.031848814 -0.061903447 0.027575132
0.17288171 0.06508588 0.027945971 0.09800961 -0.0435497 -0.087355345 -0.19278964 -0.056547754
-0.11576965 -0.026270203 -0.055393126 0.02625419 -0.064507864 -0.009745003 -0.014067875 -0.013934255
-0.056468114 -0.095829315 -0.18850443 -0.17402549 -0.17012894 -0.12299532 -0.047537766 -0.0629257
0.023088971 0.071850315 0.020421026 0.08437835 -0.061978336 -0.023090737 -0.15831581 -0.10729143
-0.068930134 -0.122096226 -0.0969487 -0.090222456 -0.0117789125 0.035721045 0.027176682 -0.052394286
-0.02436997 -0.03644307 -0.11894968 -0.04685185 -0.0947982 0.034452643 0.0015307495 0.103037804
0.07678987 0.09240545 -0.049111295 -0.037911803 -0.04150189 -0.0037639749 -0.045996998 -0.013645264
0.036088455 0.11537441 0.12972829 0.15181343 0.06543271 -0.25553167 -0.15995193 -0.09079527
0.014203359 0.0070131132 0.06878973 0.05851559 0.014656318 -0.028957017 -0.01784487 -0.048877664
-0.14049701 -0.029781837 -0.05447026 -0.06691847 0.008834542 0.11107728 0.14538735 0.1920314
0.17341118 0.12312399 0.1248421 -0.085966066 -0.018924022 -0.031210871 -0.10478005 0.013393902
-0.028667387 0.010537632 -0.0394364 0.07243995 -0.04516946 -0.071425386 -0.07694268 -0.083573386
-0.09759941 0.018206976 0.0029922894 -0.10090335 -0.12093684 -0.07248801 -0.07879184 -0.11309128
-0.12120415 0.06963691 -0.043465927 -0.047651503 0.09192589 0.048657767 0.059613645 -0.034813713
-0.059705514 -0.15118304 -0.19021235 -0.17873485 -0.046352897 -0.043459065 -0.07715798 0.115193136
0.11211251 0.04983107 0.09880729 -0.17325945 -0.04608565 -0.08906427 0.009899517 -0.0832726
-0.028627437 0.18233332 -0.26385325 -0.012237949 -0.051030394 -0.14886278 0.20404823 -0.09148103
-0.093115084 -0.28978866 -0.037848398 -0.024980832 -0.23283127 -0.3583833 0.24456051 0.3962382
-0.044807076 -0.25533125 -0.28456566 -0.05768083 -0.44826525 0.037316356 -0.05007563 0.08525631

conv1_2_3.bias f4 [5]
00000000: cb30 c8ba 169f 3a3d cd16 733d 0305 a73d
00000010: 8ef7 3a3d
-0.001527333 0.045561872 0.059347916 0.08155253 0.045646243

conv1_2_4.weight f4 [5, 20, 15]
00000000: fce0 d8bc 1093 013d 7576 bc3c af7f 0dbd
00000010: 190a 6fbd e7db a1bc 9e39 623d 4d92 d3bc
00000020: 2112 32bc 6892 993c c210 78bc 544a 293d
00000030: 3c29 5c3d ec9a d43c e28c 1cbd c911 65bd
00000040: 8226 a4bd a34f 413d e6a4 bcbc 905b cdbc
00000050: 68d9 1d3d db88 9ebd c429 d639 9218 7f3d
00000060: 32c6 b43c abe8 e53c 6674 88bd 5e44 c0bd
00000070: 93bb 87bd 0cf1 22be ea35 f03e a833 343e
00000080: ec02 a23e cc79 8f3e 82da 943e 0758 b83e
00000090: 71b9 ae3e 8751 933e 1934 8a3e 38fa 3e3e
000000a0: 1406 a43e 5d47 3a3e 7c80 423d b3dd a83e
000000b0: c854 8d3e 7ec6 9c3c 7fed 033d 7599 afbc
000000c0: 07a1 bb3c 581e d13c 0848 4d3d 701e 673b
000000d0: aeb5 81ba 8de9 bebd 2554 073b aafd 6a3d
000000e0: b6ee 843d cb23 21bc 2f74 bb3d 77e3 033c
000000f0: 2804 76bb b9e7 34bd 2692 1bbb ce19 413d
00000100: 3317 183d e1db cebc cb76 17bd cca2 d93a
00000110: 168c 2e3d dbf3 8c3d 17b4 7e3d c6d0 323d
00000120: 85f6 1e3e becd 193e d71d b13d d284 21bd
00000130: 9fce b3bc 02db 44bc e7f3 c73c 772f 193e
00000140: fa51 1b3e cbfe 6a3e d0b3 193e 7dd9 433d
00000150: cae2 013c ae8b de3d cc76 83bd 9867 5dbd
00000160: 508d 033d 8061 0c3e 1fe5 21ba 9b38 ca3c
00000170: 6e0f 1d3d 6294 6ebc 1a1d 9f3c 843c 02bd
00000180: 8ddf bfbd 75bf 743d 4cc1 653d 6d92 37bd
00000190: b198 1dbe e884 b4bd f4cf a4bd 82f0 7cbe
000001a0: a81b 91be 694f fa3d ca38 9b3d f9e9 46bc
000001b0: 2fc3 223d 3c08 7fbc a6e3 8fbb fff4 023d
000001c0: 6d8c 253e 82d4 b13d d43c 253e 7302 973d
000001d0: 7c27 543e 8172 213e bec1 ea3d a6cb 103d
000001e0: dbb9 7a3c 1c3c 213d d611 ef3a 1fa1 ccbc
000001f0: bc91 1cbb e4a4 903d d23b 433b fd71 e63d
00000200: 427d c93d a0ed 983d 086d 143e 59a7 463e
00000210: 2b58 593e c83b 2e3e 1109 363e c208 223d
00000220: aeee 643c 79c4 e03c a5ee 4a3d fb00 eb3c
00000230: 2ec0 083d 8db7 ab3b b382 fd3c b17e a9bc
00000240: 6dd4 4bbd f944 a8bd eb4d d1bd f2fd ecbd
00000250: 51df 1bbe f8a6 0ebe 203d f13c 7e22 133d
00000260: 3b9b 8b3c cf04 443c 0ba9 193d 3215 e23c
00000270: 9fd9 123c 95fc a4bc 9464 1abd 8d34 13bd
00000280: 1f62 1cbe 4b87 d7bd 0fe4 48be 9afc a8be
00000290: 5545 b0be 1c26 503d 1779 b33d f8d7 81bc
000002a0: 7f09 59bd 509f be3c 9602 04bd 8904 86bc
000002b0: 4fcf 64ba 184e bcbc 5aec 783c 0ac3 c13d
000002c0: ce86 963d 6b74 f13c 3c34 82bb 2ddf 14be
000002d0: fb66 c4bc 2e28 823d 5193 1b3d 09f4 573c
000002e0: 46af 79bc 2840 60bd d1c6 283b 855d 443d
000002f0: e9b7 62bd a130 10bb b59d ef3d b084 9a3d
00000300: 0ca6 a63c e665 e73b 618e 49bd 7870 30bc
00000310: 95ac 8bbc 4c8f eabb ad45 52bd 8fdc 94bc
00000320: 4fe7 a9bd 69d5 aabd ccf7 39bd d1b1 1e3d
00000330: 96e0 2f3d fba4 c13c d13c 43bd 9899 d8bc
00000340: 587a e8bd df6e 3abe 444c e5bb 0c95 02bd
00000350: 41aa 6abd 1ae4 f4bb 1519 9fbc 5579 ff3c
00000360: e411 9f3c 9643 823d 5fd6 c7bc c44e 68bc
00000370: e1a1 70bd 6399 8bbd a3f8 fdbd ac54 20be
00000380: 0539 32be e933 d03d 1706 413e 654e 693d
00000390: 6fc4 2d3e 61fa 5e3e 42ad 2f3e 62a6 5a3e
000003a0: 3aa3 f73d bdcf 083e fffe 9e3d 812d 94bc
000003b0: 4e1c fabc 7452 063d a5ff 76ba 1027 4c3d
000003c0: 41cb 7abc b301 dfbd cdf4 84bd 84ca dcbc
000003d0: f8d8 6fbc f5ae 8bbd a235 2bbd 10ef 8ebd
000003e0: 59ea 273d 786e 9d3d 54fa 0f3e e5bd d03d
000003f0: fb17 c63c e31d 093e ba4f 5d3d 0a0c 503d
-0.026474468 0.03163439 0.023005703 -0.034545597 -0.05835924 -0.019758178 0.05523073 -0.025826598
-0.01086858 0.01874657 -0.015140714 0.04133065 0.05375026 0.025952779 -0.038220294 -0.055925164
-0.08015157 0.047195088 -0.023027848 -0.025068074 0.038537413 -0.07740947 0.0004084838 0.06227929
0.022067163 0.028065046 -0.06662826 -0.0938804 -0.06627574 -0.15912265 0.46916133 0.1759783
0.31642854 0.2802261 0.29072958 0.3600466 0.34125856 0.28773138 0.26992872 0.18650138
0.32035887 0.18191285 0.047485813 0.32981643 0.27603745 0.019137617 0.032208916 -0.021435479
0.022903932 0.025527164 0.050117522 0.0035265945 -0.0009896064 -0.0932189 0.002064952 0.05737082
0.06490843 -0.009835194 0.0915302 0.008049837 -0.0037539098 -0.0441663 -0.0023738234 0.04714375
0.0371315 -0.02525133 -0.036978524 0.0016604303 0.042614065 0.06882449 0.062183466 0.043656133
0.15523727 0.1501989 0.086482696 -0.039433308 -0.02194911 -0.012015106 0.024408294 0.14959513
0.1516799 0.22948758 0.1501 0.047814835 0.007927606 0.108664855 -0.06419143 -0.054053873
0.032117188 0.13709068 -0.00061758043 0.024685195 0.038344793 -0.014561744 0.019423056 -0.031795993
-0.09368811 0.0597529 0.056092545 -0.044817377 -0.15390278 -0.08814412 -0.080474764 -0.24701121
-0.28341413 0.122221775 0.07579191 -0.012140744 0.039736923 -0.015565928 -0.0043911515 0.031971928
0.1616685 0.08683111 0.16136485 0.07373514 0.20718187 0.15766336 0.11462735 0.035350464
0.0153031 0.039363965 0.0018239568 -0.024979172 -0.0023890575 0.070627004 0.0029790294 0.1125221
0.09838344 0.07467198 0.14494717 0.19399776 0.2122504 0.17014992 0.17776896 0.039559133
0.013972921 0.027437435 0.049543995 0.028686991 0.0333864 0.005240387 0.030946111 -0.020690294
-0.049763132 -0.082162805 -0.1021994 -0.11571874 -0.15221907 -0.13930881 0.029448092 0.035921566
0.017041793 0.011964037 0.037514728 0.027597997 0.008963018 -0.020139972 -0.037693575 -0.03593879
-0.15271805 -0.10523852 -0.19618247 -0.3300522 -0.34427896 0.050817594 0.087633304 -0.015850052
-0.05298757 0.023269325 -0.03222903 -0.016359584 -0.0008728401 -0.022986457 0.015193069 0.09461029
0.07349931 0.029474458 -0.003973512 -0.1453826 -0.023974886 0.0635532 0.03798229 0.013180741
-0.015239542 -0.054748684 0.002575327 0.04794075 -0.05535117 -0.0022001641 0.11700002 0.075448394
0.02034285 0.007061708 -0.04920805 -0.010769002 -0.017050067 -0.0071581956 -0.05133598 -0.018171577
-0.08296072 -0.08341486 -0.045402333 0.038743798 0.04293879 0.02363824 -0.04766542 -0.026440427
-0.1135146 -0.18206356 -0.006997617 -0.031880423 -0.057291273 -0.007473481 -0.01942114 0.031185785
0.01941771 0.06360547 -0.024394212 -0.014178935 -0.05874813 -0.068163656 -0.12400939 -0.156573
-0.17404564 0.10166151 0.1884998 0.05695953 0.16969465 0.217752 0.17155936 0.21352533
0.1209168 0.13360496 0.077634804 -0.018088104 -0.030531075 0.032793477 -0.0009422249 0.04984194
-0.015307249 -0.10888996 -0.064920045 -0.026952036 -0.014639132 -0.0682048 -0.041799195 -0.06979191
0.040994976 0.07687086 0.14060336 0.101924695 0.024181357 0.13390307 0.05403111 0.05079273

conv1_2_4.bias f4 [5]
00000000: f16e 90bd 34ca 4fbd 0494 e4bb 347a 17bd
00000010: b363 acbd
-0.070524104 -0.050729945 -0.0069756526 -0.036981776 -0.084174536

conv1_3_1.weight f4 [5, 20, 3]
00000000: d828 d13c d033 5ebd 25a8 133e 5f4a c0bd
00000010: 0928 a2bc a1dc afbd acbd 133e 44dd 2bbd
00000020: 0603 873c 5620 a8bd 23a1 8f3d d9a5 a6bd
00000030: 15b3 a33d 18f0 c2bd 030c c53d 9d27 cb3d
00000040: 949d 433d 9b95 d33d 476b 0b3c 1938 f3bc
00000050: e5d0 bc3d 4376 50bd 1df6 dabd fabd dbbd
00000060: c29a eb3d 4ec9 2f3d 952c 65bd 65e1 fe3d
00000070: 3075 b93d e0ed 403d c796 32be d019 0bbe
00000080: c4c1 57bd 34c7 38be f08e 2dbe d7b5 54be
00000090: 0414 2cbe b19f cc3d 55f0 113e 5f97 bdbd
000000a0: d731 f0bd b2c0 89be d951 8fbd 8bef 30be
000000b0: 90c7 b8bd 5b6a f3bd a1d0 153d 653e ebbd
000000c0: 5419 9dbd 36cd 09bd 6b10 9fbd 9818 2c3e
000000d0: 3f7a aa3b 0db5 08be 198a bcbc f6da 06be
000000e0: 7f0d 15be 2850 053e 014c 98bc 5a63 a43d
000000f0: d31c 513d 624d 7e3d c748 fe3a 1427 19bd
00000100: fecf eabd b81b 873d 272f 3a3e 7b56 0e3e
00000110: af7f fbbd 555f b23c c013 3f3d daa3 f63b
00000120: 5720 aebd d480 6f3b a5b6 433d 650f 4cbc
00000130: 27d9 9bbd 2332 4e3d 4d33 ccbd a42b 4f3e
00000140: b259 193e 4f57 3c3d 49b6 22be 57e8 34bb
00000150: c30c 0d3e 5f05 3b3e ce19 99bd a4ef b2bd
00000160: 379a 453e fa95 583e e75d c33d 6071 76be
00000170: b8fc f3bd 37d0 b83e 9c39 36bd 8460 85be
00000180: 94a2 9dbd 2d35 7e3d dab1 33bd f590 bd3d
00000190: 8d37 c8bc 6f62 bfbe d5cb 993d d4b3 89be
000001a0: a698 babd 87a4 5fbd feab 123e a1d5 763c
000001b0: 6504 4d3d 05ea a23d 3194 c0bd 2fc0 a7bd
000001c0: 1f2c 923b e270 183e 71ef 17be bf9d 3d3b
000001d0: 7af6 6dbe 3a37 46bd 385b 403e 7dab e5bd
000001e0: bc73 25bd 0a5b 02bc b17e 3a3c 0ab0 9f3d
000001f0: 9753 eabd 8b10 1b3d 5f6e 06bd 267f d9bc
00000200: 2469 0ebe d040 04bd a293 e7bd 6f62 fdbb
00000210: dbe7 9fbd fff5 f838 b857 4abd ca73 28be
00000220: 0b9f b63d 19d9 49bd b6d2 b3bd 4fd5 d03d
00000230: 6b06 09be 945a e03d d29f 20bd 552c 1fbe
00000240: 33cc 7fbd 03be c5bd a882 8bbd 2570 363d
00000250: ee55 af3d 54d8 52be 1149 3ebd 4dc9 7bbe
00000260: bb82 ddbd 5cb3 833e 7833 fa3d c1fd f4bd
00000270: 42f2 943d e0ef d1bd 6dbb 2abe 55dd 2f3e
00000280: 6ef8 aa3c 3e25 88bc ca1b 3d3e 54f2 cfbd
00000290: 72f3 82bc 0165 8e3c 57b1 033e 7f49 71bd
000002a0: 47f6 803d 8bf6 0c3e c40d 2c3d 9dbb a63d
000002b0: b335 273e 3b9f 2a3e 424b 093e 5a4a 533e
000002c0: c1b2 463d 6437 7c3e a5a4 293e d9f4 9a3e
000002d0: 1e9b f63d add1 7ebd 6fc0 a73d 409a c53d
000002e0: 9a38 ad3d d7b9 09bd ffdd 8b3d 2f7b 01bd
000002f0: f3d2 183b 1bfc 193e 1585 e93d 8ce2 71bd
00000300: eff5 c8bc 7e76 0a3e f5b2 c83c 0045 193c
00000310: e926 bebd 7c03 18be 2e1c 753e f9fa 8e3d
00000320: dd58 bfbd 10ea 67bd 974b a8bd 56fb ecbb
00000330: d592 f93d 4efd 053d 2384 0fbe 94f0 943e
00000340: 8e16 ba3d cb38 5bbe 20eb 2ebe c067 99bd
00000350: 411e 403d a6fa 883d 860b 58bd 6cd5 403d
00000360: de9f aa3d b6c1 e93d 3796 9cbd 19fa 5fbe
00000370: cbbc 27be ea53 2a3e 34b9 f13c 481c 6e3b
00000380: 107d 393e 0972 e3bd 5d5f 0cbd 3d66 09bb
00000390: 3f2b af3d 8fed 68bd fdb2 6bbd 0ff8 d7bd
000003a0: 4394 e03d d181 9c3d 8b6e 56bc a36a 03be
000003b0: 0aec 9f3d f672 0dbb 5e07 2dbd 72f8 003d
000003c0: f383 0e3e 0697 debd 8d1a 5d3b a9a3 78bd
000003d0: 215b 993d 79f8 bbbd abe4 e93d b990 0bbd
000003e0: 2df9 f23d 0dcf 95bd 01ad ca3c 6f4f a53d
000003f0: ecd9 81bd 6ba9 8ebc dbe1 e43d a5a3 41bc
0.025532171 -0.05424863 0.14419611 -0.09389185 -0.01979448 -0.085870035 0.14427823 -0.041959062
0.016480934 -0.082092926 0.07013156 -0.08137102 0.079931416 -0.095184505 0.09621432 0.09919665
0.0477577 0.10331269 0.008509464 -0.029689835 0.09219531 -0.050894033 -0.10691474 -0.107295945
0.11504127 0.04291659 -0.05595072 0.12445334 0.09055555 0.047101855 -0.1744033 -0.13584065
-0.052675024 -0.1804474 -0.16949058 -0.20772491 -0.1680451 0.09991396 0.14251836 -0.09257387
-0.11728256 -0.26904827 -0.06998033 -0.17278878 -0.090224385 -0.1188552 0.036575917 -0.1148651
-0.076708466 -0.03364297 -0.07766803 0.16806257 0.005202561 -0.13350315 -0.023015069 -0.13169464
-0.1455593 0.13018858 -0.018590929 0.08026762 0.05105288 0.062085517 0.0019400351 -0.037390783
-0.114654526 0.06597084 0.1818205 0.13900177 -0.12280213 0.021773973 0.046649694 0.007526857
-0.08502262 0.0036545293 0.047781605 -0.012454842 -0.07609778 0.050340783 -0.09970722 0.20231491
0.14975622 0.0459817 -0.15889849 -0.0027604306 0.137744 0.18263768 -0.07475625 -0.08737114
0.1929711 0.21150962 0.09539395 -0.24066687 -0.11913437 0.36096355 -0.044488534 -0.26050198
-0.07697025 0.06206243 -0.043870784 0.09256164 -0.024440551 -0.37379786 0.07509581 -0.2689501
-0.09111147 -0.054600265 0.14323422 0.015065582 0.05005302 0.07954792 -0.09403265 -0.08190953
0.004460826 0.14886811 -0.14837433 0.0028933135 -0.23238555 -0.048392512 0.18784797 -0.112143494
-0.040393576 -0.007956276 0.011382745 0.07797249 -0.11441725 0.037857573 -0.0328201 -0.026549887
-0.13907295 -0.032288373 -0.113074556 -0.0077326815 -0.07807895 0.00011871382 -0.04940006 -0.1645042
0.08917054 -0.049279306 -0.08780424 0.101969354 -0.13381355 0.109547764 -0.039214917 -0.15544255
-0.0624506 -0.096553825 -0.0681203 0.044540543 0.08561312 -0.20590335 -0.0464564 -0.24588509
-0.108159505 0.25722778 0.12216848 -0.11962462 0.072727695 -0.10250831 -0.1667306 0.17174275
0.020870414 -0.016619321 0.18467632 -0.10153642 -0.015985224 0.017382147 0.12860619 -0.058907982
0.06296974 0.13765924 0.042005315 0.08141253 0.16329078 0.16662304 0.13407615 0.20633832
0.048510317 0.24630505 0.16566713 0.3026493 0.12041305 -0.06221168 0.08191001 0.096485615
0.084580615 -0.033624496 0.06829452 -0.031611618 0.0023319095 0.15037577 0.114023365 -0.059053943
-0.024531333 0.13521764 0.024499396 0.00935483 -0.09284765 -0.14845079 0.23936531 0.06981463
-0.09343121 -0.056619704 -0.082175426 -0.00723211 0.12186209 0.032712273 -0.1401525 0.29089797
0.09086333 -0.21408384 -0.1708188 -0.07490492 0.046903852 0.066884324 -0.052745365 0.047078535
0.083312735 0.114139006 -0.07645839 -0.21872748 -0.16380613 0.16633573 0.029507257 0.0036332775
0.18114114 -0.11105735 -0.034270633 -0.002096548 0.085531704 -0.05686718 -0.057543743 -0.1054536
0.10965779 0.07641948 -0.013087879 -0.12833647 0.07808693 -0.0021583415 -0.042243354 0.031486936
0.13917522 -0.10868649 0.003373775 -0.060702953 0.074880846 -0.09178252 0.11420568 -0.034073565
0.11863933 -0.073148824 0.024740698 0.080717914 -0.063403934 -0.01741477 0.11175891 -0.011818801

conv1_3_1.bias f4 [5]
00000000: 414f dc3d a86a d3bd d7f3 19bd 376b 49bd
00000010: 8143 b13d
0.10757304 -0.103230774 -0.03758606 -0.049174514 0.086554535

conv1_3_2.weight f4 [5, 20, 5]
00000000: 6a74 ac3d 7b58 763e 0846 3c3e 3713 02be
00000010: 9be4 cebc eda3 c2bd 57f0 1a3c e7f3 293e
00000020: 043c cf3d 4ed6 963d f3ba 0a3e 40e5 19be
00000030: 9430 5b3d d45b 10be 0874 3bbd d1c9 613d
00000040: ccaf 3f3e 7b32 b2bd 630d e83d 4047 f2bd
00000050: 8240 cebd 216c 4b3d 66b4 c63d e014 503d
00000060: dda5 a0bc a9a4 10bc fe28 d23d 002a bb3d
00000070: 40fd c23d 6b0c 1cbd 6986 3a3e d7c4 b83d
00000080: d593 0e3e bc81 43be 9e7d 053e 5aa0 babd
00000090: 26e0 cd3d c6ca e2bb 36c4 f93a faeb 9b3d
000000a0: bbd2 213e 39f1 633e 9888 57bd 4f7e b5bd
000000b0: 0d0f 493b fe73 ac3e 41a1 3f3e 26fe 03bc
000000c0: 209c 80be d12d 75be 71cd 83bd 47eb 723c
000000d0: f7b4 b13d a562 cd3e 3a89 ba3e d41f 9dbe
000000e0: 12ba 02be 7ae7 1dbe 0c81 e6bd 5d60 b53e
000000f0: 68aa a6bd 67f6 393c 17b9 14be caec 2cbc
00000100: e239 c73c eab0 8cbe 2bef c4be b8d5 95be
00000110: 1e94 e4bd 0559 6b3e 026a d1bd 73a7 a33e
00000120: 798f 8a3d dd0d 883e da1e 863e 1c79 19bd
00000130: cb78 e13d 6c2f cc3d ba96 babd b7ec 9dbc
00000140: 8527 92bd 020e bc3d 5501 bebd 995f 16bd
00000150: 6e6f c0bb ec05 9b3d b3b8 25be 8d4c 4cbe
00000160: 06f1 a0be ffee 5dbe 7a92 1ebe 8cbc 44be
00000170: e2ce a8bd 8a08 91bd d3d9 d93a f0aa c9bd
00000180: b407 17bb 2493 44be 51ee 9dbe 20bf 98be
00000190: 32e4 df3c 022e 0fbd bf95 84bd 75dc debd
000001a0: 5aa1 aa3d cbb4 a9bd 8f53 b8bd 0798 213d
000001b0: 6bd5 423d 145d bcbd 693b 61bd d267 e8bd
000001c0: ced7 a23d 8ec4 25bb 25e3 19bd a155 99bd
000001d0: a16e 753d 30d5 973d ed56 573d 26f4 c3bd
000001e0: 62b1 cbbd bc59 a03d 639e 003d 9bb9 6b3d
000001f0: 62e5 9a3a 0c25 e3bd 2c67 013d e234 7a3d
00000200: dd06 173d 54ca 1abd 330d cc3a 2078 eabd
00000210: 3bf4 86bd 859c bf3d 5089 833c 1725 bbbd
00000220: e7f0 a63d c93f a33d 1f2c 9cbd 0547 a83c
00000230: 606f 1cbd 3285 7fbd d438 bc3d f13c e23d
00000240: c80b 043d 96bb 483d 66f7 ccbc f78e cebd
00000250: 0057 573d 6542 123e c8d9 e7bd c48a 673c
00000260: c750 ebbd 1dc2 aebd ad42 0ebd 6fa8 58bd
00000270: e277 023d fa0f 62bd f2ff bcbd 97a2 edbd
00000280: aa8c a8bd 6673 4f3c ab91 13be 7a9e 37bd
00000290: 9a49 13bd fdae d8bd b128 48be d9fe b8bd
000002a0: a76b 68be fed0 96be 9ca3 f9bd ce58 5abd
000002b0: cd62 3c3d 70d1 c1bd ece2 6b3d bd5c d7bd
000002c0: 07d1 4fbd e35b 3f39 9c13 4c3c 7b80 35be
000002d0: 479e aabb 3494 e73d b252 a03d c8ff 033e
000002e0: e327 adbd 6746 f63c 50d0 e03c fed9 513d
000002f0: b058 b03d 4b90 c43d a40e cf3c 8896 313d
00000300: 1eb2 1cbd cbf2 c93c 2b93 b13c ef6d f2bd
00000310: 5179 a4bc efd4 85bc c78a b63c 4496 ddbd
00000320: 5cde 88bd d3ab 373d 6655 a63d f4a7 4cbd
00000330: 6aa6 42bd b2c4 673d 1d03 993b 93f5 35bd
00000340: 9c30 19bd 5660 60bd f5d5 b6bc 7f10 c33d
00000350: 9bec c63d e17e 963d e2dd 8ebd 7520 403c
00000360: 5114 453d 344c 00bb f59e b3bd f1fd c93d
00000370: ae8f 513d 7349 073d f087 313d 23ea cf3c
00000380: 68b6 123d d855 593d 6a5c 833d fb17 863d
00000390: 2582 bf3d 3df5 d43d ebbc c33d 04de 813d
000003a0: 9b61 18ba 92a4 6f3c b255 ae3d cbf7 363d
000003b0: 8498 50bd bc85 a93d c288 08bd b496 393d
000003c0: cf47 54bd 1704 b03d 4309 6e3d 200e 48bd
000003d0: 7f56 713d b978 b83c 2206 b8bc f7ae c1bd
000003e0: 3865 8fbd 13e0 31bc 7dd4 c03d 8827 e93b
000003f0: 162f b73d 0735 3d3e 12d1 40bc 39af 94bc
0.08420642 0.2405719 0.1838609 -0.12702642 -0.025255492 -0.095039226 0.009456716 0.16596948
0.10118869 0.07365094 0.13547878 -0.15028858 0.053513125 -0.1409753 -0.045764953 0.055124108
0.18719405 -0.08701035 0.11330678 -0.11829996 -0.10070898 0.049663667 0.09702377 0.050801158
-0.01961034 -0.008828321 0.10261725 0.0913887 0.0952096 -0.03809778 0.18215336 0.09021919
0.13923581 -0.19092458 0.130362 -0.09112616 0.100525185 -0.006921145 0.0019055668 0.07613368
0.15803044 0.22259988 -0.0526205 -0.08861982 0.0030679137 0.33682245 0.18713857 -0.008056199
-0.25119114 -0.23943259 -0.06435669 0.014826602 0.086770944 0.40114322 0.3643282 -0.30688345
-0.12766293 -0.15420333 -0.112550825 0.35425082 -0.08137971 0.011350251 -0.14523731 -0.010554502
0.024319593 -0.27478725 -0.3846372 -0.29264617 -0.111610636 0.22983177 -0.102252975 0.3196369
0.067656465 0.26573077 0.26195413 -0.037469015 0.110093676 0.099699825 -0.0911078 -0.019277913
-0.07136444 0.09182359 -0.09277598 -0.036712263 -0.0058726585 0.07569489 -0.16183738 -0.19951077
-0.31433886 -0.21673201 -0.15485564 -0.1921255 -0.08242585 -0.07081707 0.0016620703 -0.09847057
-0.0023045363 -0.19196755 -0.30845883 -0.29833317 0.027330492 -0.034955986 -0.06473874 -0.108818926
0.083315566 -0.08286437 -0.090003125 0.039451625 0.047566812 -0.09197441 -0.0549883 -0.11347927
0.07951318 -0.0025294158 -0.037570138 -0.074870355 0.059919957 0.07413709 0.052573133 -0.09568052
-0.099459425 0.078296155 0.03140105 0.057550054 0.0011817629 -0.110910505 0.031592533 0.06108559
0.03687178 -0.03779061 0.0015567899 -0.11448693 -0.06589552 0.093560256 0.016056687 -0.09137934
0.08151417 0.079711504 -0.07625603 0.020541677 -0.038192153 -0.062382884 0.091905266 0.1104678
0.032237798 0.04900702 -0.025020313 -0.10085862 0.052573204 0.1428314 -0.11320835 0.014132205
-0.114900164 -0.08533118 -0.034731556 -0.052895006 0.03185261 -0.055191018 -0.09228505 -0.11603277
-0.082299545 0.0126617905 -0.14411037 -0.04482887 -0.035958864 -0.10580251 -0.19546773 -0.09032983
-0.22697316 -0.29456323 -0.12189409 -0.053307347 0.04599266 -0.09463775 0.057589456 -0.10515735
-0.050736453 0.0001824941 0.012455847 -0.17724793 -0.0052068564 0.113075644 0.07828273 0.12890542
-0.084548734 0.030062867 0.027443081 0.051233284 0.08610666 0.09597834 0.025275536 0.04335645
-0.038255803 0.024651906 0.02167662 -0.118373744 -0.02007738 -0.016336886 0.022282971 -0.108196765
-0.06683037 0.0448416 0.08121757 -0.04996486 -0.047521986 0.056584068 0.0046695606 -0.04442365
-0.037399873 -0.054779373 -0.02231882 0.09524631 0.09713098 0.07348419 -0.069759145 0.011726488
0.04811508 -0.001957667 -0.08770553 0.098628886 0.051162414 0.03302903 0.04334253 0.0253802
0.035818487 0.053060383 0.06414111 0.06547543 0.09350995 0.10398338 0.095575176 0.06341174
-0.0005812884 0.014626639 0.08512439 0.044669908 -0.0509267 0.08277461 -0.033333547 0.045309737
-0.051826295 0.0859453 0.0581143 -0.048841596 0.05892038 0.022518503 -0.022463862 -0.094572
-0.07001728 -0.010856646 0.09415529 0.007115308 0.08944528 0.1847726 -0.011768596 -0.018149959

conv1_3_2.bias f4 [5]
00000000: 691e 1e3d b4a8 a83d be00 c53d e369 aebc
00000010: 7f49 953d
0.03860322 0.082353026 0.09619282 -0.021290725 0.07289409

conv1_3_3.weight f4 [5, 20, 11]
00000000: 62eb 373c 3e9d 56bd 30d4 f1bc 187b 793d
00000010: a9a6 3dbd 1f79 4ebd c225 423d 6187 223d
00000020: ce4a 0d3d c7ee b33c ab16 78bd ca03 85bd
00000030: e5a3 99bc 8d84 80bd d580 12bd ff4d b03c
00000040: 5838 803b cd25 dbbb 7366 e5bc 27c0 8abd
00000050: af8c 553d f7b1 96bc 91a2 433b 664b 78bd
00000060: 3260 87bd b050 61bd 8961 53bd 233f 9b3c
00000070: 8f5d 83bd 6a30 4cbd 9813 05bd c3a1 bdbc
00000080: 0068 1ab9 4244 d23a fbf1 c03c 4842 fb3c
00000090: f90c 38bd 0cb0 f6bc 2264 093d 8f5b 183d
000000a0: 9e2c 8bbd 20c8 573c fee7 5bbc 37aa 043d
000000b0: 2ba6 593c c16f b5bd 29ff 43bd 508d 08bd
000000c0: 2f17 5e3c 55a5 173d f623 073d b093 b7bd
000000d0: 4c9a 7cbd c9a4 133c 6cf0 3fbd cd97 c1bd
000000e0: 6e24 1e3c 3d65 92bd b479 0bbd ad5c 1abb
000000f0: a53c 98bd b64f 993c 05e6 a4bd d1bf 9abc
00000100: ebbf 5f3d 94b9 dd3c fb2b 6abd 6759 1bbd
00000110: f98c 93bd 8afb e33c 2246 753c c21b 153d
00000120: 1f3e 343b 430b 963c 2e4f 403d be81 ca3a
00000130: 24a6 9bbb 5b61 5cbc 7c3c 21bd 542e 59bd
00000140: a88d 7c3c 482f 103b 13f3 7eba 9486 98bc
00000150: 3915 0bbc d4bb 7dbd a42f 99bc d03b 7fbd
00000160: ec0a 623c 2eb7 80bd 2352 b7bd 4356 c4bc
00000170: 7cbf 123d 918d 3ebc 2e0a 45b9 0eb6 b43c
00000180: 0b5c 2a3d 5992 593d 73ec 933d 6ce6 34bc
00000190: c9db a9bd 6fda b3bd 03d1 b13c a95b 383d
000001a0: f26a 883d 3a16 b3bc fae2 023c 4a8b 89bd
000001b0: a159 963c dc4b 313c 58c8 c1bd 32ec febd
000001c0: 93fa b7bd 4436 87bd 26d9 10be b780 3dbd
000001d0: 8e1c 84bd 8313 96bd c50d d6bd e538 c3bd
000001e0: 2713 11be 8af3 543d b1e0 8c3d 5c2d 783d
000001f0: d8d1 63bc 8400 a4bd d5ad b1bd a775 b03c
00000200: 25c4 57bd 62d9 613d cf54 8abc 859b 93bc
00000210: 2a19 413b 2826 8f3c 420f 9fbc 835f c7bd
00000220: c51a 82bd 2cb1 433c 4317 e6bd 0311 8dbd
00000230: 56c1 e9bd d282 9cbd bdb3 b3bc 2863 72bd
00000240: 50bc 043d 758b 0dbd a3ec cfbd baec e1bc
00000250: 1205 ffbd 989a d5bd 3832 16bd 6da7 d3bd
00000260: 8f3c 38bd aedb 2abe 5a9c 1cbd 48f5 00bd
00000270: 3666 00bd d8f9 a7bd 38b6 c6bc 8c1e 083c
00000280: 2b6b a73c 7ad5 c63c 486b 2b3c 1ae5 ccbc
00000290: 09d2 bb3c eee7 39ba dee8 ee3c 7273 ac3a
000002a0: 5dc1 8dbd d345 abbd 3cea 77bc fc26 debc
000002b0: db2b 08be 20fa cfbc f532 aebd 82c5 22be
000002c0: 255b c53a c9b3 ae3d d6df ec3d 74de b23d
000002d0: 4de2 91bb 85f1 4c3c 693d 04bd 3a11 873d
000002e0: b565 4e3d 3972 9b3c 9187 1b3c 96a3 b13b
000002f0: afb3 f53b 8ec8 ed39 9366 d73c ab75 a73d
00000300: 4cec 2a3d 44f0 7a3d 5caa c03d bcc6 83bc
00000310: 4ae4 ad3d b943 efbb d848 cd3c 7cc6 083d
00000320: 8fab 913d 0886 b7bc 562e 24bc 8621 503d
00000330: aefb 1abd 8a1e 9f3d 0a8d bcbc 81a3 973d
00000340: 836c 263d 26c3 ce3d ea8f ac3d ba8f 183a
00000350: 946d 5d3d dc7e 043d a55c aebc 8919 5dbd
00000360: 8d5e 95bd f2b1 20bc 9466 d5bc d856 7fbd
00000370: 6d59 c0ba 069a 98bd a449 21bd f51a 213d
00000380: 85ea f0bc b71a 06bd 2d2c cb3c 1b94 543d
00000390: d825 f7bc 7a2a 803d 9a91 1abc f333 26bd
000003a0: 3af6 7ebd 8cd0 73bd 4dbc 7dbc b755 303d
000003b0: 7ebe 11bd 0f89 f63c c0a2 ca3b 7d79 abbc
000003c0: 4238 153d 3a72 603d 79f0 acbd 775b 97bd
000003d0: 789e 9c3b e726 dd3c 4edf 4fbd 972e 763d
000003e0: 6c7f 0e3d d9d8 253d 8853 38bd 2208 383d
000003f0: c2fe b13c 79bc 2abc ef0e 173c f727 abbb
0.011225553 -0.05239605 -0.029520124 0.060908407 -0.046301518 -0.05040848 0.04739929 0.03967989
0.034495167 0.021964444 -0.060568493 -0.06494863 -0.018754909 -0.06275282 -0.035767395 0.021521566
0.0039129667 -0.006687856 -0.028002953 -0.067749314 0.05213612 -0.018395407 0.0029851536 -0.06061878
-0.06610145 -0.05500859 -0.05160669 0.018951004 -0.06414329 -0.04985086 -0.03248939 -0.023148423
-0.00014725327 0.0016042071 0.023552885 0.030671254 -0.044934247 -0.030113243 0.03354276 0.037196692
-0.067956194 0.013170272 -0.0134220105 0.032388892 0.013284246 -0.08859206 -0.04785076 -0.03333789
0.013555332 0.037022907 0.03299328 -0.08963716 -0.061670586 0.009011456 -0.046860144 -0.09452782
0.00965224 -0.07148216 -0.034051612 -0.0023553774 -0.07433442 0.018714767 -0.08051685 -0.018890293
0.054626387 0.02706603 -0.05717085 -0.037927058 -0.07204623 0.027829904 0.014970334 0.036403425
0.0027502847 0.018315917 0.04695051 0.0015450043 -0.00475003 -0.013450946 -0.039364323 -0.053022698
0.015414633 0.0022000838 -0.0009725552 -0.01861886 -0.008488947 -0.061946705 -0.018699475 -0.0623129
0.013796549 -0.06284939 -0.08951213 -0.023966914 0.035827145 -0.011630432 -0.00018791176 0.022059467
0.041591685 0.053118084 0.072228335 -0.011041265 -0.08293874 -0.08781897 0.02170611 0.04500929
0.06661023 -0.021861184 0.007988686 -0.067160204 0.018353285 0.010821309 -0.09462041 -0.124473944
-0.0898334 -0.06602147 -0.14145336 -0.04626533 -0.06450759 -0.0732794 -0.10451845 -0.09532336
-0.14167462 0.05199007 0.06878794 0.060590133 -0.013905011 -0.08007911 -0.08675734 0.021540476
-0.052677292 0.055138953 -0.016886143 -0.018018493 0.0029464462 0.017474249 -0.019416455 -0.09735014
-0.06352762 0.011944097 -0.112349056 -0.0688801 -0.11413829 -0.076421395 -0.021936292 -0.059176594
0.03240615 -0.034556825 -0.10152557 -0.0275787 -0.12452139 -0.10429877 -0.036668986 -0.10334668
-0.04497963 -0.16685364 -0.038235046 -0.03148392 -0.031347476 -0.08201951 -0.02425681 0.008308064
0.020436844 0.024271715 0.01046259 -0.025011588 0.022927301 -0.000709175 0.029163774 0.0013156964
-0.06921647 -0.08362927 -0.015131529 -0.027118199 -0.1329798 -0.025387824 -0.08505813 -0.15895656
0.001505707 0.08530385 0.11566131 0.08733836 -0.004452026 0.012508755 -0.032285128 0.065950826
0.050389964 0.018975364 0.009492771 0.0054211123 0.0074982266 0.00045353587 0.026294028 0.0817674
0.041729257 0.06126429 0.094074935 -0.016085975 0.08490808 -0.0073017743 0.025059149 0.033392414
0.071128 -0.022402778 -0.010020813 0.05081322 -0.037837677 0.07769497 -0.023016471 0.07404233
0.04063083 0.10095815 0.08425887 0.0005819757 0.05405958 0.032347545 -0.02128441 -0.05397943
-0.07293425 -0.0098080505 -0.02604989 -0.06233868 -0.0014675088 -0.07451253 -0.03937687 0.03933235
-0.029408703 -0.03274032 0.024801338 0.051899057 -0.030169412 0.06258102 -0.009434128 -0.040576886
-0.06224654 -0.059525058 -0.015486789 0.043050494 -0.035582058 0.030094652 0.006183952 -0.020931954
0.036430605 0.054796435 -0.08444304 -0.073904924 0.004779633 0.02699609 -0.05075007 0.060103025
0.034789488 0.040490005 -0.045001537 0.04492963 0.021727923 -0.010420912 0.009219869 -0.00522327

conv1_3_3.bias f4 [5]
00000000: 35de 673d d7d6 dd3c 97e6 893c 1256 fcbb
00000010: 3353 ae3c
0.056608398 0.027079983 0.016833587 -0.00770069 0.021279907
