EEGDenoisenetTraining/checkpoints/deepseparator/checkpoint_epoch_10.pth (torch, 503337 bytes, 301 tensors)

conv1_1_1.weight f4 [5, 1, 3]
00000000: fb40 fb3e b6ba ea3d 440c ea3e b881 75be
00000010: 7cae d83e c889 04bc fea5 093e 8cbd cb3e
00000020: 877e bcbe f888 8e3e 1b68 813e 9065 cbbe
00000030: 1079 12bf 8f73 463e cc40 c1bd
0.49073014 0.114613935 0.45712483 -0.23975265 0.4232062 -0.00808949 0.13442227 0.3979305
-0.36815283 0.27838874 0.2527474 -0.39725924 -0.57215977 0.1938002 -0.09436187

conv1_1_1.bias f4 [5]
00000000: a1de 5dbe 93d3 da3d a894 e5be f602 313e
00000010: a872 a53e
-0.21666957 0.10684886 -0.44839978 0.17286286 0.32314038

conv1_1_2.weight f4 [5, 1, 5]
00000000: a88c bc3e f6d7 1e3d f2b4 293e 8bd5 d1be
00000010: 7d6f efbd 4610 e23e 7955 b5be aeec a1bd
00000020: 6014 d93e cd2e b43e 46d6 acbe 17eb 32be
00000030: 8fef d9be 2664 2bbe 79e6 a33c 6ad7 27be
00000040: f070 b0be 3d58 d43d 0abb bebe 872f 56be
00000050: 8e0f 63bd c827 8ebe 4f35 233e bfa1 22be
00000060: abda ff3e
0.36826062 0.038780175 0.16572931 -0.40983233 -0.116911866 0.4415304 -0.35416773 -0.07906471
0.42398357 0.35191956 -0.33757228 -0.17472492 -0.4256558 -0.16737422 0.020007359 -0.16390768
-0.34461164 0.103683926 -0.37252074 -0.20916568 -0.055434756 -0.27764726 0.15938304 -0.15882014
0.49971518

conv1_1_2.bias f4 [5]
00000000: 2e53 e1bd d984 cdbb 9624 73be 0d62 0a3e
00000010: 2a9d d43e
-0.110021934 -0.00627194 -0.23744425 0.13513966 0.41526157

conv1_1_3.weight f4 [5, 1, 11]
00000000: a177 bd3d 5547 89bc 7081 a2bd 1be3 8c3e
00000010: 6bf3 923e 8dfb aa3d 76d7 0abe 2f9b 983e
00000020: 0974 2abd 2e70 5c3e 0398 823e 0750 45be
00000030: 57c6 8f3d 5537 7e3e 3720 8e3e 3ed0 613d
00000040: b5f8 4a3e eb18 ee3a 1a3f 9bbd d84d 233e
00000050: 3ce9 0f3d a6a9 3dbe 147c f8bd 2326 5d3e
00000060: 3874 3d3d 13be bd3d 5aef 643e 93b3 393e
00000070: 432d 693d a1e1 2cbd b101 833e 6d48 a1be
00000080: 562e 1fbe 4451 023e 9492 9a3e 8012 8b3e
00000090: f194 0bbe 2b84 5a3d 8580 8c3e f92b 653e
000000a0: b5ab 303e 1db1 45be a401 b53e ce41 223e
000000b0: fcb9 9c3b 549d 903d afdc 38be 96c6 4c3e
000000c0: 1917 963e dad7 063e a423 5b3e 5529 873e
000000d0: 9f4a a63e 580d 9d3e 1881 643b
0.09251333 -0.016757647 -0.079348445 0.27517018 0.28701338 0.08348761 -0.13558754 0.29805896
-0.041614566 0.21527168 0.255066 -0.1926881 0.07020252 0.24825795 0.27758953 0.055130236
0.19821437 0.0018165385 -0.07580395 0.15947664 0.03513454 -0.18521747 -0.12133041 0.21596579
0.046253413 0.092647694 0.2235693 0.18134908 0.05692793 -0.042207364 0.25587228 -0.3150057
-0.1554502 0.12726313 0.30189955 0.27162552 -0.13631035 0.0533487 0.27441803 0.22380055
0.17253001 -0.19305845 0.35352814 0.15845415 0.0047829133 0.07061258 -0.18052934 0.1999763
0.29314497 0.13168278 0.21400315 0.2639872 0.32478806 0.30674243 0.0034866985

conv1_1_3.bias f4 [5]
00000000: eb11 093e 10cd 913d cfea 803e 3368 28bd
00000010: 3c9b abbd
0.13385741 0.07119191 0.25179145 -0.041114997 -0.08379218

conv1_1_4.weight f4 [5, 1, 15]
00000000: acc8 64be 209c aabd 59f0 26be 8f69 9bbe
00000010: c828 d43d c763 6abe 792d 533d 71af 2fbe
00000020: 5e6d 503e e5ff 733d 0dad aa3d 1178 b53d
00000030: 7504 673e e208 f0bc 81c3 2dbe a66d e1bd
00000040: 36b6 553e ed69 653d bcde d2bd fdca d63c
00000050: 7f07 f23b 80e9 383e d314 333e 3b9c 1dbd
00000060: 537d bbbd 535e 6c3e 3b1f 793e 99d6 0fbd
00000070: cfa0 733e b725 1a3e c1c4 dcbd e27c 5bbd
00000080: 9264 003e 100a 6dbe 87c6 edbd 4354 983c
00000090: 6918 5a3e a3cb 1e3e 63b9 de3d b820 753d
000000a0: 22a1 9b3d c8b8 063d b5a2 54be 2bbe 8bbd
000000b0: a5c4 34be 3178 333e dd6e 22be df0e 223e
000000c0: 8348 8e3c ee86 143e 800c 9c3c 3a9a 763e
000000d0: 1b76 353e 410d a0be e0f0 bfbd 3ec7 313e
000000e0: 6374 063e c330 a03d 0ec6 f4bd df1f 813e
000000f0: bc1b 593e 32df 31be e24c 763e 7b9a 57bd
00000100: b58e 78bd d996 263e 5a33 20be 6d72 4ebe
00000110: 9eb1 33be 1db2 6f3e 9484 f93d d899 8c3e
00000120: e3b1 f33c 97d7 0d3e a685 ff3d
-0.22342175 -0.0833056 -0.16302623 -0.30353972 0.10359341 -0.22889625 0.051557038 -0.1715677
0.2035422 0.059570212 0.08333788 0.088607915 0.22560294 -0.02930111 -0.1696911 -0.11007242
0.20870289 0.05600922 -0.102963895 0.02621984 0.0073861475 0.18057823 0.17488413 -0.03847907
-0.09154763 0.23082857 0.2432832 -0.035116766 0.23791812 0.1505345 -0.10779715 -0.053585894
0.12538365 -0.2314837 -0.11610132 0.018594867 0.21298374 0.15507369 0.108752035 0.059845656
0.07599093 0.032891065 -0.20765193 -0.06823381 -0.17653139 0.17526318 -0.15862603 0.15825985
0.01736856 0.14504597 0.01904893 0.2408227 0.17720835 -0.31260112 -0.09372115 0.17361161
0.13130336 0.078218006 -0.119518384 0.25219628 0.21201986 -0.17370299 0.24052766 -0.05263756
-0.06068297 0.16268481 -0.15644589 -0.20160837 -0.17548224 0.23407789 0.121834904 0.27461123
0.029747909 0.13851772 0.12476663

conv1_1_4.bias f4 [5]
00000000: b82f 03be 1430 8ebe 1f1f 503e 31b5 633e
00000010: f203 113e
-0.12811172 -0.27771056 0.20324372 0.22237088 0.14161661

conv1_2_1.weight f4 [5, 20, 3]
00000000: 47c9 08be 23e7 91bd d3e9 edbd a41e 91bd
00000010: 0c78 9d3b 89eb 383c ff55 1fbe 6a7f 79bd
00000020: 923b 0ebd 4c3a 8abd c0e3 11bb 6a6d 50bd
00000030: 485b 083d 6026 dc3d e8de bfbd 0d74 5e3d
00000040: 066c af3c 97eb 09be efb0 d5bc 70ff c83c
00000050: 093f ecbc 4486 e1bd 0c4e 703a 7de7 4e3c
00000060: 9ec8 533d d1c8 a4bd 6e42 c03c 41bd f9bd
00000070: b0fd 20be 453b 8cbd f773 05be 3fb6 dd3d
00000080: 43bf 9d3c 44cc 903d cecb 183d 0e2f 15be
00000090: fb29 34bd 8ccb 8fbd 346b c3bd 8a32 dbbd
000000a0: 1f91 0fbd a8a9 fe3d 4211 a93d 1560 dbbd
000000b0: 9980 503d 5650 133d 3f77 793d c086 2ebe
000000c0: fb95 b1bd 832a b63d 0177 84bd 15a5 6a3c
000000d0: f88f 0ebe 378b b63d 518c ce3c b7ac bc3d
000000e0: f7fe 0bbb dfda d43d bff0 06bd 012e 843d
000000f0: a611 90bd 8b87 003e 2d60 b5bc fbb3 973d
00000100: d256 363d ec5d d23d 4489 1abe 0c75 123d
00000110: 3c52 193d 978a 513d f804 b03d 532e 543d
00000120: 5c93 05be ae41 4f3d 289a c8bd 2334 36bd
00000130: e081 90bd ca5c e9b9 f546 1a3d f1bc 883c
00000140: a690 45bd cd01 9dbd 41a8 30be 5cda efbd
00000150: 8c0f 2abe 2613 49bd 778e b23d 6571 303c
00000160: b3f6 13be 03f5 32be a8e1 b8bc 527d 033c
00000170: a9ea 7abc 5c05 9fbd 3683 ee3c f5c3 973d
00000180: 1a09 5fbc c184 f5bc b238 d5bd 8474 7dbd
00000190: bcc2 bc3d 2bf4 b0bd fa14 08bc 0ffb 67b9
000001a0: e7db aa3a b6f4 a83c f014 e5bd 63d7 71bd
000001b0: 79d8 d73c 72a0 b83c d5f8 ddbb d99f 8d3d
000001c0: 766e 803d eae4 ccbd 87f3 2f3d 72a3 8cbd
000001d0: af7a 9bbd 312b c63d 54c1 ebbc dead 853d
000001e0: 4c1a 7c3c d9b6 4eba 9312 bb3c 671b 0cbe
000001f0: 1231 0cbe 3ff2 efbd 1b2e dabd d9ef 653d
00000200: a6ac 35be 9422 a7bd 6d0b c03d a801 fa3d
00000210: af67 d73c 9641 d9bd ae38 f33d abf1 8b3d
00000220: 08ff 8abd 1d4a aa3b a691 b0bd ec9f 00be
00000230: 4676 c5bd 3d39 09be 3f7b 6abd 904a 793d
00000240: e5b3 98bd 2612 cfbd 397f df3c 45de 513d
00000250: 64ed efbd 228b babd f235 e7bd 5e1b 37bb
00000260: 6819 763d f077 bfbd 094f 33bc 6c96 8d3d
00000270: b4cd 423d 3781 1e3d 236e 39bd ce15 953d
00000280: aa3f 0abe cef5 00be a164 493d a1cd b53d
00000290: 0df4 acbd efa6 10bd 6ff6 20bd f06b 0bbd
000002a0: 2fd0 29bc 64b1 e63c 06da 243d cf8c 903c
000002b0: b86a d8bc bcd4 003c 4cc0 ce3d d5fe c6bd
000002c0: 4a3c adbd 7d54 79bd a3d9 efbd 0cc7 803d
000002d0: 2a31 f43d dfbb b5bd e041 b8bd 085f bc3d
000002e0: 9de3 d73d aaaf 62bd 44ac 9dbd e991 1cbe
000002f0: f7f6 04bd 0ac2 20be 5b17 9d3d b56f aebd
00000300: 67cf 87bd 7e4b 07be dd13 03be 5d81 4ebe
00000310: 6d22 3e3c e701 e4bd f6b4 f9bd 366e 063e
00000320: dac7 1a3d 63d5 cebd 1ff6 033d e37a 873c
00000330: 91f6 60bc 5b4e 0ebe 0c6a acbd e499 eb3d
00000340: d527 c03d 80d0 803d c1ac dc3c e7fa 89bd
00000350: d023 d0bd 3c8f 96bd df6b 9cbd b7d8 d1bd
00000360: 3fef a3bd 197e 97bd 7b3e fd3b 8222 cd3d
00000370: 6e04 983d e962 b83d 4fb3 103e d36b 86bb
00000380: f2f3 393d 3ea2 ccbb 7d6c 68bd f34f 91bd
00000390: 3a55 b43d 998b 5a3d 5e6f 323e 6c19 ba3d
000003a0: 9271 1abd 7889 60bd 3f5e 89bd ac90 b2bd
000003b0: 3211 9f3d f74c b53d a5d6 a43d a0be 54bd
000003c0: 4704 85bd fd40 833b 589a 093e 2c78 27bd
000003d0: 05cc b4bd e9b4 05bd 5661 96bc 7070 c2bc
000003e0: 983b 4b3d c1fc ffbc c2ed 6b3d 1284 493d
000003f0: 46ac 1fbe 059c 00be e0b6 e9bc 9c15 8e3d
-0.13358031 -0.07124164 -0.11616864 -0.07085922 0.0048055705 0.011286625 -0.15560149 -0.060912527
-0.03472478 -0.067494005 -0.0022260994 -0.050885595 0.033290178 0.10749507 -0.09368688 0.054309893
0.021413814 -0.13468777 -0.026085345 0.024535865 -0.028838651 -0.11011937 0.00091669033 0.012628433
0.051704995 -0.08046115 0.023469176 -0.121943004 -0.15721774 -0.06847242 -0.13032518 0.10825776
0.01925624 0.070702106 0.03730374 -0.14568731 -0.04398535 -0.07021245 -0.09541932 -0.10702999
-0.035050508 0.12434703 0.08255245 -0.107116856 0.05090389 0.035965286 0.060904738 -0.1704359
-0.08671185 0.08894827 -0.06468011 0.014321585 -0.13922107 0.08913272 0.025213392 0.0921263
-0.0021361688 0.10393309 -0.032944437 0.06454087 -0.07034616 0.12551706 -0.022140587 0.074073754
0.044516392 0.102718204 -0.15091425 0.035756156 0.03743194 0.05115756 0.08594698 0.05180199
-0.13044494 0.050599746 -0.09795028 -0.044483315 -0.07056022 -0.00044510356 0.037665326 0.016691657
-0.04823365 -0.07666359 -0.17251684 -0.117115706 -0.16607493 -0.049090527 0.08718579 0.010769223
-0.14449577 -0.17476277 -0.022568539 0.008025484 -0.015314736 -0.07764694 0.0291153 0.07410423
-0.01361301 -0.029970529 -0.104112044 -0.061878696 0.0921683 -0.08640321 -0.008305782 -0.00022123403
0.0013035507 0.0206245 -0.11185634 -0.0590433 0.02634834 0.022537444 -0.006774048 0.06915254
0.06271069 -0.100045994 0.042956855 -0.06867112 -0.075917594 0.09676207 -0.02877871 0.06527303
0.015387129 -0.0007885523 0.022836005 -0.13682328 -0.13690594 -0.11716127 -0.10653325 0.05613694
-0.17741641 -0.08160892 0.09377179 0.12207347 0.026294557 -0.10608213 0.11876045 0.06833204
-0.067869246 0.0051968233 -0.0862153 -0.12561005 -0.096416995 -0.13400741 -0.057246443 0.060862124
-0.07456187 -0.101108834 0.027282344 0.051237363 -0.117152005 -0.09108569 -0.11289586 -0.0027939896
0.060082823 -0.09349048 -0.010944136 0.06913456 0.047559455 0.038697448 -0.04527105 0.072795495
-0.13500848 -0.12593767 0.049168233 0.08877111 -0.084449865 -0.03531545 -0.039297517 -0.034038484
-0.010364576 0.028160758 0.040246986 0.017645268 -0.026418075 0.00786322 0.100952715 -0.09716574
-0.08458765 -0.06087159 -0.11711433 0.06287965 0.1192344 -0.08873724 -0.0899694 0.09197813
0.10541461 -0.055343308 -0.07698873 -0.15290035 -0.032462087 -0.1569902 0.0767047 -0.085174
-0.06631356 -0.13212392 -0.12800546 -0.20166536 0.011604887 -0.11133175 -0.12192719 0.1312798
0.03778825 -0.10099294 0.03221714 0.01653809 -0.013730661 -0.13897078 -0.08418664 0.11503962
0.09382597 0.06289768 0.026937844 -0.06737309 -0.10163081 -0.073515385 -0.07637762 -0.10246413
-0.08004617 -0.07397098 0.0077283955 0.100163475 0.0742272 0.090032406 0.14130901 -0.004102209
0.04539866 -0.0062449267 -0.056744087 -0.07095327 0.08805318 0.053355787 0.17425296 0.0908688
-0.037705965 -0.0548186 -0.06707429 -0.08719 0.077669516 0.088525705 0.08048753 -0.051939607
-0.064949565 0.00400555 0.13437784 -0.04088609 -0.08827976 -0.032643232 -0.01835696 -0.023735255
0.04961738 -0.031248452 0.05759979 0.049198218 -0.15593061 -0.12559517 -0.028529584 0.069377154

conv1_2_1.bias f4 [5]
00000000: fd4f d8bd aee1 9d3d b4aa aa3d 2ea9 a23c
00000010: dc3d 673d
-0.105621316 0.077090606 0.0833334 0.019856062 0.056455478

conv1_2_2.weight f4 [5, 20, 5]
00000000: 1a07 adbd bfbc eb3c 7335 173b 6ed3 b1bc
00000010: 48ce 9e3d 5840 0e3d 8c3f 4fbd ffdb 7c3a
00000020: 6cda b73d fdd1 ce3c 764c 493d 1c7b 4ebc
00000030: 935a 823d 15a0 3c3e 8c73 3d3e 7649 1b3d
00000040: 5be8 b2bd 7ec4 1bbd 924d d93d 5c76 f83c
00000050: 55c6 f43d 2c64 d1bc 2132 6a3b 89e2 863c
00000060: 05fc 09bd d405 6c3d acba 653d 19cf 87bb
00000070: c0dd 443e 4a1c 2d3e 4b62 953d 405d 933b
00000080: 0c79 95bc 180a e0bd a3fc 97bc 24f7 e33d
00000090: bed8 333d 3db1 e93b 5272 af3d faf9 d63d
000000a0: 97c5 883c e15e a5bc 9087 a13d 75e6 6dbd
000000b0: 97a4 a83d c869 f63c 9bc3 34bc 097c e83b
000000c0: cec5 90bd 1ae0 c63a e655 4e3c a8d4 2fbd
000000d0: 6238 fabd ce8c 7abd 6f48 c1bc b96e acbd
000000e0: 768b 143d e05a b33d 49e1 75bd aeea 663d
000000f0: 6c77 283d 42ad fa3c 5212 9abb 6be2 b1bd
00000100: 789b 633d 65bd ef3c 602f b5bd fd41 cabd
00000110: 9d9c 8f3d 6fe6 9abd a44e 6bbc 9929 f8bc
00000120: 69ac 9d3d 3151 95bd e598 86bc c8b5 9ebd
00000130: f870 c33d 2d12 e13d a34a 3abc 7873 59bd
00000140: 68cb a83c d4d6 d0bc 0876 b0bc 6fc3 90bd
00000150: 048d 05bd a309 86bd f96b 913b 7bc3 bb3d
00000160: f9c2 043d ec23 a23c 09d6 cabd 0ba7 3d3d
00000170: d4f3 9dbd f5b8 3f3d 0ca4 b23d e63c 6bbd
00000180: 1fbc a9bd 79f2 973c 61dd aebd 0085 09bd
00000190: 4300 403d c7db 7bbd 4acc a23d bc7e d4bd
000001a0: 16a9 78bd 8744 fa3c a243 b7bd 70c4 8b3d
000001b0: 392a 91bd b227 c83d e3b9 71bb d7e4 e6bd
000001c0: 2934 cdbd f8d8 33be f80d 9bbd a5d3 f9bc
000001d0: 5ca4 ce3b 7789 653b 2f4b 9b3d 8e33 3cbd
000001e0: db93 96bd 7496 143d cd3d d3bc a2fd 46bd
000001f0: cfb8 8abd 0c27 80bd f96b 5e3c 9465 673b
00000200: fdc7 0fbd f119 d5bd fd10 193c fba4 423d
00000210: 2ddf 37bc 3088 373d 190d 453c c942 10be
00000220: e20f 123d 0947 1f3b 9cb2 83bc b057 0fbe
00000230: 1186 bbbd f60e 17be d06c babd 823e 03be
00000240: 76b9 18bc 27b5 a7bd c70e 413d f6fd 003d
00000250: 2d03 89bd 357b 683d 541b 70bd 2c1b 703c
00000260: cb5f 8fbc bcd0 35bd faae e43c 5a00 833d
00000270: 9105 9d3d 5c52 89bc 40d9 e3bc 5572 b03d
00000280: 9a71 ee3c 8894 683d d84a 103d ad88 363c
00000290: a4fd 873d ca12 673d f2d2 83bd 7acc 943d
000002a0: 5b1c e93d a937 893d faa1 d73d 0125 b8bc
000002b0: 0e51 f03d 2223 2cbc a2c5 7fbd 3c5e 323d
000002c0: faf4 dbbd f9a1 3c3d f4c7 bf3c fa68 20bd
000002d0: 9520 c53d ebba e13d 10fc efbc 41ea d0bc
000002e0: 41c4 003e c63f c13c 6e20 a6bd 34bb 923d
000002f0: fe6a 8abd 27e6 7e3d 4156 db3d 0aac 3fbd
00000300: 05be a43d 0222 91b8 e86c 4b3d 6097 1dbd
00000310: 1959 fe3d 9dda 6ebc 2c45 fd3d a634 d1bc
00000320: 1d1a 1c3c 9bfa eebd 6be4 d2bd 3ad5 8f3d
00000330: bf88 07bd b8a5 a0bd 4cac 6abd fc8c 093d
00000340: d1b5 95bd ee37 fd3d ff6a a33d 4d50 9a3d
00000350: 9c82 213e 2d6f b53d c162 b13d 1448 c9bb
00000360: d753 4c3d f930 a9bb 1b9a ba3c 0a61 813d
00000370: d244 ba3d 2e64 ddbc 6a0d e93d c2ee a83d
00000380: 402b fb3d 05bf 1c3d 4973 e33d cc9b 883b
00000390: 2215 ac3d a24e 2dbd 838e 8abc 52da 6b3d
000003a0: 271f 7b3d 9898 c23d 154e 943d e1b8 1a3d
000003b0: cf83 973d e7e7 f73d 73f9 c2bc 2029 db3d
000003c0: 59e3 bc3d ed57 343c cd1a 75ba fca6 693d
000003d0: 08da fabc bbb9 90bc b9c4 febc 16ec 2e3d
000003e0: 9da2 983d aafc 1a3e 5895 643c ca5d 26bd
000003f0: 8a82 97bd b772 9bbc 33b6 67bd e3fc 573d
-0.0844862 0.028776525 0.002307263 -0.021707263 0.07754189 0.03472933 -0.050597712 0.0009645819
0.089772075 0.025246615 0.049145184 -0.012602594 0.06364932 0.18420441 0.18501109 0.037911855
-0.087357245 -0.038029186 0.106104985 0.030329876 0.11951891 -0.025560461 0.0035735446 0.016465442
-0.03368761 0.057622746 0.056086227 -0.004144561 0.19225216 0.16905323 0.072941385 0.0044972003
-0.018246196 -0.10939425 -0.018553084 0.11131123 0.043907873 0.007131724 0.08566727 0.10496898
0.01669578 -0.020186843 0.078871846 -0.05808111 0.08234518 0.030079737 -0.011032964 0.0070948643
-0.07068978 0.0015172989 0.012593722 -0.042927414 -0.122177854 -0.061169438 -0.02359411 -0.08419556
0.036265813 0.087575674 -0.0600293 0.05637615 0.041129515 0.030600194 -0.004701891 -0.08685764
0.05556819 0.029265115 -0.08846927 -0.098758675 0.070122935 -0.07563483 -0.014362011 -0.030293273
0.076989 -0.07290877 -0.016430328 -0.07749516 0.095430315 0.10989795 -0.011370334 -0.053088635
0.020604804 -0.025493063 -0.021540657 -0.07068526 -0.032605186 -0.06544807 0.00443792 0.09168144
0.032412503 0.01979252 -0.09904105 0.046301883 -0.07712522 0.04680725 0.08722696 -0.057431124
-0.082878344 0.018548237 -0.085383184 -0.033574104 0.04687525 -0.061488893 0.07949121 -0.10375735
-0.060708128 0.030550255 -0.08948447 0.06824577 -0.070881315 0.09773196 -0.0036884479 -0.112741165
-0.100197144 -0.17563236 -0.07571024 -0.030496428 0.0063062143 0.0035024562 0.075826995 -0.045947604
-0.0735242 0.036276296 -0.025786305 -0.048581727 -0.06773531 -0.062574476 0.013575547 0.0035308348
-0.035102833 -0.104053386 0.009342429 0.04752062 -0.011222643 0.044807613 0.0120270485 -0.14087977
0.03565968 0.0024303815 -0.016076379 -0.13998294 -0.091564305 -0.14751801 -0.091027856 -0.12816814
-0.009321561 -0.08188849 0.047133233 0.031492196 -0.06690059 0.056758124 -0.058619812 0.014654916
-0.017501732 -0.044388518 0.027915467 0.063965514 0.07667077 -0.016762905 -0.027813554 0.08615557
0.029106904 0.056782275 0.035227627 0.0111409845 0.06640175 0.056414403 -0.06436719 0.07265563
0.113823615 0.067000695 0.105289415 -0.022478582 0.1173421 -0.010506423 -0.062444337 0.0435469
-0.10740085 0.046052907 0.023410775 -0.039162613 0.09625355 0.1102198 -0.029294997 -0.025502326
0.12574865 0.02358998 -0.08111654 0.071646124 -0.067586884 0.06223121 0.10709811 -0.04679493
0.08044056 -6.920473e-05 0.049664408 -0.03847444 0.12419338 -0.014578489 0.12366709 -0.0255378
0.00952771 -0.11668893 -0.102974735 0.070230916 -0.033089396 -0.07844108 -0.05729322 0.03358172
-0.07310069 0.12364183 0.07979392 0.075348474 0.1577248 0.08859096 0.08661414 -0.0061426256
0.049884643 -0.0051633087 0.022778561 0.06317337 0.09095158 -0.027025308 0.11379512 0.082486644
0.12264109 0.038268108 0.11105973 0.004168963 0.08402468 -0.04231132 -0.016913658 0.057581253
0.061309006 0.09501761 0.072414555 0.03777397 0.07398187 0.12104779 -0.023800587 0.10701203
0.092230506 0.011007291 -0.0009350002 0.057044014 -0.030621544 -0.017666688 -0.031099664 0.042705618
0.07452891 0.15135446 0.013951622 -0.040616788 -0.07397945 -0.018975599 -0.056570243 0.052731406

conv1_2_2.bias f4 [5]
00000000: 5a8d 9f3d 83bb ce3d fb27 893d 60c3 97bd
00000010: 81e3 183d
0.077906325 0.10094359 0.06697079 -0.07410312 0.03732634

conv1_2_3.weight f4 [5, 20, 11]
00000000: 68f5 14bd 7bff 23bd 2c36 25bd a2a7 5d3c
00000010: 03d4 00bd 9e45 34bd 2a50 893d 070d 783d
00000020: 7d3c 203d 011c 5cbc 9039 2fbd c3f0 8dbd
00000030: 2484 2bbc de37 60bd fc61 50bd 9097 55bd
00000040: ec3a 9bbd 995a 15bd 5625 1d3d 406a cc3a
00000050: 8927 39bd 89f8 1a3d 8b40 813c 4faf 35bb
00000060: 5d4b 6a3c dc63 843c 3470 b53d 4cfd a53d
00000070: 6b48 7a3d 8b70 443d 2d36 d43c dc25 d93d
00000080: 3cba 513d 7ea6 b3bc c7e9 c63d 0832 043e
00000090: 9cee 043d 6364 8c3c 2a5b dc3b 5aff 14bc
000000a0: 5763 c5bd 8bbf b8ba bb9b 69bd b810 64bd
000000b0: 668c 1ebd ad0b 34bd d983 f23c 1fba 6a3d
000000c0: cc78 4d3d 4987 8abc 24f7 f83b 82e3 d83a
000000d0: bb2f b03d 9874 263d ae82 9cbc ed0a e13a
000000e0: 78c6 d3bc 8ca8 c03c d580 f13d 8abe 283d
000000f0: 4747 e53d 881c b3bc 7e0a 643c ee28 ce3d
00000100: ae94 9c3d 21cd 8c3c 2661 abbd 9845 56bc
00000110: fa70 703d 9d91 ebbc b256 aabc 15f1 d3ba
00000120: aba9 c13b c1fd 67bd 79f4 32bd da1b b7bd
00000130: fedb 49bd 05ce 89bd 11ef 853c 4614 adbc
00000140: c23b 44bb c816 c63d 2961 373d 1b98 9f3c
00000150: b8b5 2ebb 7095 14bc 2c6a 243d 09ef 193d
00000160: 2996 8d3c 5705 e2bc 1d30 153c 60c3 843d
00000170: ed48 d23d 3383 b03d e7d6 babc f921 d7bc
00000180: a8d8 abba 9966 b13d 410b 203d 4434 b1bc
00000190: b053 89bc b4a9 23bd a31d a4bd 2a43 ebbb
000001a0: b56f ba3d db56 e13b e0ed a5bb 2049 d83d
000001b0: 706d 22bb fdd8 30bd 0662 e3bd f115 da3c
000001c0: c8ec 3fbd 54a8 4e3b 3ac4 e6bc eaae 3b3d
000001d0: df6d 96bd b630 23bd 1f81 35bd 7d92 46bd
000001e0: 2533 7cbd 390d 8ebd 6e4a d3bd 23e5 9cbd
000001f0: f6c1 13bd 2400 283c 042a 653d 5584 bc3c
00000200: c148 8f3d 22d7 5c3d a6a5 15bd e8c3 f63b
00000210: 223e 72bd c5c9 ea3c e595 b0bd b0d8 c5bc
00000220: 4d4e be3c 8cdf 27bd 934e 84bd 3d62 8ebd
00000230: 88f4 8ebc 4b46 81bc 21f7 25bd 572c bfbd
00000240: 72c5 13bd 0a27 13bc c2b3 a4bd 3320 993b
00000250: 6979 90bd 71a5 393d 8315 4fbc 66ea fd3c
00000260: 3a85 c6bc fd11 54bc f363 6dbd b907 91bc
00000270: 2fbb 45bb 7205 dc3c f898 e9bc 1157 a7bc
00000280: 33ae 12bd 9783 dcb9 d4e8 83bc d94e 20bd
00000290: 0172 f4bd 7ad4 2ebe d5d1 fdbd 95f0 c5bd
000002a0: 6670 c3bc 6231 00bd 6685 3c3d e628 8f3d
000002b0: 18a5 7b3d d3e8 063d d7dd a03d 32ac 833d
000002c0: 7e72 1fbd 647b 1c3d 5c17 6bbc 1c30 36bd
000002d0: b01e 32bd c71f 2dbd 519a f5bc 4fbc 4ebb
000002e0: bdd8 45bd fdf4 5cbd 418d 5fbd c7aa 1c3a
000002f0: 56c3 533d ad2d 683c 7810 a7bd bd50 9d3c
00000300: 5ade e7bc 1c17 5c3b 5472 74bd 13fd 893d
00000310: 56e5 cabc 86ce 14bd 3fe6 95bd cea1 22bd
00000320: 1db9 dcbd 01d6 7abc fa37 583c c1a1 2bbd
00000330: ca0f d3bc d94c 973c c80a b0bc 519c a5bd
00000340: 7135 a7bd a926 3d3d c319 7fbd 0f77 79bd
00000350: fc88 293d 2c97 04bd d083 2b3c 8cb9 07bd
00000360: b0e2 5dbd 927f d8bd 6e9d 1ebe 002c 08be
00000370: cf39 d53c 0c33 363c 8cad fdbc 7806 8ebd
00000380: ec79 59bd 931c 13bd 36fb 653b 9ed5 dbbc
00000390: e468 93bc 4d07 863c 23fe 0d3c 5550 7cbd
000003a0: ac2f a93c 57ff 713c 89be f0bd 8331 76bc
000003b0: a4b3 edbd 00cf 6cbd a939 293d c418 103d
000003c0: 2b3d bfbc 20db 80bd 63bc 09be ded6 14be
000003d0: 3ab1 09be 6dcc 1cbe 1109 22be 51f6 17be
000003e0: 31dd 34be 4ea9 f4bd 1d64 99bd de07 c4bd
000003f0: 72db e0bd e2ad 623c ac16 6d3d b36f 2f3d
-0.03636685 -0.040038567 -0.040334865 0.013528736 -0.03145219 -0.044011705 0.06704743 0.0605593
0.039120186 -0.013434411 -0.042779505 -0.06930687 -0.0104685165 -0.05474078 -0.050874695 -0.052146494
-0.07579598 -0.036463354 0.038365684 0.001559563 -0.04520372 0.037834678 0.015777847 -0.00277229
0.014300195 0.016160898 0.08859292 0.08104953 0.06110422 0.04795889 0.02590474 0.10602924
0.051202998 -0.021929976 0.09712558 0.1290971 0.032454118 0.017137712 0.006724735 -0.009094084
-0.09638088 -0.001409517 -0.05703328 -0.055680007 -0.038708113 -0.043956447 0.029603885 0.057306405
0.05016403 -0.016910212 0.007597821 0.0016547295 0.08602854 0.040638536 -0.019105282 0.0017169394
-0.025851473 0.02351787 0.11792151 0.041197337 0.11195236 -0.02186419 0.013918517 0.100664005
0.07645546 0.017187657 -0.08368139 -0.013078116 0.058701493 -0.028755957 -0.020793293 -0.001616987
0.0059101186 -0.056638483 -0.04369018 -0.08940859 -0.049282067 -0.06728748 0.016349347 -0.021127831
-0.0029942845 0.09672314 0.044770394 0.01948171 -0.0026658606 -0.009068832 0.040140316 0.037581477
0.017283516 -0.027590437 0.009105709 0.06482577 0.10267816 0.08618774 -0.022807552 -0.026261317
-0.0013110833 0.08662147 0.039073233 -0.021631368 -0.016763538 -0.039956763 -0.08013465 -0.0071796374
0.09103338 0.006876809 -0.0050637573 0.105608225 -0.0024784468 -0.043175686 -0.11102681 0.02662179
-0.04685667 0.0031533437 -0.02816974 0.045821108 -0.07345175 -0.039841376 -0.044312593 -0.048479546
-0.061572213 -0.06936116 -0.10316931 -0.07660892 -0.036073647 0.01025394 0.055948272 0.02301232
0.069962986 0.053916104 -0.036534928 0.007530678 -0.059141286 0.028660664 -0.0862234 -0.024151176
0.023230696 -0.040984675 -0.06460299 -0.06952331 -0.017450586 -0.015780589 -0.040518884 -0.09334629
-0.03607697 -0.008981476 -0.080420986 0.004673028 -0.07054407 0.045323793 -0.012639406 0.030995559
-0.02423345 -0.012943742 -0.057956647 -0.017703878 -0.0030171385 0.026858065 -0.028515324 -0.020427259
-0.03581066 -0.00042059712 -0.016102232 -0.039137695 -0.11935807 -0.17073241 -0.12393538 -0.09665028
-0.023857307 -0.031297095 0.046025656 0.06990223 0.061436743 0.032936882 0.078548126 0.06429328
-0.038927548 0.038203612 -0.014348831 -0.044479474 -0.043486297 -0.042266633 -0.02998081 -0.0031545346
-0.0483024 -0.053944577 -0.05457807 0.00059763755 0.05169996 0.014171046 -0.08157438 0.019203538
-0.028304268 0.003358311 -0.059679344 0.06737723 -0.024767559 -0.03632977 -0.073193066 -0.03970509
-0.10777495 -0.015309812 0.01319694 -0.041902307 -0.025764365 0.018469261 -0.021489516 -0.080864556
-0.0816449 0.046179447 -0.062280428 -0.06090456 0.041390404 -0.03237073 0.010468438 -0.033135936
-0.054171264 -0.10571207 -0.15489742 -0.13298035 0.026028542 0.011120569 -0.030966543 -0.069348276
-0.05309479 -0.035915922 0.003509236 -0.026835259 -0.017994352 0.016360903 0.008666548 -0.061600048
0.020652615 0.01477035 -0.11755092 -0.015026453 -0.11606529 -0.057814598 0.041314755 0.03517987
-0.023344597 -0.06291795 -0.1345077 -0.1453509 -0.13446513 -0.15312357 -0.15823771 -0.14840056
-0.17662503 -0.11946355 -0.07489798 -0.09571813 -0.10979356 0.013835402 0.05788295 0.042831134

conv1_2_3.bias f4 [5]
00000000: 735a 02bc 610a a93b e0db 1c3d af06 563d
00000010: 3976 443d
-0.007956135 0.005158708 0.038295627 0.052252468 0.04796431

conv1_2_4.weight f4 [5, 20, 15]
00000000: 81a0 04be 72be 16bd 7547 883c a4c5 0dbd
00000010: a29d 7cbd ea71 c5bc a158 2c3d bdda 40bd
00000020: 5f3d 2ebd e37c e3bc 41bb 5bbd b7c2 a7bc
00000030: c20c f1bc 2ac7 5abd 3441 e6bd eeef 09bd
00000040: 8b04 aabb 5cea 903d 02e1 913c 6d56 913c
00000050: cbff 7e3d 6ea3 72bc e4dd 753d 9f0b bd3d
00000060: 8d7e 7d3d 257a ab3d 20d5 1d3d 610e 3abc
00000070: f678 da3b c322 0fbd c1e8 da3d 162e bc3d
00000080: f9c0 0d3e c181 a23d 1a8a fe3d 1fdd ef3d
00000090: 213a 243e 13fc f83d eeb1 f13d 7d06 ac3d
000000a0: fafb 1f3e f6ea 0e3e c648 6d3d a61b 083e
000000b0: 2a29 9c3d 984e 8e3d b8a7 bb3d 9285 0a3d
000000c0: 4b26 5a3d 0be3 603d e29d 6d3d 8a83 0d39
000000d0: 440a 043d dee0 2dbd 0036 e93c 97ab 263d
000000e0: 4183 8c3d 085b 083d e046 943d 4cde b0bc
000000f0: 094c 513d 7ce5 1a3d e997 8e3d 8c2e 083e
00000100: 66c5 f63d c1a6 353d 7420 083d b214 533d
00000110: ce78 9a3d e2b6 d03d dae7 c53d b2a4 953d
00000120: dd18 0c3e 1f34 f53d df56 863d 5525 fe3c
00000130: f143 3d3d 6f5b 063d 311b 8a3d 384e 073e
00000140: 1c52 653d 13e0 d93d 9a48 6f3d 3a17 2c3d
00000150: 7eca 813d 7861 313e 9397 a93d 3677 db3d
00000160: 3915 033e 040e 023e 18d4 3abd b810 84bc
00000170: 8463 69bc 5a13 90bc 61aa 443c 64a3 5cbb
00000180: 9c3a 3cbd a9fb a03d 2510 8a3d 37df 023a
00000190: c94c 86bd f78d e3bc 6d54 c039 691f 51bd
000001a0: cd6b cbbc b31a ae3d a38b 7c3d 7c5e 8c3c
000001b0: 6410 973d e79d b63c 661a a33c 1728 cc3c
000001c0: f4b7 053e 5a1c 213d 7686 d03d b961 abbb
000001d0: eb04 b03d 6cb8 573d 3874 6b3d dc17 b03c
000001e0: 5bc7 c73c 0a57 aa3d 2748 3a3d 264e a53c
000001f0: 8a81 043d 94f6 a03d a197 113a 9c04 cb3d
00000200: d7de 883d 13e7 893c 7feb 853d 0b75 043e
00000210: 91be 143e 8a34 ae3d 6f96 c23d 411f 493d
00000220: 6ad4 143d 4c2b 2b3d 40a2 7c3d 7aa1 853d
00000230: f03b a63d e210 373d 6bd6 8a3d 95fd 9d3c
00000240: 4848 a73c c8fc 26bc ae20 01bd 3c18 d4bc
00000250: eb73 4ebd 0481 f2bb 7a8f 14bd 8b0f 06bc
00000260: e2e3 103c a285 233c 4600 163d 861e cc3c
00000270: f014 cc3b 2ca2 9cbc e034 2bbd 9981 61bc
00000280: 116d c2bd 40d7 bdbb 84f0 85bc 68ae aabd
00000290: f516 29bd 1a05 6abd a0d4 063b 99ca aabd
000002a0: a3d4 8abd b4c5 0b3d 520d dabc 43ff c4bc
000002b0: 97ef a7bb a9c0 cebc f307 66bc 4439 673d
000002c0: 581d 823d e3c8 d53c b90d bcbb 2715 bbbd
000002d0: 2042 b6bd 8329 803b 2918 a3bc bc38 c6bc
000002e0: 01db bebc 5c83 27bd 5bda 2c3c 9e08 693d
000002f0: 8775 d8bc 50ec 243c f867 bf3d 570d 6e3d
00000300: 9892 783c 7407 28bc 2a24 8dbd 3dcf e0bd
00000310: b781 afbd fffe 15bd 7b7a 8ebd 6817 8ebc
00000320: 2137 92bd 7c14 96bd 0890 18bd 0bc6 173c
00000330: 6755 9bbb 872e a3bc ebd1 b4bd 91d4 5dbd
00000340: f93c babd 39a0 aabd 7934 85bd 6449 8cbd
00000350: bb45 95bd e9b4 01bc 5d4b d0bc fb35 cf3c
00000360: a397 df3a db3b 1a3d 4a19 70bd b392 89bd
00000370: 0b5c e5bd 07d8 bcbd affe bcbd bfb9 a5bd
00000380: 8d5c 61bd 7ad9 c3bc dcef 7b3d b472 28bd
00000390: af06 6e3d f618 d93d ee83 873d 95e7 1a3e
000003a0: 2a29 b93d be25 df3d 5f6b c63d b436 c63c
000003b0: 30c4 62bc d829 103d d65f c9ba 5d33 583d
000003c0: 9f51 58bc 436a a1bd 1ff5 e2bc 6d16 9cbb
000003d0: b60f b0b9 1bfb 84bd 6204 9ebd 1d51 d8bd
000003e0: 3530 cdbc 94da 2ebd 8483 2d3c f66f d0bc
000003f0: 4058 7cbd 951a 923d f315 b43d 76aa 283d
-0.12951852 -0.036802717 0.016635636 -0.034612313 -0.061673768 -0.02410217 0.04207671 -0.047083605
-0.042538997 -0.027769512 -0.053645376 -0.02047859 -0.029425029 -0.053412594 -0.11242905 -0.03367608
-0.00518853 0.070759505 0.017807487 0.017741406 0.062255662 -0.0148094725 0.060026065 0.09230732
0.061888266 0.083729066 0.03853333 -0.011355967 0.0066672517 -0.03494526 0.106889255 0.09188478
0.13843144 0.07934905 0.124286845 0.117120974 0.160378 0.12157454 0.118015155 0.08399675
0.15623465 0.13956818 0.05793073 0.13291797 0.07625039 0.06948584 0.09162849 0.03381879
0.053259175 0.054904025 0.058011897 0.0001349581 0.032236353 -0.04245078 0.028468132 0.040690985
0.06860972 0.03328994 0.07240081 -0.021590374 0.051097903 0.03781651 0.06962568 0.13299006
0.120493695 0.044348482 0.033234075 0.05153341 0.07542573 0.10191132 0.09663363 0.07306804
0.1368136 0.11972832 0.06559538 0.03102366 0.046207372 0.03280204 0.067434676 0.13213432
0.05598651 0.10638442 0.058418848 0.042014338 0.063374504 0.17322338 0.082808636 0.10716097
0.12801065 0.12700659 -0.045612425 -0.016121253 -0.014244918 -0.017587353 0.012003512 -0.0033666724
-0.04595433 0.078605 0.067413606 0.0004992368 -0.06557614 -0.027777655 0.00036683996 -0.051055346
-0.024831677 0.08501186 0.061656605 0.017134897 0.07376173 0.02229209 0.019910049 0.02492146
0.13058454 0.03933368 0.101818964 -0.0052301553 0.08594688 0.052666113 0.05748388 0.021495752
0.024387052 0.08317383 0.045478966 0.020178866 0.0323501 0.07859531 0.00055539055 0.099129885
0.06683128 0.016833818 0.06539058 0.12935273 0.1452582 0.08506115 0.09501349 0.04910207
0.036335386 0.041789338 0.06167817 0.0652494 0.08116901 0.044693835 0.06779178 0.019285956
0.020420209 -0.010192104 -0.031525306 -0.025890462 -0.050403517 -0.007400634 -0.036269642 -0.008182417
0.008843394 0.009980591 0.036621355 0.024916898 0.006228082 -0.019120298 -0.041798472 -0.013763809
-0.09493459 -0.005793482 -0.016350038 -0.083340466 -0.04128166 -0.05713377 0.0020573512 -0.08339424
-0.067788385 0.03412409 -0.02661768 -0.0240475 -0.005124997 -0.025238352 -0.014039981 0.056451097
0.06353253 0.026096767 -0.0057389406 -0.09134894 -0.08899331 0.0039111986 -0.019908981 -0.024196975
-0.023297789 -0.04089676 0.010550107 0.056892984 -0.026423229 0.010066107 0.09346002 0.05811819
0.015171669 -0.010255683 -0.06891663 -0.109770276 -0.08569663 -0.036620136 -0.06956955 -0.017345145
-0.07139421 -0.07328126 -0.037246734 0.009263526 -0.0047404054 -0.019919647 -0.08829101 -0.054157797
-0.09093661 -0.08331341 -0.06504149 -0.06849936 -0.07288691 -0.0079166675 -0.025426561 0.025294295
0.0017058741 0.03765474 -0.058617868 -0.06717434 -0.111991964 -0.092208914 -0.092282645 -0.08092069
-0.055019904 -0.023907412 0.061508045 -0.041125014 0.058111843 0.10600464 0.066169605 0.15127404
0.090410545 0.108958706 0.09688448 0.024196006 -0.01384072 0.035196155 -0.0015363644 0.05278336
-0.013203054 -0.07881596 -0.027704773 -0.0047634155 -0.00033581041 -0.06493207 -0.0771568 -0.10562346
-0.025047401 -0.04268892 0.010590438 -0.025444012 -0.0616076 0.07133976 0.08793249 0.04117819

conv1_2_4.bias f4 [5]
00000000: c57f 97bc 2f79 49bd 7b52 953c f607 25bd
00000010: 3299 aa3b
-0.018493542 -0.049187835 0.018227806 -0.040290795 0.0052062506

conv1_3_1.weight f4 [5, 20, 3]
00000000: e944 383d 1db3 abbd 7bb8 d93d 5b5e 96bd
00000010: b1f0 fbbc 6658 d4bd 2c77 013e d48e 89bc
00000020: f203 4fbc 3c35 64bd 09df 0d3d f76e 87bd
00000030: 030c b23d cf32 d6bd 126e cd3d 0d8d d63d
00000040: 42c7 193d b7eb e53d ef1d b3bc c423 d9bc
00000050: 77a5 633d 6456 23bc ef13 fcbd 51d7 e7bd
00000060: eb79 0d3e 56e4 363c a124 66bd d3b5 503d
00000070: 8a15 013d aac8 73bc a811 51bd 3a87 dabd
00000080: 54d1 93bd 132a 5dbd 836a 1dbd 1d21 91bd
00000090: 9928 12be cbb6 643d e430 e13d 8808 c53c
000000a0: 0970 873d d108 ccbd f1b3 aa3d 569a 07be
000000b0: f096 59bc 65df f2bd 759d 063d b5eb 03be
000000c0: 60ce a3bd 0c65 2ebd d9b2 a4bd c2bc 003e
000000d0: 9408 2cbc 8ee1 fcbd 4c74 123d c1ac 6e3a
000000e0: 39d2 f8bc ec46 973d 1e45 83bd f078 843d
000000f0: 7991 d03d 1846 c33d edc1 ebbc c813 70bd
00000100: 2135 c6bd de23 d03d 11ef dd3d 2d1d 2d3d
00000110: 9213 14bd b8fc 21bb 0e60 673d ab15 83bd
00000120: 33ac aabd 8546 5abc 1f42 9a3c c362 9fbc
00000130: 158b 6cbd db8b ac3d 0732 6dbb 59dc c1bc
00000140: 93f9 023d 7e5b b43b bc6d c9bd 7364 3f3d
00000150: ec04 553d 798b e83d 95c6 c9bc 2024 6ebd
00000160: 44f1 69bc 32ae ae3d 928a 2c3d 12a6 873d
00000170: 11c5 b63d b23f f13d e1db a7bd ff1f aebd
00000180: 1e5d fcbd 809e 813d 93b2 c5bc ffc5 8fbd
00000190: c3a1 853d 6f5e 133d 5900 9bbd b986 c8bd
000001a0: 9ce6 8b3b 1b75 c2bc e4b8 e63d 88f5 bdbc
000001b0: b39b b73c f028 273d fe47 53bd 91bd 38bd
000001c0: 39df babc d11e c83d eca2 cebd 166e ddbc
000001d0: db21 eebd 3009 c2bd 9e02 c53d c141 cabd
000001e0: 7a97 52bc 4b2a a43d 18cf 433d f491 7f3d
000001f0: ccad 86bd 6a3f c63d 66b1 80bc a655 b1bd
00000200: b284 c7bc e6f7 95bc 423d f4bc d1d5 a73b
00000210: e8b4 8ebd 61dd 743c 2ea8 0fbc 2844 cbbd
00000220: d9a2 f53d 1290 1b3c 46dd 63bd 8a0d 423d
00000230: 1252 23bc 9020 e23d 6f25 b93d c422 d3bd
00000240: 1fd4 d0bd 6c85 f3bb 2503 363d 12a2 9a3d
00000250: 8dd4 97bc d9b1 d5bd ce27 333d 87b5 11bd
00000260: e06d bb3c 2125 233d 4e50 0f3e c76c 93bd
00000270: aeff babc 3396 33bd 4f2c 18be f530 aebd
00000280: 29d5 ddbd 573c 81bd b5f9 1c3e 0442 1b3e
00000290: 5d08 d43c 99b5 ca3c 8387 c93d 2e11 babd
000002a0: e33c 463c eca3 203e 1dfa 063e 82cd a73d
000002b0: 9092 c53d 4ab2 103e c19d 0ebd 70f2 823d
000002c0: b37f bc3d e1c7 053e cbc5 803d 7b7b 303e
000002d0: 4738 b73d 146a d1bd 620f 2b3d 33f9 6a3d
000002e0: 42d3 903d 8c01 47bd 0bdc dc3c 3858 00bd
000002f0: 9dc0 753b 97b6 fb3d 7c13 9a3d 0c60 88bd
00000300: 74bc 69bd 5151 b53d a729 e53b e8eb 75bc
00000310: dbbb c3bd 8e50 07be 3ffe 1f3e ba09 eb3c
00000320: a93b 84bd 6262 71bd 94e0 abbd 7362 54bd
00000330: 10c8 683d c37e 563d 9d79 b5bd b531 1d3e
00000340: 02a9 4a3d 2ed0 cbbd 38f1 d8bd 101a b9bd
00000350: 6045 c7bd 4130 bd3d 31b5 99bb d188 243d
00000360: d746 183d 042f a03d b83a f7bd 266d 07be
00000370: d356 41bd 08a4 9b3d f61c a03d 27d2 8abc
00000380: 3fa0 c33d e653 fbbd 5de2 7ebd 6868 1dbd
00000390: ead0 ac3d 96a5 bebc f3e0 cbbc 3a08 adbd
000003a0: 63f1 f13d 5de3 e43d ed34 9c3c 3e7d a5bd
000003b0: d133 d93d 7cca 1cbd f700 4cbd b3cd 413d
000003c0: e707 dc3d ac98 02be 6bf3 00bc 7649 d1bd
000003d0: 2564 123d a63e fdbd 430f 953d 3f96 b3bd
000003e0: c53d b23d d176 f3bd 168e 15bc 6b72 fc3c
000003f0: ec72 c9bd 4815 4fbd dc04 903d 65a0 14bd
0.044987593 -0.083837725 0.1063089 -0.073422156 -0.030754419 -0.10368423 0.12643117 -0.016791739
-0.012635218 -0.05571483 0.03463653 -0.06612962 0.08693697 -0.1045891 0.1003076 0.10476122
0.037543543 0.112266 -0.02186486 -0.026506312 0.05557772 -0.009969328 -0.123084895 -0.11320365
0.1381604 0.011162838 -0.056187276 0.05095465 0.031514682 -0.014879385 -0.05104223 -0.10670324
-0.072176605 -0.053995203 -0.038431656 -0.07086394 -0.142733 0.055838387 0.10995653 0.02405192
0.06613166 -0.09962619 0.08335102 -0.13242468 -0.013280615 -0.118590154 0.032865006 -0.12882884
-0.07998347 -0.042576835 -0.08041925 0.12572005 -0.010500092 -0.12347709 0.03575544 0.0009104722
-0.03037368 0.07386574 -0.064096674 0.064683795 0.10183997 0.09534854 -0.028778994 -0.058612615
-0.09678102 0.10163091 0.10836614 0.042264152 -0.036151476 -0.0024717283 0.05648809 -0.06400617
-0.08333626 -0.013322477 0.018830357 -0.019456273 -0.057749826 0.08425113 -0.0036193149 -0.02366464
0.031976294 0.005504071 -0.09835383 0.046726655 0.052006647 0.11354727 -0.024630824 -0.05813992
-0.014278714 0.08529319 0.04212434 0.06623472 0.08924306 0.11779727 -0.081962354 -0.085021965
-0.12322448 0.063290596 -0.024133002 -0.07020187 0.06524994 0.03597873 -0.07568426 -0.09791321
0.004269434 -0.02373748 0.11265734 -0.023188367 0.02241311 0.040810525 -0.05158233 -0.04510266
-0.022811519 0.09771503 -0.10089669 -0.027030032 -0.11627551 -0.094744086 0.0961964 -0.09875823
-0.012853498 0.08015879 0.047804922 0.06239505 -0.06576118 0.09680064 -0.01570959 -0.08658914
-0.024355266 -0.018306684 -0.029814366 0.0051219244 -0.06968099 0.014945359 -0.0087681245 -0.09925109
0.11993951 0.009494798 -0.055630945 0.047376193 -0.009968298 0.11041367 0.09040343 -0.103093654
-0.10196709 -0.0074316766 0.044436593 0.07550444 -0.01853397 -0.104343124 0.043739133 -0.03557351
0.02287954 0.03983033 0.13995478 -0.07198482 -0.022826996 -0.043844413 -0.14860652 -0.085054316
-0.10831673 -0.06310337 0.1532963 0.15161902 0.025882894 0.024744796 0.098403 -0.09085308
0.012099477 0.15687531 0.13181348 0.081934944 0.09647095 0.14130512 -0.034818415 0.063938975
0.09204044 0.13064529 0.06287726 0.17234604 0.08946281 -0.10225311 0.041762717 0.05736656
0.07071544 -0.04858546 0.026960393 -0.031334132 0.003749884 0.122906856 0.075232476 -0.066589445
-0.05706449 0.088534005 0.0069934907 -0.015009858 -0.09557315 -0.13214323 0.15624331 0.028691161
-0.06456692 -0.058931716 -0.08392444 -0.0518517 0.05683142 0.052366983 -0.088610865 0.15350993
0.049477585 -0.099518165 -0.10592884 -0.09038174 -0.09730029 0.09237719 -0.004690789 0.04016954
0.037176933 0.078214675 -0.120717466 -0.1322523 -0.047201943 0.07599646 0.07818024 -0.016945912
0.09552049 -0.12271862 -0.062227596 -0.038429648 0.08438285 -0.023272317 -0.024887538 -0.08448835
0.11813619 0.111761786 0.019068206 -0.08080529 0.10605586 -0.03827904 -0.049805608 0.04731531
0.10743695 -0.12753552 -0.007870535 -0.1021909 0.035740037 -0.12365465 0.072783016 -0.087688915
0.08703188 -0.11887897 -0.009128114 0.030816277 -0.09836373 -0.050557405 0.07032177 -0.036285777

conv1_3_1.bias f4 [5]
00000000: 1aa7 d03d f525 b7bd 7dcb ec3c 7c9c 76bd
00000010: 3b14 843d
0.10188122 -0.089427866 0.028905625 -0.06020783 0.06449171

conv1_3_2.weight f4 [5, 20, 5]
00000000: 91cf 4d3c 3e83 b93d 5c67 343d 7a14 a0bd
00000010: 6724 473c b4e3 6abd de1b 2ebd 10cb ba3d
00000020: a370 c23d 1894 5d3d 8c17 693b 1e04 4fbd
00000030: c73c e1bc 3894 99bd b7ea 97bd 6925 9f3d
00000040: d2bb 1bbd fb81 27bd ec5a b43d 3bd7 c3bd
00000050: 1059 a8bd aebb cbbc 0645 903d ec91 503d
00000060: 307d 2e3c a905 96bd a6d6 4c3d 94d3 943d
00000070: 8ff8 4c3c 6b90 82bc 679d 84bc 5d58 7fbc
00000080: 7d57 103d 2f78 773d ffe2 c83d b716 c6bd
00000090: 87b2 13bd 4d29 093c 0499 5bbd fc42 063d
000000a0: 73ff a43d 7cd7 923d 0094 3b3b 958d 89bd
000000b0: 5455 16bd 6f2d ae3d 8c99 c23d 87ff 573d
000000c0: 6c55 583d b8d1 0dbd ac04 9bbd 3947 c5bd
000000d0: 48e4 4bbd 0cb3 9f3d 6712 853d 2e4d 6dbd
000000e0: 132e 72ba aec9 37bb 2cd3 42bc 9713 243d
000000f0: 744c c2bd 0421 9cbd 43a1 d1bd 8a0f bdbc
00000100: b577 2a3d c9f3 17bd a166 e8bd d488 f6bd
00000110: 5a61 f6bd 7fa4 b83c 971b d53d 31dc 153d
00000120: e18f ffbb 21b3 713d 91f2 253d bdbb b4bd
00000130: 4bd1 043c 525b 2c3c eb7d 01be 1f11 84bd
00000140: 64b7 22bd 53c8 d03d 6c0f e7bc bc2d 093d
00000150: 69c3 c93b 24a2 0b3e f499 a7bc 30db aebc
00000160: f89e 89bd 02e0 0cbd 3ab2 533d 74d8 1d3d
00000170: dd84 babb d4ac ea3d 1de8 16bd 8726 e8bc
00000180: 00bd 9f3d 1367 783d b196 f53b 08d1 75bd
00000190: 820b 443d 6b75 1abc b023 0dbd 823d b1bd
000001a0: 50e3 c03d aaad 61bd 6162 64bd bd56 8b3d
000001b0: cdf1 973d 7c76 7ebd 7824 0abd 3735 8fbd
000001c0: 9191 d23d e173 a23c 4f75 6b3c 7332 10bd
000001d0: 45b7 a43d 833f ea3d 8430 9e3d 0bec 97bd
000001e0: f33b a8bd 5eed c73d 7d76 8e3d 7c60 af3d
000001f0: 1b3c d53c 20bc e3bd 20b1 263d c9fb a03d
00000200: 9119 2e3d 7635 e7bc 3e93 853c 1987 99bd
00000210: 7323 20bd 45eb d03d d494 bb3c f7ae 95bd
00000220: cdec af3d ac72 b53d a31d 73bd 05b7 353d
00000230: 0fa9 b7bb e248 f0bc ac3f d93d 616b c93d
00000240: 1e57 1e3d 39f1 5c3d 9a62 623c feb0 a7bd
00000250: d226 833c f7b1 e63d 692a a3bd c513 ee3b
00000260: aaaf cdbd 11ad 36bd acf7 033c 517e 813c
00000270: 9c20 d33d 042a 703c b335 6bbb 9737 02bc
00000280: e9c9 f8bc 44df 593d 53f4 d0bd 51e1 5abc
00000290: f064 913c 06bf 2fbd 41c1 fbbd f9e1 88bb
000002a0: c210 b1bd 8f62 cfbd f474 53bd 9180 a5bc
000002b0: 8df0 d43d 5bc4 d5bc 02d0 ea3d 7532 dbbd
000002c0: 4e43 52bd df81 803c 2db1 0f3d e753 0cbe
000002d0: b588 343c 9dcc 023e bc89 a53d cfb7 f93d
000002e0: 31ae 8abd 61e8 7d3c 0846 423c c073 473d
000002f0: 0a3f a33d 9676 c13d 8c05 ae3c e67c af3d
00000300: 2c95 013c adc5 a93d ddf2 b03d 4dca 88bd
00000310: 6632 093d 87be 013d d251 873d da85 3ebd
00000320: cf57 d0bd 7e08 8a3c f7a3 623d 8b85 90bd
00000330: f3d5 73bd 30bb ab3c ceff d9bc cd91 8cbd
00000340: de10 78bd a880 a9bd ea47 3dbd 6fb5 603d
00000350: 3e7a 893d c89f 2b3d a027 dabd de29 fbbc
00000360: cbac e43c 65d8 03bd 9a09 efbd f988 6c3d
00000370: 23fc 963c 5145 b03b 7816 8c3c e4b1 993a
00000380: 3859 8a3a e650 3e3d 344c 563d 0051 4d3d
00000390: fa1a b03d 572f b63d 361b 803d fcc7 243d
000003a0: 4a35 50bc ff8f 5ebc bf2a 5a3d 4bcb e23c
000003b0: ab22 80bd 2c29 783d 1277 57bd 7088 f53c
000003c0: 4bd8 a6bd d73a 903d 07fc 2a3d ec7d 82bd
000003d0: 5afa 033d 2884 0e3c 32a9 b5bc c187 9fbd
000003e0: 754d 63bd 644d b8bc 06b3 e13c e3b3 3fbd
000003f0: 3a30 9a3c 747e 073e 6d74 0dbd f59b 7dbd
0.012561695 0.090582356 0.044043884 -0.078164056 0.012154675 -0.05734606 -0.042507045 0.09120762
0.0949414 0.05409631 0.0035567014 -0.050541036 -0.027494801 -0.074989736 -0.07417815 0.07770807
-0.038020916 -0.040895443 0.088064045 -0.09562536 -0.08220112 -0.024869766 0.07044415 0.050920412
0.010649964 -0.07325298 0.050009392 0.07266918 0.012510433 -0.015938004 -0.016188337 -0.015585032
0.035239685 0.06041735 0.09808921 -0.09672301 -0.03605893 0.008371663 -0.053612724 0.032778725
0.080565356 0.07170007 0.002862215 -0.06716458 -0.03670247 0.085047595 0.09501943 0.052733924
0.05281584 -0.03462383 -0.075692505 -0.09632725 -0.049778253 0.07797822 0.064976506 -0.057934932
-0.0009238433 -0.0028043794 -0.011891168 0.040057745 -0.094872385 -0.07623485 -0.10235836 -0.023078699
0.041618068 -0.037097726 -0.113477 -0.12037817 -0.12030287 0.022539375 0.10405653 0.036586944
-0.007799134 0.05900872 0.040514532 -0.08824871 0.00810654 0.010519819 -0.1264569 -0.06448578
-0.039725676 0.10194459 -0.028205596 0.03349088 0.006157328 0.1363607 -0.020459153 -0.021344751
-0.06719774 -0.034393318 0.051683642 0.038536504 -0.005692108 0.114587456 -0.036842454 -0.028338684
0.07799721 0.060645174 0.0074947705 -0.0600138 0.047862537 -0.009427409 -0.034457862 -0.0865431
0.094183564 -0.05509726 -0.055757884 0.068036534 0.07419167 -0.062124714 -0.033726186 -0.06992572
0.10281671 0.019830646 0.01437123 -0.035204362 0.080427684 0.11437895 0.07724097 -0.074180685
-0.082145594 0.09762071 0.069561936 0.08563325 0.026029637 -0.11119866 0.040696263 0.07860524
0.04250485 -0.028223734 0.016305562 -0.07496471 -0.039096307 0.10201124 0.022898115 -0.073087625
0.08590088 0.088597625 -0.059354436 0.044363994 -0.00560487 -0.029331628 0.106078476 0.09834934
0.0386573 0.053940985 0.013817454 -0.081880555 0.016009722 0.11264413 -0.079670735 0.0072655403
-0.10043271 -0.044598643 0.008054655 0.015807303 0.10308954 0.014658455 -0.0035890162 -0.007947824
-0.030369716 0.05319144 -0.10202851 -0.013359384 0.017748326 -0.042906784 -0.1229272 -0.0041773287
-0.086457744 -0.101262204 -0.051625207 -0.020202907 0.10397444 -0.026094606 0.114654556 -0.10702983
-0.051333718 0.015686927 0.035081077 -0.13703881 0.011018922 0.12773366 0.08082911 0.12193262
-0.067715056 0.015497298 0.011857517 0.048694372 0.07971008 0.094464466 0.02124288 0.08568744
0.0079091005 0.08289657 0.086400725 -0.06679211 0.03349533 0.03167584 0.06607403 -0.04651437
-0.10172998 0.016849753 0.05533215 -0.07056721 -0.05953021 0.020963281 -0.026611235 -0.06863747
-0.06056296 -0.08276492 -0.04621116 0.05486053 0.06712769 0.041900426 -0.10652089 -0.030659612
0.027914425 -0.03218879 -0.11671753 0.057747815 0.018430775 0.005379357 0.017100558 0.0011725989
0.0010555154 0.04646387 0.052318767 0.050126076 0.08598895 0.08895748 0.0625519 0.040229782
-0.012708018 -0.013584136 0.053263422 0.027684828 -0.062566124 0.06058614 -0.05260379 0.029972285
-0.08146723 0.07042473 0.04174426 -0.06371674 0.032221176 0.008698501 -0.022175405 -0.07789565
-0.05549379 -0.02249784 0.027551185 -0.046802413 0.018821824 0.13231832 -0.03453486 -0.06191631

conv1_3_2.bias f4 [5]
00000000: b39f 14bc e0f0 c33d 0e25 a03d 0ebc 28bd
00000010: c8f6 c53d
-0.009071278 0.09567428 0.078195676 -0.041194968 0.096662104

conv1_3_3.weight f4 [5, 20, 11]
00000000: 3ff8 953c 327d 27bd a7bb a1bc c94f 873d
00000010: ab66 22bd cb22 2fbd 8607 6a3d 7408 6a3d
00000020: 419e 493d 4571 e53c 7168 7cbd 00ee 0cbd
00000030: 74db 853c c5b8 07bd e415 77bc 8384 193d
00000040: b7ba b73c 2ff5 7f3c 54d4 c2ba 85ed 49bd
00000050: 1d46 633d 65ad 15bc 15f4 053d 8eae e7bc
00000060: 5683 14bd 90a1 e3bc 2fa4 f8bc 5ac9 183d
00000070: 396c 12bd 4dc4 b9bc 07bb 16bc 483e 7fbc
00000080: 1bcf 8e3c 7ca5 733d 9921 913d d6c5 8b3d
00000090: 9454 52bc af91 b5bb e977 6e3d 474f 883d
000000a0: edfe 23bd a1a2 053d 1fed dd3b 7046 4d3d
000000b0: 88b6 5d3d b553 53bd 7034 4dbc 8fce 40bb
000000c0: d7a0 0c3d 1dba 673d c4d7 623d b2c8 81bd
000000d0: 519e 20bd 9249 b23c 72a9 23bd eb77 85bd
000000e0: 3585 1f3d fd5d 52bd 495e d0bc b46b 1938
000000f0: c64f 94bd 505a ce3c 58f3 9bbd 9851 bfbc
00000100: 3042 213d e0d4 9d3c ac14 09bc b2a3 df3b
00000110: 4036 19bd bb69 643d 9faa 1d3d 7313 763d
00000120: a60c c33c 113d 303d 5033 983d 35fc 223c
00000130: f4df 77b8 2500 393c 21e4 acbc d3ad 2abd
00000140: 0da7 d13c 81b8 073c 0aed 173b a07d 98bc
00000150: e267 7ebb abd5 7bbd 03e5 9fbc c436 80bd
00000160: 2954 5d3d 42a5 a0bc dfae 69bd 1d8f 06bc
00000170: 564d 2c3d 622f 943a a038 b63c 213e 363d
00000180: 6f01 303d d3bf 1d3d 16f9 8d3d 8519 d63c
00000190: e1e6 1bbd ac83 55bd e7a5 0d3d ee3c 1b3d
000001a0: 16a3 883d d8e4 9b3a 97db 1d3d eb55 57bd
000001b0: 8952 30bb 3f75 3cbc 41e3 3fbd a0cc b3bd
000001c0: a74e 6bbd a51b debc 8835 c8bd 30b3 7ebc
000001d0: 014b 3fbd afdd 85bd 94a3 cabd ff41 83bd
000001e0: 3cfc b9bd 17d2 623d d708 a73d 438f aa3d
000001f0: 3447 ce3c db49 17bd 1de4 1fbd 4282 913d
00000200: 7bf6 cbbb e76b b23d b5d4 093c 3e57 a83b
00000210: 6e36 4bbc 425c ca3b b1cf 94bc c004 c4bd
00000220: 2c8b 6bbd 6bab f03c fed8 aabd 5cc2 cebc
00000230: 9c74 9dbd 2d2f 48bd 18c1 053b a17e 91bd
00000240: 39a5 583c 0049 41bd af25 acbd 374b 533c
00000250: 2a77 93bd 241b 64bd 9210 873c 182c 2abd
00000260: afb7 053d 7378 7dbd badc 3b3c 85f5 843c
00000270: 07be 753c 59ce 02bd ec91 eb3c d2b2 523d
00000280: 6d5c 813d cd4a 753d 9bf8 033d 16d0 023c
00000290: a39c 523d 83f4 ddbb cf57 aa3c 153f c9bb
000002a0: 9a4c 8dbd 1eef a0bd 2be9 01bc d6d0 92bc
000002b0: d366 edbd db99 4a3b eaa1 2cbd 3ee7 c8bd
000002c0: 5cff 13bd f2b5 713d 8ff4 c33d a4f0 953d
000002d0: 6168 06bc 5017 673c 941c 01bd 8f60 873d
000002e0: 2f0e 303d 7d6a eab8 f94e d8ba 4bc4 49bc
000002f0: d845 2dbc 8d68 7fbc a5ce 513c 6660 893d
00000300: 853e f23c cb43 563d dd2d a73d e30e 01bd
00000310: 67f0 7e3d c66b 07bd 7532 82bb c735 663c
00000320: 560e 893d f66c b7bc 7ae9 1bbc e8f6 643d
00000330: ee1b e2bc feb2 b13d 0505 a7bc 450a 693d
00000340: 2e52 883c d517 3a3c be4e 0b3d 615a f3bc
00000350: fe3a 3d3d 84c0 2d3d 1b4e ee3b a475 8cbb
00000360: 8e56 8ebc 2b81 273d 39f4 ca3c e822 ab3b
00000370: 7ea7 64bc a1f6 b5bd de1d 3bbd 63de 193d
00000380: bf36 edbc aff4 d6bc f68b f73c f99e 3a3d
00000390: c44a 2fbd 47b8 4b3d 0d3d ccbc b2fc 12bd
000003a0: 87c2 80bd babe 71bd 28fe b1bc 2977 193d
000003b0: 7677 0abd 01f7 0d3d 3974 823b dfea 99bc
000003c0: b656 383d 19f2 7a3d ef89 9fbd f172 73bd
000003d0: 4d37 3c3c 22da f73c 8cd0 32bd 9f3b 923d
000003e0: 6d9e 2d3d 0d95 3b3d 99e4 11bd 3c36 793d
000003f0: cc1a bf3c 058a ebb9 813e 143c 69a0 edbb
0.01830685 -0.04089088 -0.0197428 0.06607015 -0.039648693 -0.04275779 0.05713608 0.057136968
0.04922319 0.028008113 -0.06162304 -0.034406662 0.016339995 -0.033135194 -0.015080903 0.03747989
0.0224279 0.015622421 -0.0014864304 -0.049298782 0.055486787 -0.009135579 0.032703478 -0.028281476
-0.036258064 -0.027787 -0.030351726 0.0373014 -0.03574774 -0.022676611 -0.009199864 -0.015578814
0.01743274 0.05948399 0.07086486 0.068248436 -0.012837548 -0.0055410485 0.058219824 0.06655746
-0.040038038 0.032625798 0.006772652 0.050116003 0.054129153 -0.0515935 -0.012524709 -0.0029419994
0.034333076 0.056573976 0.05538155 -0.06337108 -0.039213482 0.021763597 -0.039956518 -0.06517013
0.038945395 -0.051359165 -0.025435584 3.657835e-05 -0.07241778 0.025189549 -0.076147735 -0.023354337
0.039369762 0.019266546 -0.008366745 0.006824934 -0.037405252 0.055764895 0.038492795 0.060077142
0.023809742 0.043026987 0.07431662 0.009947826 -5.909796e-05 0.011291538 -0.021104874 -0.041669678
0.025592351 0.008283735 0.0023182058 -0.01861459 -0.0038819243 -0.061483067 -0.019518381 -0.06260446
0.05403534 -0.019610051 -0.057051536 -0.008212832 0.04206594 0.0011305625 0.022243798 0.044492844
0.042970117 0.038513016 0.06932275 0.026135216 -0.03806198 -0.052127525 0.034582045 0.037899904
0.06671731 0.0011893762 0.038539495 -0.052572172 -0.0026904664 -0.011502563 -0.046847586 -0.087792635
-0.057448056 -0.027112791 -0.09775835 -0.015545651 -0.04670239 -0.065364234 -0.09894481 -0.06409072
-0.09081313 0.05537614 0.08155983 0.08328106 0.025180437 -0.03693567 -0.039035905 0.07104923
-0.006224451 0.08711987 0.00841253 0.005137353 -0.012403114 0.006175549 -0.018165441 -0.095712185
-0.05750577 0.029378613 -0.08342169 -0.025239162 -0.07688257 -0.048873115 0.0020409282 -0.07104231
0.013222986 -0.04718876 -0.08405625 0.012896351 -0.07200463 -0.055689946 0.016487394 -0.041545957
0.032645877 -0.061882447 0.0114661995 0.016230354 0.014998919 -0.03193507 0.028756104 0.051440068
0.06316457 0.05988579 0.03221951 0.007984182 0.05141891 -0.006773533 0.020793824 -0.006141553
-0.06899376 -0.07858108 -0.007929127 -0.017921846 -0.11591878 0.003091446 -0.0421466 -0.09809731
-0.0361322 0.059011407 0.0956813 0.07321289 -0.008203597 0.014104679 -0.031521395 0.06610214
0.042982277 -0.000111778245 -0.0016503028 -0.012314866 -0.010575734 -0.015588892 0.012805616 0.0670784
0.029570827 0.052310746 0.081630446 -0.031508338 0.062240984 -0.033061765 -0.0039733 0.014050907
0.066921875 -0.022390824 -0.009516114 0.05589953 -0.027601209 0.08676718 -0.020388136 0.05689456
0.016640749 0.011358221 0.03401064 -0.029706182 0.046198837 0.042419925 0.0072724945 -0.004286485
-0.017375257 0.04089467 0.024774658 0.005222667 -0.013955949 -0.08884931 -0.04568278 0.0375656
-0.028956769 -0.026239721 0.030218106 0.045561764 -0.04279591 0.049736287 -0.024931455 -0.03588552
-0.06287103 -0.05901978 -0.021727636 0.037467156 -0.033805333 0.03465939 0.00398114 -0.018788753
0.04500457 0.06126604 -0.077899806 -0.05943579 0.011487794 0.030255381 -0.043655917 0.07140278
0.042387415 0.045796443 -0.0356184 0.060842738 0.023328207 -0.00044925525 0.009048105 -0.0072517884

conv1_3_3.bias f4 [5]
00000000: ad86 833d bb67 933c 166c 993c 1b8c 0ebd
00000010: 3a17 0c3d
0.06422172 0.017993798 0.018728297 -0.034801584 0.034201838
